models/VIRAT_ActEV/VIRAT_ActEV.pt (torch, 448466 bytes, 33 tensors)

conv2Da.weight f4 [64, 2, 2, 2]
00000000: bff5 05bd c1c3 d53d 83d3 363c 7707 86bd
00000010: ce3c a3bd 217e bcbd 7c9c 3236 5b58 50bd
00000020: af43 963d 1fde 363e bbbd febb 118b 6cbd
00000030: bac1 1abe 1af8 03be 9752 913c 5efd 32be
00000040: a08f c9be 9c47 c83e ebcf debf 61bb fabc
00000050: b150 0fbf 45b5 d8be 5b72 aa3b 7301 323e
00000060: 1da5 0e3e 7f35 00bd eb9a cfbd 5da5 00be
00000070: 0587 cdbd 5ad0 9abe 2bd2 08b7 7075 16be
00000080: df7d be3d ecc5 a43d 7a56 ecbd c8d8 aebd
00000090: 50ce 67bd 0879 973a 2851 20ba 2925 0abe
000000a0: 0ba2 30bb 20f2 d93a a204 08bc 299c f73a
000000b0: cf72 11bc 63b4 ccbc 2c4a 0c39 4178 43bb
000000c0: 8439 d8bc d49a cc3c 966a e33c 080a 643c
000000d0: d843 bdbd f2e0 64bc e7af 5e38 2b78 adbc
000000e0: 6c7c b93c ed67 90b9 9747 95bd 882d 043a
000000f0: b80b 84bb 7f30 c2bb b55d 81b7 bb54 6739
00000100: 3952 ab3e 05a4 103d a149 993f b88e 7d3d
00000110: 16a3 e3bc 309c 5dbc b35f 303e 51cd 7fbe
00000120: c2bd ee3d dd26 febe f23c a5bd 69fd babd
00000130: 5e79 d6be d031 e7be 69ad cd3c ccf9 5ebe
00000140: fa31 8fbd b8f7 adbe 5f45 47bf 41b3 a6be
00000150: f485 55be 6e31 33be 43a6 e6bc 0d07 37bf
00000160: e9a2 e43b e46a 0fb9 7865 483b a6e5 8c39
00000170: c1e6 9c3a 0525 a43b e0f1 9236 23e9 14ba
00000180: 04e1 6d3e d95f 4c3f 4a40 4cbd 084e ce3f
00000190: 7417 b1be 94e6 22be 4ab7 73be 269e 94bf
000001a0: 048b 26bc 3c41 cf3d 148e 18bd 4e9e da3b
000001b0: e105 0cbe 4f3d 1cbd 4d0b 6c3c 0504 4cbe
000001c0: 0b1b 3f3c 3157 7b3a 92df f7bc 049d 783b
000001d0: 9295 85bc e23a 40bb a6e6 b738 a25a 933c
000001e0: c7b8 c1ba 5b20 9b39 c31e 0bbb a133 e939
000001f0: 557a 5dba bd72 ceba b8d1 43b6 350d 89ba
00000200: f537 8fbc 197a 933a 32dd 2a3c c0ab b8ba
00000210: bbfe 87bb 1986 0ebc 3b7d 1535 b8c5 bcba
00000220: 8011 01bf 3b71 89bd c044 cabf 469a c23e
00000230: e0b3 09be c93a db3a 7e29 70bd 2d8f 21bf
00000240: cc07 983d c0cf 433c e943 37bd 3d01 81bc
00000250: 9779 99be ee34 84bb 6994 d6b4 0c3e 3dbb
00000260: 7aa4 343e a269 dfbf ce7c 893e f848 1ec0
00000270: 0bbc 653e 6b75 593e 00bb fb3c 721f ac3e
00000280: 959a ca3f 2ed0 cf3d c3f0 b4bf 3783 9bbd
00000290: 7651 d03e 3d79 80be 685e f339 d3d9 d43e
000002a0: 053a d63c a903 38bd b2c8 17be 1b0a 6ebb
000002b0: 8dd0 71ba 3f3d cbbd 837c 1f34 4434 b3bb
000002c0: f572 11bd 63cc a03d 105b 043d c8a2 92bd
000002d0: 83db 54bd 8f06 2abd 5b88 903b 3769 96bd
000002e0: 64ba 833c 6cb3 9bbb 24e1 113c 1c9f fbbb
000002f0: 2dcf 37bc d0a6 43bd 1ba3 d438 7ca9 a7ba
00000300: e559 5d3a ad2e 503b 14e9 80bc 82a4 d53a
00000310: 6cde a2bb 6f34 9cba 4ab1 c438 5da5 5cba
00000320: a5b7 0ebe a2b7 cfbc 8b2c 1ebf 71ea 57bd
00000330: df5b 2bbc 1801 0fbc b9a7 273a 911e 23bd
00000340: 34f1 bf3d ac76 cf3d dc95 c0bd 5f49 323d
00000350: 0b57 b3bd 7603 acbe 88e4 4b3d 0680 14be
00000360: 8bec 93bd 2f17 833f 39a4 cfbe 0ace d43f
00000370: c5d3 023e 78bf c33d 2869 183d e727 563e
00000380: 25be 4fbc aa80 503d 9e56 eb3d 43cc b4bc
00000390: 9c60 e4bb 4152 d0bb 02a0 3d38 2522 f53b
000003a0: bfde c839 732c 323a e329 35bc 5848 523a
000003b0: 9cec 9ebb dd9d bebb 3a12 2337 dfa0 983a
000003c0: 7d21 48bd 0fb8 6fbd a975 0d3d 73f5 debb
000003d0: 44f7 2abd b4a3 05bd c4e8 5fbc 8f16 95bd
000003e0: 3b5f 073d e297 13bc 3b63 98bd 1466 00bc
000003f0: 599d 34bb d40e aabb 6629 2a38 dcc6 833a
-0.032705065 0.10437728 0.011158827 -0.065443926 -0.07970582 -0.09203745 2.6615153e-06 -0.050865512
0.07337128 0.1785817 -0.0077740825 -0.05774981 -0.15112963 -0.12887612 0.017739577 -0.17479464
-0.3936739 0.39117134 -1.7407202 -0.030606927 -0.559825 -0.42325798 0.0052016205 0.17383365
0.13930173 -0.031301018 -0.1013697 -0.12563081 -0.100355186 -0.30237085 -8.155165e-06 -0.14693236
0.09301352 0.08045563 -0.115399316 -0.085374415 -0.05659324 0.0011556456 -0.0006115609 -0.13490738
-0.0026952054 0.0016627945 -0.008301886 0.0018891144 -0.00887747 -0.024988359 0.00013379072 -0.0029826316
-0.026394613 0.024976172 0.027760785 0.013918407 -0.09241456 -0.013969647 5.3092746e-05 -0.021175465
0.022642337 -0.0002754325 -0.07289045 0.0005042185 -0.0040297173 -0.0059261913 -1.5421634e-05 0.00022061441
0.33461168 0.03531267 1.1975595 0.061903685 -0.027787726 -0.0135260075 0.17224006 -0.24980666
0.11657287 -0.49639025 -0.08068265 -0.091303654 -0.4188947 -0.4515519 0.025107102 -0.21774977
-0.06991954 -0.33978057 -0.77840227 -0.32558635 -0.2085188 -0.17499325 -0.028155452 -0.71495134
0.006977428 -0.00013677363 0.0030578058 0.00026873982 0.0011970625 0.005009296 4.379297e-06 -0.0005680492
0.23230368 0.7983375 -0.049866 1.6117563 -0.34588206 -0.15908271 -0.23800388 -1.1610763
-0.01016498 0.10119864 -0.03724487 0.0066717034 -0.13674118 -0.038144406 0.014406991 -0.19923408
0.011664162 0.00095878827 -0.030257974 0.0037935385 -0.016306672 -0.0029331972 8.7690816e-05 0.017987553
-0.0014779799 0.0002958801 -0.0021228052 0.0004447969 -0.000844871 -0.0015750747 -2.9179337e-06 -0.0010456207
-0.017482737 0.0011251598 0.010428714 -0.0014089271 -0.0041502393 -0.008698964 5.568906e-07 -0.0014402186
-0.5041733 -0.0671105 -1.5802231 0.38008326 -0.13447523 0.0016725893 -0.05863332 -0.63109094
0.07423362 0.011951387 -0.0447425 -0.01574766 -0.29975578 -0.00403463 -3.996859e-07 -0.0028876094
0.17640868 -1.7454112 0.2685303 -2.4732037 0.22435014 0.21236198 0.030728817 0.3361774
1.5828425 0.10147129 -1.4135975 -0.075933866 0.4068715 -0.25092497 0.0004641891 0.41572437
0.026150713 -0.044925366 -0.14822653 -0.0036321941 -0.0009224497 -0.09923791 1.4853326e-07 -0.005468877
-0.035510022 0.07851484 0.032313406 -0.07159954 -0.051967155 -0.04151016 0.004410786 -0.07344287
0.016080089 -0.0047516134 0.008903775 -0.0076788794 -0.011218828 -0.047766507 0.000101393285 -0.0012791599
0.0008443876 0.0031766102 -0.01573614 0.0016299638 -0.0049703624 -0.0011917482 9.379031e-05 -0.0008416975
-0.13937242 -0.025356118 -0.6178672 -0.052713815 -0.0104589155 -0.008728288 0.0006395537 -0.039824072
0.09372178 0.10130057 -0.094035834 0.043527003 -0.087568365 -0.3359639 0.04977849 -0.14501962
-0.07222851 1.024145 -0.4055498 1.6625378 0.12776096 0.09558004 0.03720966 0.20913659
-0.012679611 0.050903954 0.1149113 -0.022070056 -0.0069695245 -0.0063574617 4.521013e-05 0.007480877
0.0003831293 0.00067967846 -0.01105735 0.00080216443 -0.0048499834 -0.0058171586 9.719801e-06 0.0011644623
-0.048860062 -0.05852514 0.034536038 -0.006804162 -0.041739717 -0.032626823 -0.0136663355 -0.07279693
0.033049803 -0.00900838 -0.07440802 -0.007836837 -0.0027559607 -0.005189756 4.0569714e-05 0.0010053772

conv2Da.bias f4 [64]
00000000: 2180 78bb cc20 14bf a454 f0bd 80bd 08be
00000010: 75d3 86bb 15cb 17ba 84b7 cdbb 2828 dbb9
00000020: 67cc 39be d9b6 25bf 513d e1be e453 c639
00000030: 6406 763e ae92 a3be 7a5d 67bb 5490 d838
00000040: d0e2 10b9 9e8a 55bc bbf3 6cba be7b 0f3f
00000050: 6401 183f 1b56 acb3 5ac1 01be ad44 b23a
00000060: d7d0 99b9 f15e c6b7 e2e5 9ebe 6bd5 f33d
00000070: 1e11 a8ba b92b 80ba cb22 97bd 2674 bdb9
00000080: 3ae2 0d3e 2022 f138 adf7 8136 a3be 84be
00000090: a750 1abe d2ef 15bf 6f31 87be f1ec a5bb
000000a0: b9bc 89be 0644 a839 a2ab 41be 5761 97be
000000b0: 08a7 2fbf 71d4 803e cc80 a9ba ae81 d9be
000000c0: 59b3 bdb9 8100 0bbf 0164 14bc 7623 00bf
000000d0: ff30 a3b7 35b5 6539 655f 7fbd 299d 15bb
000000e0: 1731 25ba d74e 27ba ba36 c0bd d5c7 8fbc
000000f0: 735a 40be 2da4 7dbb 07ae 11bc a705 a139
-0.0037918168 -0.57862544 -0.11734894 -0.13353539 -0.004114563 -0.00057904545 -0.0062779803 -0.00041800854
-0.1814438 -0.6473213 -0.43992093 0.00037828006 0.24025875 -0.31947845 -0.003530352 0.00010326566
-0.00013817404 -0.013033537 -0.0009039004 0.5604819 0.5937712 -8.0250366e-08 -0.12671414 0.0013600789
-0.00029338032 -2.364765e-05 -0.31034762 0.119059406 -0.0012822484 -0.0009778655 -0.07379683 -0.00036135426
0.1385583 0.00011498132 3.873333e-06 -0.25926694 -0.15069829 -0.5856906 -0.26404902 -0.005063646
-0.26901796 0.00032094138 -0.18913129 -0.29566452 -0.68614244 0.2516208 -0.0012932061 -0.4248175
-0.00036182514 -0.54297644 -0.009057046 -0.5005411 -1.945393e-05 0.00021906647 -0.062346835 -0.002282927
-0.00063015654 -0.00063822925 -0.09385438 -0.017551342 -0.18784504 -0.0038702593 -0.008891589 0.00030712524

cbam1.ChannelGate.mlp.1.weight f4 [4, 64]
00000000: eae4 562a d83c c9a9 9251 97ac 992d 462a
00000010: fc8d c1a9 cf33 0d28 c0e5 1eab e40e 5f2b
00000020: e7e7 34ac 0b5b 38ab 3078 34ac 0b84 00a7
00000030: e711 092a 1d71 7eaa a693 a0a9 4e74 a627
00000040: 5a62 9eaa 699b bcac a838 502b 5d80 4faa
00000050: 8828 f7ae f3e8 94aa 9810 f12a 31ed e527
00000060: edff 132a e6af 1cac f8a9 a32a 1d7c d22d
00000070: dc76 f228 b93d 9ca9 f9a4 222c 5f82 5eab
00000080: 608a f2a9 2fb4 cd2a a1bd e32a 2a02 5eae
00000090: 8db2 bfab 6545 5e2a a96a 8b28 9283 eeaa
000000a0: 91bf 53a9 6194 2c29 c8f0 ecab 2390 ebaa
000000b0: 6044 5e29 4d7f 6cab c8eb feaa 7945 532a
000000c0: 63b6 a32d aa9b 99ac 4884 252a 4740 8ca9
000000d0: e971 8a2b 6113 9bad 3574 912b cd4b 962a
000000e0: a097 30a9 ee4b 392b e724 8aa9 8662 b72a
000000f0: 1d4b 35ab 6732 2ca8 3c93 3f28 702e 4629
00000100: e01c 0000 2825 0080 f1ed 8036 626f 0080
00000110: 1a2d 0000 4b11 0000 4159 0080 f75a 1900
00000120: 7797 10a8 2629 0080 7ae1 08a4 d71b 0080
00000130: f2bb 2930 1f64 0000 3534 0080 1126 0080
00000140: fc02 0000 801e 1536 8332 0080 ce11 b5bc
00000150: 9b0e 99bc 9a1b 0180 31d5 0eb4 29d1 2999
00000160: 4e21 0080 483a 1cb1 d741 0080 bf3e c534
00000170: 8a2b 0080 6724 0000 4354 0080 1c16 0000
00000180: 2b2e 05ba 4d35 0000 277a 8dba 335e 8737
00000190: 8b0e 0080 d91e 0000 aa20 0db5 756b 1da7
000001a0: 6080 0080 b71e 0000 3554 0080 0bba 7633
000001b0: 7a0f 0000 6505 452c e40c 0080 5f2d 0000
000001c0: dd04 0080 44dd 0080 4164 0080 6995 4e29
000001d0: e03b 0080 6218 0080 192a 0000 d929 0080
000001e0: 7b35 0000 2d1f 0080 3022 0000 370d 0000
000001f0: 6382 dabd 7253 0000 aa26 0080 dc0d 0000
00000200: 369e 95b9 0efc 3b38 4a7d 4d3d 0016 ae3a
00000210: ce55 8db8 2f25 05b9 c4da b9b7 2607 9aba
00000220: 4c8b 313e 78b0 cbba f459 f0ba 1ec9 b539
00000230: 9fbb 203d e7c7 f8b8 58fd 24ba 9541 2cb8
00000240: b408 85b8 288c 003d 0b3a a73a e0a9 6b3e
00000250: 875e ac3e 67fe 1b3b a9ed bdb8 fa59 463a
00000260: f2e2 2bba c5f0 d53b 659f 70b9 0a7f a63c
00000270: edcd 8a3b 21e4 87b9 000b 323a d2bc 71ba
00000280: 7fb2 173e efa8 6f3d 561f a7ba 2480 373d
00000290: b86d 303d 17f2 f23d 75d0 1a3e 637e 0c3e
000002a0: 3259 d739 c951 43b8 e157 06b9 3594 573c
000002b0: 9d21 d23d e06d c43a 561a 08ba 6f5e f9b4
000002c0: 985e 5abb 03c1 b73b 990f 793b d514 173c
000002d0: 8997 afb8 985b a0b8 5d46 fd3a 20c6 73b9
000002e0: 62b8 dc3a aaa4 7eba dfd2 fcb8 f2f0 12ba
000002f0: 0b2d e63e 9123 8838 68d7 27ba 6141 4ab8
00000300: 3a4f caa4 7f4e bc26 0732 67a9 f4dd c225
00000310: d488 f1a6 0d0e dea6 e41b f9a7 29da 0e27
00000320: 5edf d529 1de6 53a8 5e1d 6f29 7507 0fa3
00000330: cf1f 9e28 e4dd afa7 bd3a 8d26 831d 15a5
00000340: 5c23 8b25 378b b9a9 048a 0a29 848c 2c2b
00000350: 7a3f 24ad 3f4c fda8 87db 14a7 9c5f d8a5
00000360: 510d 3d25 2e1e 24a9 8c34 b828 b27e 842a
00000370: 6cc6 7125 72a3 5ea6 889c 4727 3b18 ca27
00000380: fb4d 24a7 49f0 fc26 582a 0328 a4a2 102a
00000390: 1bfd bc25 6b71 c3a7 d55a 9ba7 b2ca 5b28
000003a0: 25c0 fd26 762f d8a5 3da1 da28 893b 6d26
000003b0: 8b87 25a8 2b47 ffa7 183e 2726 a8b8 0ea8
000003c0: c696 6aa9 edf1 65a9 907b daa6 2cfa 67a8
000003d0: cb63 8326 6459 6729 02ac af28 72d8 a2a5
000003e0: fd76 0c26 54f5 8926 7a64 6428 9c1b 1ca7
000003f0: a862 93b2 213a 40a6 e460 0425 b328 c7a1
1.9086439e-13 -8.936748e-14 -4.3007342e-12 1.7601753e-13 -8.595552e-14 7.8383065e-15 -5.645172e-13 7.924618e-13
-2.570827e-12 -6.549628e-13 -2.5646256e-12 -1.783515e-15 1.2174255e-13 -2.2598976e-13 -7.13104e-14 4.6200353e-15
-2.8134683e-13 -5.3605354e-12 7.397507e-13 -1.8429828e-13 -1.12394594e-10 -2.6451722e-13 4.2821714e-13 6.381743e-15
1.3145015e-13 -2.2266577e-12 2.9072556e-13 2.3929353e-11 2.6918944e-14 -6.938499e-14 2.3113163e-12 -7.905117e-13
-1.0770963e-13 3.6540343e-13 4.0454882e-13 -5.0478878e-11 -1.3620924e-12 1.9741637e-13 1.5478357e-14 -4.2368588e-13
-4.701757e-14 3.832037e-14 -1.6835639e-12 -4.18444e-13 4.9353208e-14 -8.402071e-13 -4.528307e-13 1.8764668e-13
1.861195e-11 -4.3658037e-12 1.4700838e-13 -6.228399e-14 9.837106e-13 -1.7630066e-11 1.0335124e-12 2.669795e-13
-3.9211364e-14 6.5830577e-13 -6.1348326e-14 3.2575695e-13 -6.440836e-13 -9.558847e-15 1.0634556e-14 4.400511e-14
1.0358e-41 -1.3329e-41 3.8423973e-06 -3.9957e-41 1.618e-41 6.204e-42 -3.2018e-41 2.32852e-39
-8.0264495e-15 -1.4761e-41 -2.9681285e-17 -9.987e-42 6.174893e-10 3.5917e-41 -1.8728e-41 -1.3656e-41
1.07e-42 2.2220484e-06 -1.812e-41 -0.022103216 -0.018683722 -1.01737e-40 -1.3302339e-07 -8.779335e-24
-1.1947e-41 -2.2734117e-09 -2.3619e-41 3.6739763e-07 -1.5619e-41 1.3059e-41 -3.0227e-41 7.931e-42
-0.0005080427 1.9121e-41 -0.001079385 1.6137119e-05 -5.217e-42 1.1066e-41 -5.2574126e-07 -2.184638e-15
-4.6052e-41 1.1018e-41 -3.0208e-41 5.7445543e-08 5.552e-42 2.7998378e-12 -4.624e-42 1.6276e-41
-1.745e-42 -7.9375e-41 -3.5964e-41 4.587078e-14 -2.1479e-41 -8.747e-42 1.5102e-41 -1.5012e-41
1.9185e-41 -1.1184e-41 1.2264e-41 4.74e-42 -0.106694005 2.9935e-41 -1.387e-41 4.972e-42
-0.0002853737 4.481902e-05 0.050168313 0.0013281703 -6.739386e-05 -0.0001269772 -2.215559e-05 -0.0011751398
0.17338294 -0.0015540263 -0.0018337355 0.00034672854 0.03924143 -0.00011862796 -0.00062938547 -4.1069074e-05
-6.343555e-05 0.031383663 0.0012758387 0.23014021 0.3366587 0.0023802759 -9.05649e-05 0.0007566508
-0.000655695 0.006528946 -0.00022947563 0.020324249 0.004235974 -0.00025919176 0.00067918 -0.0009221557
0.14814185 0.058510717 -0.0012750428 0.04479994 0.043073386 0.11862581 0.15118583 0.13720088
0.0004107445 -4.656779e-05 -0.00012811973 0.013157894 0.102603175 0.0014986359 -0.00051919126 -4.6448574e-07
-0.0033320542 0.0056077256 0.0038003682 0.009221275 -8.372876e-05 -7.646455e-05 0.0019323338 -0.00023248093
0.0016839618 -0.0009713868 -0.00012055574 -0.00056053617 0.4495624 6.49161e-05 -0.00064026425 -4.8221442e-05
-8.773775e-17 1.3066397e-15 -5.1335696e-14 3.3804037e-16 -1.6759822e-15 -1.5408153e-15 -6.9141622e-15 1.9824724e-15
9.497848e-14 -1.1762751e-14 5.3094133e-14 -7.753625e-18 1.7555319e-14 -4.881283e-15 9.799761e-16 -1.2933689e-16
2.4136617e-16 -8.2398e-14 3.0761865e-14 6.130168e-13 -9.336415e-12 -2.8121709e-14 -2.0658132e-15 -3.7534815e-16
1.6397649e-16 -3.6441492e-14 2.0450892e-14 2.3535823e-13 2.0970646e-16 -7.724323e-16 2.7701653e-15 5.6092533e-15
-2.2801845e-15 1.7551142e-15 7.281143e-15 1.2846197e-13 3.2784312e-16 -5.424634e-15 -4.3119622e-15 1.2200895e-14
1.7607482e-15 -3.7502188e-16 2.4272788e-14 8.230658e-16 -9.188731e-15 -7.085388e-15 5.8023917e-16 -7.922624e-15
-5.2089213e-14 -5.105805e-14 -1.516028e-15 -1.2877323e-14 9.117e-16 5.1369838e-14 1.95035e-14 -2.824919e-16
4.8733517e-16 9.572781e-16 1.267833e-14 -2.1664316e-15 -1.7157916e-08 -6.669216e-16 1.1482003e-16 -1.3495538e-18

cbam1.ChannelGate.mlp.1.bias f4 [4]
00000000: f4d3 5bac db1c 0000 4c00 98ba a485 a6a8
-3.123943e-12 1.0351e-41 -0.0011596768 -1.848766e-14

cbam1.ChannelGate.mlp.3.weight f4 [64, 4]
00000000: f9b4 139d eb22 0080 8dc5 febc 6405 2e23
00000010: 33d7 9696 0017 0080 2a28 af3d 14a9 0080
00000020: 93e4 3c82 71cf 3a3d 0e50 af3e d90b b32e
00000030: 17b6 8c9b a130 0080 cc90 673d b61e 7f9f
00000040: 4b69 009b d609 0180 9a78 d0bc 41ce ca9f
00000050: bb3f fdb6 8933 0080 68fc 5dbc c8bb 8324
00000060: 10fc cf1c dd37 0080 8525 00bd 972c a9a1
00000070: e9c5 62b6 ea16 0000 4e3d dbbc 9548 c2b2
00000080: 4da3 0f88 2e28 0000 3390 903e 6848 0000
00000090: a545 0018 cdac 9fac b5fe 993e 4652 0080
000000a0: 17bf b584 2c40 0180 499d 143e e8b1 9726
000000b0: 7424 9539 0218 0000 2440 09bd 15d6 879a
000000c0: 6a3d 0b05 7046 0080 c4ab 6b3e 6ba2 8638
000000d0: fec0 26b4 f395 0000 c3fc 823d df4b 0100
000000e0: 6337 4b2e 8cb3 0000 8d74 1ebd 6b97 c6a6
000000f0: 104a cd38 a007 0080 17e6 b2bc fbe5 8037
00000100: dab7 bd36 2b32 0000 9b99 11bc c1ec cda3
00000110: cb30 421b ea8e 0000 1db8 993e e33b a52f
00000120: 9b32 5418 487b 0000 43e0 18bd f848 e5a0
00000130: 0747 198a 06bf 0080 a575 d83d 06a1 0080
00000140: 8994 8f88 591f 0100 c941 093e a48d b339
00000150: 9cdf c0ae 4ece 0000 1ca6 b6bd 2d45 bc15
00000160: 8a84 5634 b41b 0080 a68d 073d 613d 2c25
00000170: 83eb 323a 1f0c 92b4 8557 89bd 10a0 3ea1
00000180: fdc4 6337 1523 f2b1 5ef1 09bd 7b05 0a20
00000190: b3a3 993a e0ed 0000 e144 a0bd f690 402b
000001a0: 3193 280f f20c 0080 4491 bb3d aa73 e0b5
000001b0: 9f55 df05 c624 0000 0f53 8e3e 3c99 7697
000001c0: 141f 0837 f394 0000 515b 8abd 5802 e994
000001d0: 1b7f cb38 492f 0000 bcc0 90bc ca55 4e24
000001e0: 3ac0 99ad c688 0080 2350 b23d 6192 9fb8
000001f0: b60c 899d 7069 d628 e288 c2bc df55 6a36
00000200: 9e42 218a bc71 21b1 bd34 5f3e fba9 0080
00000210: 6fd0 8d8c ca17 0080 f588 86be 4b3e 0100
00000220: a71a e68a 431a 0080 d37b dcbd a974 a392
00000230: 71c1 1f80 352f 0080 3a29 743e dd4a 6025
00000240: 948a 122c bacc 3239 f907 e13d 9fd9 413a
00000250: c3e7 eeb7 005a 0080 e14c 043e 972f 0000
00000260: b384 cfb1 a0d8 0000 fd2b f93d abdf 793b
00000270: 7d23 9988 ad2f 0000 76a1 593e c222 0000
00000280: e901 b1b8 94ce 0080 d835 6c3e 6e22 0080
00000290: 302c 199b 9b28 0080 b2a6 b3bb 63f8 59b5
000002a0: 4617 008f 7f80 0080 78cc 503e 1a34 8f30
000002b0: 1203 3b85 50ec 0000 8784 fc3d 021e 0db2
000002c0: 3eae 0ab8 3715 0080 35de ff3d f202 0080
000002d0: 20c9 9b9f 040b 0000 b4ed 5e3e 8937 0000
000002e0: 36f5 80b0 3eca 0000 dae7 8bbc 6217 9124
000002f0: 90e7 c513 e903 0080 7012 fc3d 061c 0000
00000300: 3caa a039 8b25 0080 bd59 2dbd 64d1 deb3
00000310: 0652 6610 cc69 a199 c3b9 813e 412f 0000
00000320: 9692 9b15 2eb0 0080 7a4c 9bbd a07b 4e9a
00000330: a1ba 340c 35d0 77b9 b9f1 ee3d d5ca 0c38
00000340: 2c44 7398 ba5e 0080 866d 4cbd fbd2 8e9d
00000350: cfe1 84ad 9b4d 0000 a773 c6bc 9849 8624
00000360: 8b4a a403 9219 8bb5 5a67 55be 77f0 0000
00000370: 3fe4 5a9a 43cd 0000 84c3 dfbc f67e 7221
00000380: e57d 4638 bb0e 0000 13f7 69bd db76 d496
00000390: 6df5 2b1c 729d dd37 e8e4 53bd 906b 3721
000003a0: 5381 6e82 c323 c326 dfe5 da3d bdf5 1537
000003b0: 9fae 9e0e 900c 0180 bf39 adbe 950a bd2f
000003c0: 2e2e 7c88 2bcb 0000 6fd7 063e 3538 0000
000003d0: 3cb8 583a 0a22 0000 afad dfbc e881 b4a8
000003e0: bd58 4e9c bd0e 0000 b099 d0bc 3130 611f
000003f0: 3c6a 3caf 6e95 0100 a626 12bc a89f 3d26
-1.9548849e-21 -1.2526e-41 -0.031100059 9.4337e-18 -2.4369617e-25 -8.251e-42 0.085525826 -6.0654e-41
-1.3877656e-37 0.045607988 0.34240764 8.142082e-11 -2.327873e-22 -1.7445e-41 0.056534573 -5.4023754e-20
-1.0621934e-22 -9.5364e-41 -0.025448132 -8.5891546e-20 -7.5474068e-06 -1.8487e-41 -0.013548948 5.713031e-17
1.3763268e-21 -2.004e-41 -0.03128578 -1.1463688e-18 -3.3791823e-06 8.22e-42 -0.02676263 -2.2617579e-08
-4.3224456e-34 1.4414e-41 0.28235015 2.5974e-41 1.6578774e-24 -4.5382365e-12 0.3007714 -2.9514e-41
-4.2728384e-36 -1.14856e-40 0.14513125 1.0525951e-15 0.00028446654 8.612e-42 -0.033508435 -5.618056e-23
6.5470286e-36 -2.5268e-41 0.23014742 6.4198706e-05 -1.5530165e-07 5.3792e-41 0.06395867 1.19053e-40
4.620605e-11 6.4409e-41 -0.03868537 -1.3780052e-15 9.788957e-05 -2.735e-42 -0.021838231 1.5365882e-05
5.654042e-06 1.7997e-41 -0.00888672 -2.2326414e-17 1.606307e-22 5.1268e-41 0.3002328 3.0055877e-10
2.7425907e-24 4.4225e-41 -0.037323248 -3.8842396e-19 -7.380041e-33 -6.8526e-41 0.10569314 -5.7764e-41
-8.64142e-34 1.03081e-40 0.13404001 0.0003424707 -8.77087e-11 7.4008e-41 -0.089184016 7.6041735e-26
1.997852e-07 -9.938e-42 0.03309407 1.4939418e-16 0.0006825255 -2.7203438e-07 -0.06706146 -6.4586345e-19
1.3576119e-05 -7.0471153e-09 -0.03367745 1.1690868e-19 0.001172176 8.5333e-41 -0.078256376 6.8413276e-13
8.3113875e-30 -4.644e-42 0.091585666 -1.6722963e-06 2.1002271e-35 1.3192e-41 0.27797744 -7.9680296e-25
8.113468e-06 5.3433e-41 -0.067556985 -2.3527912e-26 9.7034696e-05 1.6963e-41 -0.017670028 4.4741796e-17
-1.7479452e-11 -4.9065e-41 0.08706691 -7.608976e-05 -3.627674e-21 2.3804499e-14 -0.023746911 3.49187e-06
-7.764397e-33 -2.3493234e-09 0.21797462 -6.0978e-41 -2.1849936e-31 -8.534e-42 -0.26276365 1.14182e-40
-2.215822e-32 -9.421e-42 -0.10765805 -1.0315505e-27 -2.916294e-39 -1.6935e-41 0.23843852 1.9454268e-16
2.0824774e-12 0.0001705167 0.10987849 0.0007394794 -2.8479733e-05 -3.2286e-41 0.12919952 1.7072e-41
-6.039579e-09 7.771e-41 0.12166593 0.0038127701 -9.216696e-34 1.7103e-41 0.21252999 1.2469e-41
-8.4403735e-05 -7.4106e-41 0.23067415 -1.2351e-41 -1.2670141e-22 -1.4566e-41 -0.005482518 -8.120025e-07
-6.3153695e-30 -4.6096e-41 0.20390499 1.0419428e-09 -8.793262e-36 8.4773e-41 0.12329965 -8.214103e-09
-3.306404e-05 -7.61e-42 0.124935545 -1.057e-42 -6.597779e-20 3.952e-42 0.21770364 1.9922e-41
-9.382919e-10 7.2551e-41 -0.017078329 6.292334e-17 4.995813e-27 -1.403e-42 0.12308204 1.0053e-41
0.00030644413 -1.3468e-41 -0.04232191 -1.03757685e-07 4.542269e-29 -1.6689741e-23 0.25337037 1.6952e-41
6.2835273e-26 -6.3201e-41 -0.07582946 -4.2699665e-23 1.3922857e-31 -0.00023633319 0.11667199 3.3567503e-05
-3.1441432e-24 -3.3981e-41 -0.049909137 -3.7805236e-21 -1.5106942e-11 2.784e-41 -0.02422507 5.823791e-17
9.656168e-37 -1.0363749e-06 -0.20840207 8.6263e-41 -4.526572e-23 7.3634e-41 -0.027314909 8.216082e-19
4.7324127e-05 5.284e-42 -0.057120394 -3.4325456e-25 5.689636e-22 2.641857e-05 -0.051731974 6.214517e-19
-1.7522593e-37 1.3540536e-15 0.10688376 8.9383075e-06 3.911816e-30 -9.6342e-41 -0.3383312 3.438642e-10
-7.5887776e-34 7.2883e-41 0.13168119 2.0163e-41 0.0008267199 1.2211e-41 -0.027304498 -2.0040352e-14
-6.8274374e-22 5.287e-42 -0.025463909 4.7685466e-20 -1.7136242e-10 1.45441e-40 -0.008920347 6.578892e-16

cbam1.ChannelGate.mlp.3.bias f4 [64]
00000000: 5534 74ba e820 63b9 4d2b aab6 623f 50ba
00000010: f51e 2f3a ac13 cd3a 7f26 5138 36f1 a239
00000020: c26d 8939 6949 1a3b 4f2a 13bb 88ba 6c37
00000030: 85d9 1c38 1617 4138 60ff 3cbb 3f11 8636
00000040: f813 953a 7a0f 9239 247b deba 5d1f 78b9
00000050: 1c6a 20bc ef07 a637 d0e3 e437 804d 963c
00000060: f502 b2b7 3c66 233b d22c 13bc 34fe 163b
00000070: 4b9d 33b7 701f 8b37 6593 dfb8 e60e 9e3a
00000080: 6541 6d3c b192 3e32 384f e437 9b3b cbb9
00000090: 0191 c03b a2e3 c93b f721 563b 546c 9bb7
000000a0: f148 5e33 cd15 ba3a 1d5f f833 569c 7abb
000000b0: f610 ab3b f23b ac38 3a21 813a 34e9 c735
000000c0: 94f9 34ba 8db3 84bc 3da5 ecba 8641 7eba
000000d0: 2758 2637 70f7 c03a eccb 9f35 eb04 a437
000000e0: 0ed8 51b7 49fb a7b9 70f4 4ab7 e6bd 8eb5
000000f0: 123a fcbb 7cb1 4e39 1910 b43a df82 a33a
-0.00093156594 -0.00021660666 -5.0714357e-06 -0.0007944015 0.0006680333 0.0015646121 4.9865335e-05 0.00031078764
0.00026212452 0.002354229 -0.0022455638 1.4110126e-05 3.739588e-05 4.6036286e-05 -0.0028838739 3.995519e-06
0.0011373749 0.0002785882 -0.0016973955 -0.00023662807 -0.009790923 1.9792436e-05 2.7285801e-05 0.018347502
-2.122063e-05 0.0024932763 -0.008982854 0.00230397 -1.0705854e-05 1.658473e-05 -0.00010660923 0.0012058883
0.014480923 1.1092809e-08 2.7216607e-05 -0.00038763587 0.005876661 0.006161169 0.0032674053 -1.8527884e-05
5.1754743e-08 0.0014197171 1.1565701e-07 -0.0038240156 0.0052205278 8.212765e-05 0.0009851821 1.4894526e-06
-0.0006903645 -0.016198898 -0.0018054616 -0.0009699095 9.914896e-06 0.001472218 1.1905772e-06 1.9552614e-05
-1.2507675e-05 -0.00032039944 -1.2097051e-05 -1.0635092e-06 -0.007697352 0.00019711809 0.0013737708 0.0012474916

cbam1.SpatialGate.spatial.conv.weight f4 [1, 2, 7, 7]
00000000: 4e87 59ae ba5a 622e 305e 8332 98ee d03d
00000010: 6211 0336 58dd 08ad 0872 0738 c042 d235
00000020: 40a1 1539 a12e c9ba b658 b2bd 9f92 c6b9
00000030: 59d3 4bb3 ada3 2dad 1294 2930 57b2 53ae
00000040: 2e5c 59ad 7bda 623f 903e 3aac 089f 40b4
00000050: 3326 db37 16e3 a5b4 727b 7e2c 0ff9 d82e
00000060: c8e1 f2bf 59e9 c6af 107a d4b4 1572 1536
00000070: b396 e1b6 b572 11b1 fd1a 3f2c 8a99 91bd
00000080: 5bdb b732 8ad2 1eb3 494d 5fab 6278 8c36
00000090: bb9e 4233 b035 0832 aee9 78be f6df ebaf
000000a0: c2d2 77af 818f 17b0 3d7c aab6 9bc5 9bac
000000b0: fe71 942f 8276 ad3f 3cc6 4cba e4f1 3cae
000000c0: 94a7 312f 698b 7e2d 09f5 9cae ce19 5e34
000000d0: 8002 773e d1eb d6af d081 04ac afbd 80b3
000000e0: 0c36 70b5 9cc1 01b0 ad66 c02e 9cf1 4a3e
000000f0: be69 5f31 e064 a42c f006 4b2d 0802 8737
00000100: 9a9b 542d c56f 4d2b 7956 d13e 7269 07ac
00000110: 44b3 113b 226a d72e 7111 0933 ca66 c92e
00000120: 77c9 32b4 df86 a93e 43b5 1db7 5cf6 a838
00000130: b22d beb6 c76f ca33 adda 9cab 94f4 8130
00000140: e0d1 c43e 8084 202e e26d 91b3 6bb7 1db4
00000150: c7c4 6a35 8e84 e6aa eb94 87b0 19a0 723e
00000160: 6089 79b6 bbe8 902d e3be 91b1 479e 80b0
00000170: 710f 39b3 2fab 1ab9 d922 1e3e a4c7 5538
00000180: 2088 beac de95 5fab
-4.9460262e-11 5.1467032e-11 1.5293239e-08 0.10201758 1.953064e-06 -7.779853e-12 3.2292708e-05 1.5665646e-06
0.00014269818 -0.001534898 -0.087083265 -0.00037874744 -4.745684e-08 -9.870255e-12 6.169226e-10 -4.8134243e-11
-1.235549e-11 0.88614625 -2.646692e-12 -1.7939249e-07 2.6124622e-05 -3.0898872e-07 3.6164097e-12 9.8667845e-11
-1.8975153 -3.6181794e-10 -3.957689e-07 2.2269135e-06 -6.7230662e-06 -2.116548e-09 2.7157714e-12 -0.071093634
2.1403755e-08 -3.6978726e-08 -7.933277e-13 4.1863395e-06 4.531351e-08 7.928449e-09 -0.24307892 -4.2905385e-10
-2.2539395e-10 -5.513741e-10 -5.080858e-06 -4.4273036e-12 2.700204e-10 1.3551791 -0.00078115216 -4.2961093e-11
1.6157592e-10 1.4469184e-11 -7.137586e-11 2.0684749e-07 0.24122047 -3.909393e-10 -1.8830389e-12 -5.994968e-08
-8.9485616e-07 -4.720506e-10 8.749388e-11 0.19818729 3.2510878e-09 4.6723597e-12 1.15407545e-11 1.60942e-05
1.2085355e-11 7.298574e-13 0.40886286 -1.9243188e-12 0.0022232095 9.795921e-11 3.191366e-08 9.158681e-11
-1.6650834e-07 0.3311071 -9.4001325e-06 8.056752e-05 -5.667761e-06 9.42669e-08 -1.1145161e-12 9.455499e-10
0.38441372 3.649747e-11 -6.772076e-08 -1.4688491e-07 8.745814e-07 -4.0948186e-13 -9.864868e-10 0.23693885
-3.7183854e-06 1.6474258e-11 -4.2417567e-09 -9.358211e-10 -4.3087713e-08 -0.00014750355 0.15442981 5.0969087e-05
-5.4152377e-12 -7.94335e-13

conv2Db.weight f4 [128, 64, 2, 1]
00000000: 404b c734 5698 a2b5 3e3c 0139 e861 ffb9
00000010: 86a3 8037 eb6a d637 ab8f de38 bf9a f538
00000020: bb88 8cb4 1c0f c4b5 9907 11b7 1859 b2b5
00000030: fd21 c832 bf3f a8b2 9b47 3db4 26d6 2bb4
00000040: b6a4 e1b7 a738 76bb 9736 1cba d7e0 393b
00000050: d100 00b8 5b28 5bb9 af3e 9b34 2349 3634
00000060: 9d81 1437 cdef 68bb 7b58 b235 7fd5 5338
00000070: a3e0 21b2 8ad8 58b5 9895 5833 fe93 fbb2
00000080: 4ca9 8e34 9b8c be36 5a5a 14b7 ac53 77b8
00000090: 5c3e fb33 3c75 b736 152c 25ba 12c4 c2ba
000000a0: a0a9 b5b8 dc1f f6ba fafe d230 df6f 57b2
000000b0: 370d 8437 0826 4437 89db ebb3 2549 1a36
000000c0: bb45 3636 2ed2 a2b3 dfc1 1cb4 d0d7 d1b0
000000d0: 1b94 74b9 84b1 6d38 947a a839 56d8 99bb
000000e0: 7e1a 43b0 6b09 6b32 6e5e 8ab5 4e0d 01b5
000000f0: 4594 7537 b6b8 15b7 2295 13b4 78dc f2b4
00000100: fbb0 15ba c717 0bbc 4a85 b7aa de47 932b
00000110: 0b94 fdb2 4c6a e1b2 2d49 bb36 ba15 8e37
00000120: 6119 95b7 4c4f d0ba 1c91 a5b7 ed77 2bbb
00000130: 350c 6eb8 7347 f6bb f5cc 34b9 fdc3 3ebb
00000140: 8c33 62b7 5394 9eb8 4db0 5c33 9793 f3b4
00000150: 4d99 3c38 7e48 11b7 da2a 0cb7 4169 c8b6
00000160: 49e9 c9b7 5f5e 0abb fb14 3db7 96d6 c2b9
00000170: cce0 15b1 0e96 b033 0e2f c0b7 f4b3 41b3
00000180: 529b 47b4 531f 5c34 59a7 a93a e448 a7b9
00000190: 03ec e232 9915 9534 651d c436 7d5c 88b8
000001a0: 0e25 9532 2c5b 81b4 0ae3 fbb4 43b1 4834
000001b0: af97 2eae e441 3e2f df54 5331 126e 6334
000001c0: 5fc0 2cb3 2a97 a834 1581 8333 2320 1633
000001d0: 0390 8f37 d3e3 fb38 0d63 83b2 394f 0cb2
000001e0: 2b9b ebbb f94e 673a 0e8d f0b4 02d8 e9b4
000001f0: 0246 33b2 2956 9433 155d ef33 9614 acb2
00000200: eaf0 56b3 ce20 5533 011a ce37 c2f2 8438
00000210: 5c0e 1937 c803 c3bc 29e9 32b7 1520 9038
00000220: 9d55 01b1 e289 02b3 5465 2b35 1a79 6235
00000230: 8ce1 5031 1ca9 5d34 bde4 59b3 8e70 6f32
00000240: 1534 1bb8 97bc 7f38 7790 d4b6 37bb f838
00000250: 16ee 8eb3 5fea 9fb8 08f1 1734 45a8 4232
00000260: d52a 93b4 7664 acbc 5a77 48b6 0277 ebb5
00000270: 3031 58b3 7445 7eb3 81a3 15b1 4015 23b2
00000280: debc 8a33 c6be 95b4 e527 e4b8 fd4b 34bc
00000290: 1ef8 6534 ff13 2234 2dea bfba 14cb 0cbb
000002a0: a731 8dbb 3c7f 83bb 8137 8832 6cad 11b2
000002b0: 7de0 5a36 6c08 a037 7fe5 5f34 e997 98b4
000002c0: af19 1433 381c 1bb1 1377 9233 c990 e4b2
000002d0: b124 ab36 5871 4a35 205a 76b8 ba8b 4fbd
000002e0: ce7c a031 80b8 ee33 ca25 56b1 caac 5eb3
000002f0: e62b 4c36 2013 9db6 9533 2833 7205 ba34
00000300: a743 83b7 dced b3bc 1fd2 53ab e58d 84ac
00000310: 035f 7231 8bd4 cdb1 c0a6 1eb9 09e5 e3bc
00000320: b44d 3836 4e60 be38 5286 e236 5b33 5837
00000330: 5103 9237 55a0 c2bc 8674 aab7 edfa d537
00000340: 5bad b2b5 f216 02b8 f53a e2ae 7466 e733
00000350: 4e0c 53b7 6ba6 2336 b86a 9db6 3d4e 02bb
00000360: 38db 1d36 baf7 3039 4ba3 2737 f897 afb7
00000370: 2993 3433 d185 9b34 d6c3 6fb5 9e84 01b6
00000380: eb45 f031 ce5c 81b2 1161 57b9 a272 013a
00000390: 1cc4 5932 c15a c731 5083 6cb6 d61c 08b9
000003a0: 436e a032 3573 4332 51f9 0534 486d 3434
000003b0: 179c 52ae 051c d92d 53c9 2830 7ad3 aa32
000003c0: b47e 4732 62a3 f332 6bda aa32 d72e 92b1
000003d0: 09b2 7eb5 75ec 3337 932a 4d31 df3f 04b1
000003e0: b4cd 7bbc 8168 feb7 f6b2 d2b1 51a8 a4b2
000003f0: a3ab c031 8575 0a35 24cd 1734 8865 bb34
3.712139e-07 -1.2114276e-06 0.0001232484 -0.00048710336 1.5334936e-05 2.5560576e-05 0.00010612545 0.00011711334
-2.6176517e-07 -1.4607535e-06 -8.6444425e-06 -1.3287963e-06 2.329852e-08 -1.9586762e-08 -1.7628047e-07 -1.6003523e-07
-2.689879e-05 -0.0037570389 -0.0005959062 0.0028362775 -3.051834e-05 -0.00020900501 2.8916608e-07 1.6976678e-07
8.851665e-06 -0.0035543323 1.3287785e-06 5.0505154e-05 -9.42251e-09 -8.0781376e-07 5.0427474e-08 -2.9287545e-08
2.657274e-07 5.67881e-06 -8.842524e-06 -5.8967315e-05 1.16994414e-07 5.467473e-06 -0.0006300819 -0.0014859459
-8.662348e-05 -0.0018777805 1.535198e-09 -1.2540084e-08 1.574178e-05 1.1691365e-05 -1.09829735e-07 2.2990364e-06
2.7160702e-06 -7.581944e-08 -1.4599162e-07 -1.5268089e-09 -0.00023324827 5.6670528e-05 0.00032134785 -0.0046949787
-7.0978234e-10 1.3680942e-08 -1.0309284e-06 -4.8075606e-07 1.463766e-05 -8.924098e-06 -1.3744696e-07 -4.5236425e-07
-0.0005710271 -0.008489556 -3.2599818e-13 1.0464925e-12 -2.9520399e-08 -2.6241786e-08 5.581553e-06 1.6937836e-05
-1.7774002e-05 -0.0015892773 -1.9737105e-05 -0.002616401 -5.675499e-05 -0.0075158416 -0.0001724249 -0.0029108517
-1.3482651e-05 -7.561655e-05 5.1383086e-08 -4.5369663e-07 4.4965465e-05 -8.659552e-06 -8.354627e-06 -5.9727176e-06
-2.4069699e-05 -0.0021113378 -1.1270163e-05 -0.00037162442 -2.1810136e-09 8.2229334e-08 -2.2910095e-05 -4.509998e-08
-1.8589824e-07 2.0500492e-07 0.001294355 -0.0003190703 2.6417188e-08 2.7769127e-07 5.844677e-06 -6.502213e-05
1.7362733e-08 -2.409446e-07 -4.6917586e-07 1.8690939e-07 -3.969774e-11 1.7303808e-10 3.0752785e-09 2.1181066e-07
-4.022183e-08 3.1402425e-07 6.123643e-08 3.4953825e-08 1.7113989e-05 0.00012011048 -1.529545e-08 -8.167086e-09
-0.0071901283 0.00088237185 -4.4806114e-07 -4.3556798e-07 -1.0435089e-08 6.9074595e-08 1.1146236e-07 -2.0032797e-08
-5.0044868e-08 4.9622763e-08 2.4569223e-05 6.339468e-05 9.122854e-06 -0.023805514 -1.0663914e-05 6.872431e-05
-1.8820636e-09 -3.0393387e-08 6.3849916e-07 8.4367787e-07 3.0396192e-09 2.064375e-07 -5.0732286e-08 1.3937223e-08
-3.7003385e-05 6.0972376e-05 -6.3349103e-06 0.00011860433 -6.655698e-08 -7.625366e-05 1.4150658e-07 1.1330546e-08
-2.7412048e-07 -0.021043997 -2.9871794e-06 -1.75435e-06 -5.0336155e-08 -5.920215e-08 -2.1775295e-09 -9.49268e-09
6.4604805e-08 -2.789222e-07 -0.00010879318 -0.011004445 2.1417551e-07 1.50947e-07 -0.0014641933 -0.0021483349
-0.0043088975 -0.0040129703 1.5857724e-08 -8.479542e-09 3.26152e-06 1.9077408e-05 2.0851984e-07 -2.8422735e-07
3.4482294e-08 -2.257151e-09 6.820314e-08 -2.6608534e-08 5.1004686e-06 7.54158e-07 -5.8734906e-05 -0.050670363
4.6708015e-09 1.1116299e-07 -3.116258e-09 -5.1845554e-08 3.042392e-06 -4.681191e-06 3.916246e-08 3.4649162e-07
-1.564792e-05 -0.021964006 -7.525386e-13 -3.767419e-12 3.5269643e-09 -5.9904486e-09 -0.00015130173 -0.027819173
2.7463366e-06 9.077844e-05 6.750962e-06 1.288656e-05 1.74061e-05 -0.023758093 -2.031984e-05 2.5508425e-05
-1.3312487e-06 -3.1015785e-05 -1.0287763e-10 1.0775412e-07 -1.2579445e-05 2.438576e-06 -4.6913883e-06 -0.001988306
2.3522425e-06 0.00016876953 9.991995e-06 -2.0932392e-05 4.2043357e-08 2.8968364e-07 -8.9319417e-07 -1.9299691e-06
6.992868e-09 -1.505978e-08 -0.00020540158 0.0004938041 1.26756525e-08 5.80198e-09 -3.5243174e-06 -0.00012980713
1.8676593e-08 1.1376689e-08 1.2477291e-07 1.6803563e-07 -4.7887107e-11 2.4682487e-11 6.1404143e-10 1.9886773e-08
1.16121335e-08 2.8363221e-08 1.988993e-08 -4.2544843e-09 -9.488145e-07 1.0724286e-05 2.9855627e-09 -1.9244835e-09
-0.015368868 -3.0327823e-05 -6.13215e-09 -1.9168654e-08 5.6074483e-09 5.158002e-07 1.41376e-07 3.4905338e-07

conv2Db.bias f4 [128]
00000000: 01db 4b39 0172 cdb7 bc61 4539 253b c6bb
00000010: c5e5 f337 b87f 04b8 6d04 2439 a6cf 2e3b
00000020: a445 7cb8 3264 a3ba 91b9 293b c861 fc39
00000030: aa99 1d3a 21cb a2be 5024 a238 866b aa38
00000040: 4e8a aa38 bdea 74be e686 4238 bcba a434
00000050: 07f7 81b4 73f0 9c38 914f 8b3b a2a1 91be
00000060: 875c 89be 9d9e 2d3b 33ca c7ba b1c4 e337
00000070: 45ef 6f3b e107 1abb b11b 05bc dea9 78b7
00000080: ee89 ad39 d24d 9738 f17e 833a fb1b 01b8
00000090: e210 75bc eb31 8536 ac74 1abc c6d1 cf3b
000000a0: cd68 9b38 d704 9cbd 3228 b1be c6ec b3ba
000000b0: a314 a938 3751 6a3d f6ed a0bc 7e7a 463b
000000c0: 3f58 273d 9ad2 003a a28c 973b d50a bbb6
000000d0: 353e 703a 9312 cf39 3198 a0b9 03d9 4e39
000000e0: a6f0 e93e dc71 71bb 1450 7abb a29b 9ebe
000000f0: fdb6 88be 3cca 19b8 a3f9 483b 11db 95b8
00000100: eac0 e039 727c 9bb7 54b4 b7bd 3dc4 903e
00000110: e14f d739 9972 813b ded9 4337 326c 45bd
00000120: f926 9ebc 1043 033b fac8 3739 4d47 c238
00000130: 8f68 7bb7 e9ba ef3a 2e31 d639 6bc6 2abe
00000140: 4a41 853b b7dd 773a 4b12 efbc 7b3a 3634
00000150: d523 6abe 6245 ba39 b726 45be beb6 f239
00000160: 1f33 8e3b 3cb0 6639 fd38 edb7 0e57 3038
00000170: 4953 d138 651f 3d3b 01ad 463b 95ba 8237
00000180: c32e 8cb8 a4ad 043c a303 07b5 e29e fdb8
00000190: 9934 a235 0e9a 7b38 1379 9cbd cf71 743b
000001a0: 81b7 06bf f170 8db5 a2cc bbb4 f5e4 f2ba
000001b0: fffc a738 0eb1 73b9 b319 833a 48ce f6b6
000001c0: 0d19 e937 1cea 793b 1fe5 29be 59b7 41be
000001d0: b6bd 9e36 ee0a d239 339b 5f3e 411a da37
000001e0: e394 7ab7 9155 22bb 2b81 a63a f5db a937
000001f0: c9d3 8c38 640e aebc 440c 4b34 813d 7eba
0.00019441174 -2.4490992e-05 0.00018823793 -0.006049531 2.9074852e-05 -3.15902e-05 0.00015641908 0.002667406
-6.014634e-05 -0.0012465774 0.002589796 0.00048138038 0.00060119724 -0.317956 7.731526e-05 8.1262595e-05
8.131993e-05 -0.2391767 4.637884e-05 3.0683248e-07 -2.4207858e-07 7.483447e-05 0.0042514284 -0.2844363
-0.26828405 0.0026492246 -0.0015242755 2.71521e-05 0.0036611122 -0.0023503231 -0.008124278 -1.4821502e-05
0.00033099897 7.214736e-05 0.0010032338 -3.0782056e-05 -0.014957638 3.96952e-06 -0.009427231 0.0063421456
7.4104966e-05 -0.076181106 -0.3460098 -0.001372718 8.062392e-05 0.05720636 -0.019644719 0.0030285413
0.040855642 0.00049141946 0.004624919 -5.5742953e-06 0.0009164543 0.00039495956 -0.0003063097 0.00019726534
0.45691413 -0.0036841547 -0.0038194703 -0.30978113 -0.2670211 -3.6666388e-05 0.0030666373 -7.145678e-05
0.00042868342 -1.853539e-05 -0.08969942 0.28274718 0.0004106751 0.0039504287 1.1673632e-05 -0.048198886
-0.019305693 0.0020028986 0.0001752711 9.263922e-05 -1.498511e-05 0.0018289956 0.00040853902 -0.16677253
0.004066621 0.00094553403 -0.029183527 1.6971346e-07 -0.22865231 0.0003552838 -0.1925305 0.0004629399
0.00433959 0.00022000162 -2.8279139e-05 4.2042746e-05 9.98141e-05 0.0028857824 0.003031552 1.5584092e-05
-6.68443e-05 0.00809804 -5.029671e-07 -0.00012093574 1.2085248e-06 5.9986538e-05 -0.076402806 0.003729928
-0.52623755 -1.0538189e-06 -3.4980354e-07 -0.0018531369 8.010305e-05 -0.00023240244 0.0010002166 -7.3553856e-06
2.778743e-05 0.0038133925 -0.16591309 -0.18917598 4.730852e-06 0.00040062465 0.21836548 2.599985e-05
-1.4935827e-05 -0.002477024 0.001270329 2.0248795e-05 6.715168e-05 -0.021247096 1.891031e-07 -0.0009698496

cbam2.ChannelGate.mlp.1.weight f4 [8, 128]
00000000: c068 0000 ddd5 0080 cf53 0080 c203 0080
00000010: 3be0 0000 f65d 0080 9a9d 0080 7340 91bc
00000020: d44f 0000 0798 0180 1510 0000 a3a7 0080
00000030: 8e9a 0080 6751 3cbd 60b7 0080 2614 0080
00000040: f111 0000 4139 fcbc e94d 0000 a33b 0080
00000050: ff2a 0080 7910 0080 691a 0000 50ac 40bd
00000060: 541d 0000 ef31 0000 4728 0080 3b2e 0000
00000070: f21a 0080 c512 0000 b745 0000 4b3b 0080
00000080: 4ecb 0080 3f28 0000 271d 0000 3e13 0000
00000090: 663f 0080 4684 0000 452f 0000 1003 0000
000000a0: 092c 0000 2669 25bb b401 cbbd 7506 0000
000000b0: c338 0000 1f19 3cbb deae 0080 a225 0000
000000c0: ffad 0000 901d 0000 3404 0080 6643 0000
000000d0: c653 0080 6f3d 0080 aeac 0000 5c23 0080
000000e0: 04a4 dabc ef7b 0000 0d44 0080 740d 0000
000000f0: e719 0000 b93a 0080 ac21 0000 a82e 0080
00000100: c518 0080 9f10 0080 ccd1 80bc b40e eebd
00000110: fd2b 0000 a595 0080 cb6d 0000 9388 0000
00000120: 1f44 0000 d04a 0080 ca34 0000 a1ba 41b9
00000130: 1b4f 0000 c528 0000 114a 0080 420e 0000
00000140: 813f 0080 d338 0080 9d08 0000 5a04 0000
00000150: 2e0c 0080 b83c 0000 bd8e 64bc 6026 0080
00000160: 3fc5 0dbc 6c44 7cb9 0489 0000 3459 0000
00000170: 3a42 0080 ba07 0000 6433 0000 c93c 0000
00000180: 3833 0000 584c 0000 9f1c 0000 fb5a 0000
00000190: de34 0000 30b5 0000 1a55 0000 b519 0080
000001a0: 8806 49bd e80b 0000 3324 0080 b648 0080
000001b0: 6622 0080 4d4a 0080 1b4d 0080 cf00 0080
000001c0: de38 0080 6f4d 0000 a846 0080 3dd6 0fbd
000001d0: ee67 0080 5756 0000 553e 95bc 3703 0080
000001e0: c71d 0000 d561 0080 c521 0080 4b17 0080
000001f0: c046 0000 d940 0000 7d14 0000 374e 0000
00000200: 7cb8 03b3 9d5d a1b0 ebd1 5233 0165 3fb5
00000210: 5694 52b4 97f4 2bb4 10ba a634 9c67 4bb8
00000220: b165 2533 5598 b832 e727 4e33 d759 8b33
00000230: 4516 d332 e44e 94b5 c5bd f1b7 34bf 3d34
00000240: c94a 06b2 9243 91b7 84dc 1c31 6cf5 78b4
00000250: 961e 67b0 5b76 cbb3 ffef 2b35 97b1 a5b7
00000260: faa2 98b5 754f 5fb5 1647 38b3 e6fd 152f
00000270: 7664 0234 4176 9233 c148 4c33 6f59 3c34
00000280: 6a0a 9c31 267e bf32 e68d 5634 5988 8eb1
00000290: d1e2 ff35 e320 93b2 198d 9a35 6f13 8db2
000002a0: 3f90 612f 6f85 1ab6 edfc 2fb9 dbc4 fb36
000002b0: c37c 8c32 9f82 cab7 41a1 6ab6 20b7 8eb5
000002c0: 8285 ff35 b893 a130 a94b d735 6d1e 8232
000002d0: 6a11 30b3 047e 86b2 425c c135 4f5f 2532
000002e0: e1be 01bc 460f 4a34 db44 2134 1044 7434
000002f0: 9cf4 96b5 b808 e9b4 980b e830 c7e0 a134
00000300: 9997 62b5 6f42 112f 8298 b2b8 ea9c 49b9
00000310: 20d4 98b1 22f8 1cb4 f5bf e2b3 f653 4fb6
00000320: 1c3f 42b0 c4a8 df33 6ad4 8433 8760 5030
00000330: 0057 3c34 eaa8 00b3 258a 96b1 1c84 0cb5
00000340: c65c 9534 9537 f8b2 f67b b7b5 4b78 0eb0
00000350: 1984 7b34 15ac 3232 d2bf 9737 a40c 5ab4
00000360: 9035 9bb8 b3d0 4fb6 e74c e0b0 bf21 09b2
00000370: f641 9434 d311 cf34 1dd0 d132 94f3 a834
00000380: 4c24 a8b2 a56f c8b3 a579 6e32 e386 98b4
00000390: 0043 04b2 9a3c 00b1 ad10 d8b5 e11c 3a34
000003a0: 037d 34ba c1c2 e131 704f 6f33 e3fc 35b3
000003b0: ad79 a231 a5a8 b730 5c6d 4932 92bc 6931
000003c0: ea21 e32e bf01 2c31 6c75 4736 cde0 c3b6
000003d0: 1158 24b0 98d6 0134 f7f7 a4b8 0d6a 96b1
000003e0: 0ddd 4fb1 c006 8938 363d b3b2 be46 11b4
000003f0: bbd0 9cb3 232c 41b8 2513 4331 928c 8635
3.7577e-41 -7.672e-41 -3.0065e-41 -1.348e-42 8.0439e-41 -3.3707e-41 -5.6537e-41 -0.017730927
2.8637e-41 -1.46373e-40 5.769e-42 -6.0137e-41 -5.5444e-41 -0.04597607 -6.5783e-41 -7.228e-42
6.436e-42 -0.03078902 2.7949e-41 -2.1394e-41 -1.5424e-41 -5.909e-42 9.474e-42 -0.04703933
1.0521e-41 1.7913e-41 -1.4449e-41 1.6584e-41 -9.666e-42 6.733e-42 2.5009e-41 -2.127e-41
-7.2932e-41 1.4438e-41 1.0458e-41 6.903e-42 -2.2743e-41 4.7451e-41 1.6957e-41 1.099e-42
1.5797e-41 -0.0025239675 -0.09912434 2.316e-42 2.0362e-41 -0.0028701497 -6.273e-41 1.35e-41
6.2418e-41 1.0605e-41 -1.508e-42 2.4178e-41 -3.0052e-41 -2.2038e-41 6.1946e-41 -1.2685e-41
-0.026689537 4.4459e-41 -2.4412e-41 4.826e-42 9.292e-42 -2.1066e-41 1.2079e-41 -1.6737e-41
-8.886e-42 -5.963e-42 -0.015725039 -0.11623898 1.578e-41 -5.3682e-41 3.9386e-41 4.8994e-41
2.4437e-41 -2.6838e-41 1.8937e-41 -0.00018475439 2.8378e-41 1.4625e-41 -2.657e-41 5.115e-42
-2.2781e-41 -2.0385e-41 3.09e-42 1.561e-42 -4.369e-42 2.1782e-41 -0.013950047 -1.3766e-41
-0.008652984 -0.00024058082 4.9152e-41 3.2e-41 -2.3758e-41 2.772e-42 1.8435e-41 2.1806e-41
1.8374e-41 2.7387e-41 1.0267e-41 3.2638e-41 1.8965e-41 6.4998e-41 3.0529e-41 -9.222e-42
-0.049078494 4.271e-42 -1.2986e-41 -2.6084e-41 -1.234e-41 -2.6654e-41 -2.766e-41 -2.9e-43
-2.04e-41 2.7778e-41 -2.5347e-41 -0.035116423 -3.7283e-41 3.0973e-41 -0.018218199 -1.153e-42
1.0682e-41 -3.5096e-41 -1.2114e-41 -8.356e-42 2.538e-41 2.3263e-41 7.35e-42 2.8058e-41
-3.0668602e-08 -1.1740898e-09 4.9085354e-08 -7.1300025e-07 -1.9611738e-07 -1.6014597e-07 3.1055288e-07 -4.8495465e-05
3.8509544e-08 2.1489692e-08 4.7999404e-08 6.489034e-08 2.457376e-08 -1.104982e-06 -2.8817807e-05 1.7671556e-07
-7.816831e-09 -1.7316812e-05 2.2826336e-09 -2.3186084e-07 -8.4080776e-10 -9.474453e-08 6.4051704e-07 -1.975223e-05
-1.1372315e-06 -8.31896e-07 -4.290549e-08 1.3641674e-10 1.2143741e-07 6.820165e-08 4.756362e-08 1.75414e-07
4.5413815e-09 2.2292692e-08 1.9981925e-07 -4.148245e-09 1.9064993e-06 -1.7128007e-08 1.1514959e-06 -1.6423398e-08
2.0514877e-10 -2.3025457e-06 -0.00016783523 7.5033e-06 1.635488e-08 -2.4141102e-05 -3.496258e-06 -1.0633121e-06
1.9037836e-06 1.1756276e-09 1.6040768e-06 1.5147828e-08 -4.099403e-08 -1.5656958e-08 1.4406471e-06 9.625935e-09
-0.007919044 1.8818272e-07 1.5019343e-07 2.2749032e-07 -1.1247062e-06 -4.3405976e-07 1.6883517e-09 3.0152134e-07
-8.4412164e-07 1.3211275e-10 -8.516108e-05 -0.00019227309 -4.447898e-09 -1.4618902e-07 -1.0558862e-07 -3.0894275e-06
-7.066647e-10 1.0414945e-07 6.185367e-08 7.5807133e-10 1.7540515e-07 -2.995595e-08 -4.38128e-09 -5.234631e-07
2.7820914e-07 -2.8896276e-08 -1.367064e-06 -5.1830246e-10 2.3424253e-07 1.0400091e-08 1.8089926e-05 -2.0307431e-07
-7.400953e-05 -3.0966883e-06 -1.6320002e-09 -7.9821225e-09 2.761514e-07 3.8569723e-07 2.4425441e-08 3.1469665e-07
-1.957428e-08 -9.333534e-08 1.3881082e-08 -2.841035e-07 -7.698645e-09 -1.86609e-09 -1.6098107e-06 1.7333106e-07
-0.0006885083 6.570503e-09 5.5718772e-08 -4.2372346e-08 4.7286535e-09 1.3362934e-09 1.1724605e-08 3.4013152e-09
1.0328789e-10 2.5030287e-09 2.972166e-06 -5.837623e-06 -5.9788e-10 1.209213e-07 -7.8663164e-05 -4.377631e-09
-3.0248117e-09 6.533926e-05 -2.0866178e-08 -1.3529913e-07 -7.302284e-08 -4.605589e-05 2.8387117e-09 1.0024689e-06

cbam2.ChannelGate.mlp.1.bias f4 [8]
00000000: b104 5303 efaf 6ab6 72fe 0c3c 9572 8124
00000010: c671 c7aa 1a1a 0080 ca06 0203 d4fe 0c3c
6.2012712e-37 -3.4971124e-06 0.008605586 5.613894e-17 -3.5428447e-13 -9.363e-42 3.821136e-37 0.008605678

cbam2.ChannelGate.mlp.3.weight f4 [128, 8]
00000000: 21ba 0000 c38d 5531 aadb 9cbc 5217 f2b8
00000010: d797 a227 bfea 0080 751f 8400 eb2a b13a
00000020: 6d08 0180 658b 8bb1 f224 d7bc 7c72 e09c
00000030: 4e73 a1a5 2130 692f 83a9 1920 542c 063b
00000040: b609 0080 511e b432 435c 51be 98d6 8f1f
00000050: d688 12a7 f639 0000 cd89 2100 f468 0fbd
00000060: 3a5d 0000 fd22 de2e e325 3c3e adb1 89a2
00000070: 58d6 0329 fb70 0000 37b2 2501 75a1 89ba
00000080: d902 0000 f4cb e2af 3213 70bd 14f2 7223
00000090: f8f2 682a fc13 0000 f742 3300 5e80 47bc
000000a0: 79b5 0080 9960 4ab2 dfb5 08bd ce6d 31a2
000000b0: 99aa dab9 281d 0080 1210 0200 374f 0fbd
000000c0: 3d36 0000 4c40 dfb2 73fe f9bc 6325 9ca5
000000d0: 0cc8 72ab 8fee 0080 c3e4 1280 ccb3 47bc
000000e0: f64f 0080 8918 4ab8 3b35 03be a1a0 8423
000000f0: 467a 0eab ab23 0000 33be 1280 d3b2 c3b9
00000100: d0c3 0080 a85e 02b5 b374 123d e2cf b220
00000110: 8c26 60a7 e263 0080 77d4 0980 32e9 7c3a
00000120: 0337 0000 f8e2 282e 5fa8 0bbd 223b c235
00000130: a7b0 8420 2242 0180 5a1d 0080 7d2a 87bb
00000140: 5cd7 0180 1920 2b31 00cd 7c3d a60d 4925
00000150: e4f8 603b 7186 0000 48d2 0200 b32c 033c
00000160: b4bc 0000 dbee 26b2 4d69 943c b128 84a1
00000170: c4ce 8aaa e7ab 0000 b310 0080 bd3b b73c
00000180: b22c 0180 49a3 9b32 95a9 8fbc 743b 85a4
00000190: c122 2dab a831 0080 d012 8480 d0a7 283b
000001a0: 3ac8 bc3d f075 122d ff35 ac3e 0dd1 6a9d
000001b0: e49a 89a6 5573 0000 7f4a 599f e893 99b9
000001c0: d398 0080 bdf7 3730 664d 98be 2d17 9ea0
000001d0: 0bbf 4529 8529 0180 b36e 0180 8ac5 8b39
000001e0: 1366 0000 b3fd 68b2 55ac 14bc cdee 0823
000001f0: 7e0a f8aa 1aad 0000 9f1a 0c00 c26b 47bb
00000200: 9c08 0000 5498 23b2 b39d 64bc df9d d6a3
00000210: fd9d 1daa 0ede 0000 4f50 1f80 acd6 21bb
00000220: 342b 4037 1415 762f 9177 883e 063c 1823
00000230: eec4 0b29 b435 0000 19f4 8301 fb41 ddba
00000240: 6d1c 0080 22da 192a e386 cfbc 0736 b81d
00000250: 7fad 9826 cab6 0080 b4f4 0200 2e9a 7eb5
00000260: c93d 0080 6715 952c f44a 32be 0814 471e
00000270: e7a1 9aa9 98fe 2f15 5cf3 2080 4cc5 9b3a
00000280: dc95 c1b1 c6ed 8ca8 7dad 1bbe 4de4 9a9c
00000290: 75b7 5ea3 9c05 0000 0021 0600 06da 5738
000002a0: 6772 0080 97b3 f62d 323f 8cbe 8fef 3ea2
000002b0: ee45 82a9 cc9d 0080 06fd 1a02 7b43 0e3e
000002c0: 7704 0000 08e1 3ab4 a8d1 15bd 98af 8621
000002d0: 9a38 e9a7 be68 0180 f958 2581 464b 0fbe
000002e0: 2234 0180 46fc 022c 85a5 873e 1271 fc3b
000002f0: 18a5 e63a 3f05 0080 6d94 4100 923a 1d3e
00000300: 5a80 0080 1936 8730 968b b53d 8367 a322
00000310: 058c aaa7 17ce 0080 5fd0 1300 8b9e f73b
00000320: f7d9 96a7 3612 7bb1 785f ecbd 4992 0b20
00000330: b097 72a8 8ad2 0080 45d5 c280 28c5 cf3c
00000340: c0c6 0180 f901 952f f8f7 2ebd 961c d021
00000350: 3ec0 5825 5a44 0080 0280 0000 1c3d 9cba
00000360: f200 0000 d72b f9ad ada4 41bb 5242 ac22
00000370: 2ae3 3928 0505 0200 339d 1a2e d1a0 a9b9
00000380: d416 0000 d5c4 89ac 2eb1 7a3d 29e9 9ca2
00000390: 2b4b 482b e213 0080 c33b 0000 6df6 8f3b
000003a0: 7190 0080 e90c 92b1 2f88 58bc dcb3 bd22
000003b0: eada dea9 f7ed 0080 1dbd 6403 81cd 76bd
000003c0: de9d 0180 6204 27b3 03d5 f0bd 506d 89a3
000003d0: d96f 1ea9 092b 0080 98ec 3881 7a1a 8a3b
000003e0: f20e 0080 3a5e 2d34 887a 84bd fedd 6fa2
000003f0: e7d1 a6a8 633e 0000 3f9e ec81 26f7 9d39
6.677e-41 3.1076162e-09 -0.019147713 -0.00011543803 4.5128658e-15 -8.4211e-41 1.213357e-38 0.0013516819
-9.4858e-41 -4.0612798e-09 -0.026262734 -1.485267e-21 -2.8007181e-16 2.1208325e-10 1.3015691e-19 0.00204732
-3.484e-42 2.0968544e-08 -0.20445351 6.091787e-20 -2.033575e-15 2.0792e-41 3.080005e-39 -0.0350122
3.3443e-41 1.01016064e-10 0.18373828 -3.7322046e-18 2.9273757e-14 4.053e-41 3.0433577e-38 -0.0010500388
1.022e-42 -4.1254078e-10 -0.058612056 1.3170108e-17 2.0690036e-13 7.169e-42 4.707633e-39 -0.012176601
-6.51e-41 -1.1779911e-08 -0.03337657 -2.4046103e-18 -0.00041707305 -1.0459e-41 1.89436e-40 -0.034987655
1.9457e-41 -2.5989856e-08 -0.030516839 -2.708702e-16 -8.625329e-13 -8.5579e-41 -1.735103e-39 -0.012188863
-2.8685e-41 -4.8183403e-05 -0.12813275 1.4379498e-17 -5.0618223e-13 1.2795e-41 -1.72127e-39 -0.00037326533
-7.0244e-41 -4.8566517e-07 0.035755824 3.0291938e-19 -3.110714e-15 -3.5831e-41 -9.02737e-40 0.0009647786
1.9734e-41 3.8400366e-11 -0.034096118 1.4471336e-06 2.2478569e-19 -1.1556e-40 -1.053e-41 -0.004124938
-1.69092e-40 2.490202e-09 0.06171894 1.7438595e-16 0.0034328038 4.8228e-41 2.59106e-40 0.008006263
6.7694e-41 -9.716781e-09 0.018116618 -8.955439e-19 -2.4657197e-13 6.1667e-41 -5.99e-42 0.022367353
-1.07869e-40 1.8118628e-08 -0.017536918 -5.778027e-17 -6.151018e-13 -1.7813e-41 -1.2129034e-38 0.002573479
0.09217878 8.3253265e-12 0.33634946 -3.1077719e-21 -9.548268e-16 4.1373e-41 -4.601316e-20 -0.00029292633
-5.4823e-41 6.692707e-10 -0.2974655 -2.6781578e-19 4.390849e-14 -1.0673e-40 -1.31547e-40 0.00026659324
3.6617e-41 -1.3561862e-08 -0.00907429 7.423143e-18 -4.406093e-13 6.2097e-41 1.111576e-39 -0.003042922
3.088e-42 -9.522484e-09 -0.013953614 -2.3268788e-17 -1.3999214e-13 7.9658e-41 -2.87571e-39 -0.0024694605
1.1454151e-05 2.2381058e-10 0.26653722 8.252647e-18 3.103501e-14 1.9265e-41 4.8472063e-38 -0.0016880626
-1.0197e-41 1.366481e-13 -0.025332874 4.8760257e-21 1.0594145e-15 -6.5572e-41 2.71454e-40 -9.4846735e-07
-2.2164e-41 4.237211e-12 -0.17411405 1.0539115e-20 -6.8670594e-14 3.5541808e-26 -3.026037e-39 0.001188436
-5.6340763e-09 -1.564624e-14 -0.152029 -1.024988e-21 -1.2073493e-17 2.012e-42 5.62851e-40 5.1463045e-05
-4.104e-41 2.8046716e-11 -0.27391964 -2.5876623e-18 -5.7852906e-14 -5.6607e-41 1.1386747e-37 0.1389293
1.602e-42 -1.7404466e-07 -0.036576897 9.126672e-19 -6.473186e-15 -1.2941e-40 -3.0369548e-38 -0.13993558
-1.10537e-40 1.861415e-12 0.2649347 0.0077039087 0.0017596809 -1.882e-42 6.022552e-39 0.15354374
-4.6044e-41 9.837918e-10 0.088645145 4.4290836e-18 -4.733629e-15 -7.3931e-41 1.819624e-39 0.0075567416
-4.186968e-15 -3.653566e-09 -0.11541647 1.182216e-19 -1.3466591e-14 -7.5527e-41 -1.7892593e-38 0.025362566
-1.63134e-40 2.7104344e-10 -0.04271695 1.4102195e-18 1.8800148e-16 -2.452e-41 4.592e-41 -0.0011920067
3.39e-43 -2.8327491e-11 -0.0029547617 4.6690913e-18 1.0318821e-14 1.85472e-40 3.5155167e-11 -0.0003235401
8.189e-42 -3.915627e-12 0.061204128 -4.2530753e-18 7.115859e-13 -7.133e-42 2.1438e-41 0.00439339
-5.1816e-41 -4.250627e-09 -0.013216062 5.1418986e-18 -9.896756e-14 -8.5366e-41 6.722027e-37 -0.060254578
-1.48468e-40 -3.8886704e-08 -0.11759379 -1.4899865e-17 -3.518006e-14 -1.5438e-41 -3.396521e-38 0.004214582
-5.361e-42 1.614616e-07 -0.064686835 -3.2508062e-18 -1.8520733e-14 2.238e-41 -8.691978e-38 0.00030129513
