models/ETH_UCY/eth.pt (torch, 448466 bytes, 33 tensors)

conv2Da.weight f4 [64, 2, 2, 2]
0.0028832902 0.0003760642 0.0026916265 0.0006016239 0.009456327 -0.0065044947 -0.002968449 0.0018200056
0.031541467 -0.07920756 0.9562862 -0.123420924 0.2294102 -0.24530779 0.11763172 0.18826753
0.29872355 -0.10367353 0.025591448 -0.085530974 -0.16910715 0.4172221 0.049888283 -0.16981125
0.00016713016 -8.6808184e-05 0.00018748974 -3.6943067e-05 -0.0042386856 0.00010093121 -0.00020111428 -0.003793758
-0.030132571 -0.07636912 0.017517142 -0.06611956 0.005987732 0.1071551 -0.12712361 0.30419043
0.010735261 -0.023958536 0.024455467 -0.054773387 -0.06295814 0.025624134 -0.04799768 -0.038959567
0.08637328 -0.21231489 -0.10920953 -0.5438812 -0.27403718 -0.031970892 0.020851946 -0.24553058
0.44495022 -0.2866258 0.09879522 -0.13349187 0.14777072 0.4901931 0.14504015 -0.22530848
-0.03105923 -0.08336617 0.019109976 -0.07178875 0.012262571 0.108939566 -0.14164425 0.3102023
0.054335278 0.18927857 0.20755357 -0.056916405 0.07772908 0.21409401 0.73005307 0.5914338
0.14288104 -0.04588076 0.15968475 -0.023199324 0.4559949 -0.6004648 -0.13262708 -0.10171916
-0.026333725 -0.070919015 0.016696662 -0.061551806 0.0044704294 0.09418713 -0.11390797 0.265456
0.35751504 -0.18037944 0.3362757 -0.33774745 -0.006338953 0.35699305 -0.051045574 -0.62030536
0.108518414 -0.15517424 -0.26369914 -0.10106981 0.1900679 0.19735625 0.43810624 -0.3819942
0.0024399 -0.005718839 0.0033585469 -0.0057544396 -0.0030576629 0.006931838 -0.006269985 -0.009614522
0.00252597 -0.0032874618 0.0021033925 -0.002074025 -0.013202311 -0.0016102905 -0.015083418 -0.027382046
0.012025412 -0.005484432 0.0147241 -0.006830623 -0.0041781543 0.04238814 -0.0076809144 -0.033525594
0.023061994 -0.022323415 0.05232032 -0.039292924 -0.025102835 0.02869544 -0.013288032 -0.028913766
-0.015794706 0.021648504 -0.024587618 0.013531164 -0.15989113 -0.14544511 -0.12092723 -0.2454146
0.00042040515 1.8450753e-05 0.00038355667 3.693254e-05 0.0011275269 -0.00039758265 -0.11135458 -0.061239846
-0.023039522 -0.061099127 0.014912647 -0.053962525 0.0009327548 0.07868074 -0.10019521 0.2335694
0.22736962 0.018981367 -1.0680205 -0.38239568 0.50006634 0.33222094 0.13445896 0.31008258
0.11391883 -0.027325163 -0.16615285 -1.9913425 -0.01718756 0.100870244 0.08209446 0.08639565
0.045107014 0.049791638 0.013833365 0.046585035 -0.06376656 -0.02183215 -0.038172908 -0.11704624
0.0016163302 -0.0049241423 0.0013329257 -0.005186277 -0.0025645322 -0.001334853 -0.0023240393 -0.0012004809
0.00055592944 -0.0007907882 0.00020715743 0.0006051178 -0.0011167409 -0.0031379203 -0.00116051 -0.0020152477
0.0012599378 -0.01586434 0.00019430433 -0.0142828105 -0.00052529253 -0.0018727084 -0.022026325 -0.018623322
-0.0040581566 0.005555799 -0.005887411 0.003730522 -0.018093705 -0.019257385 -0.05042765 -0.011124076
-0.024410406 -0.18736602 0.056502227 -0.26267922 -0.4282421 0.2698387 -0.39234895 -0.29601845
0.44265187 -0.16277519 0.2299122 -0.24871647 0.026524179 0.17230372 -0.475529 -0.7291577
0.00020587469 -0.00014465564 0.0003193883 -0.00010101568 -0.0007198442 2.1338787e-05 -0.0032266844 -0.0006442653
0.0004135661 0.0024720803 0.00068386365 0.00046748845 0.0002732604 -0.0017423521 -0.043878026 -0.007829749
00000000: 95f5 3c3b 7c2a c539 0066 303b 4cb6 1d3a
00000010: b6ee 1a3c a823 d5bb 4f8a 42bb 418d ee3a
00000020: a031 013d 9337 a2bd 2ccf 743f 1cc4 fcbd
00000030: 82ea 6a3e f731 7bbe e6e8 f03d 34c9 403e
00000040: 4bf2 983e ca52 d4bd 28a5 d13c dd2a afbd
00000050: 6d2a 2dbe 239e d53e a857 4c3d 00e3 2dbe
00000060: a93f 2f39 ca0c b6b8 e598 4439 51f3 1ab8
00000070: ace4 8abb 08ab d338 34e2 52b9 b3a0 78bb
00000080: 95d8 f6bc 6a67 9cbd 1c80 8f3c b169 87bd
00000090: bd34 c43b 2274 db3d b12c 02be d9be 9b3e
000000a0: f3e2 2f3c b144 c4bc d556 c83c 0f5a 60bd
000000b0: 33f0 80bd b4e9 d13c 3799 44bd 1194 1fbd
000000c0: 79e4 b03d 1369 59be 3fa9 dfbd cc3b 0bbf
000000d0: 9a4e 8cbe e9f3 02bd b3d1 aa3c 5e6c 7bbe
000000e0: 84d0 e33e 9ec0 92be 2655 ca3d 18b2 08be
000000f0: 3551 173e 97fa fa3e 6885 143e 44b7 66be
00000100: ed6f febc e2bb aabd 868c 9c3c fb05 93bd
00000110: f3e8 483c b51b df3d 310b 11be d6d2 9e3e
00000120: ab8e 5e3d 3ed2 413e ec88 543e 2d21 69bd
00000130: 6d30 9f3d 763b 5b3e c2e4 3a3f 3568 173f
00000140: 684f 123e 77ed 3bbd 6684 233e 820c bebc
00000150: 2a78 e93e 10b8 19bf 65cf 07be 2352 d0bd
00000160: d3b9 d7bc fd3d 91bd 70c7 883c bf1d 7cbd
00000170: ae7c 923b 2fe5 c03d 9548 e9bd d9e9 873e
00000180: 360c b73e 63b5 38be 542c ac3e 3ced acbe
00000190: feb6 cfbb cbc7 b63e 2a15 51bd 55cc 1ebf
000001a0: e73e de3d ffe5 1ebe 9303 87be b0fd cebd
000001b0: 29a1 423e c217 4a3e 764f e03e be94 c3be
000001c0: bbe6 1f3b 1965 bbbb 111b 5c3b bd8f bcbb
000001d0: 1263 48bb 7924 e33b 7274 cdbb 3a86 1dbc
000001e0: bf8a 253b 7572 57bb 12d9 093b 5eec 07bb
000001f0: 814e 58bc 6210 d3ba 7120 77bc 5050 e0bc
00000200: 3c06 453c c0b6 b3bb 5a3d 713c 6bd3 dfbb
00000210: e6e8 88bb 309f 2d3d 2eb0 fbbb 2252 09bd
00000220: 82ec bc3c 98df b6bc d54d 563d 9ef1 20bd
00000230: 76a4 cdbc b312 eb3c 0cb6 59bc 90dc ecbc
00000240: e663 81bc 3458 b13c f96b c9bc d1b1 5d3c
00000250: 80ba 23be 90ef 14be b2a8 f7bd f74d 7bbe
00000260: d369 dc39 b1c6 9a37 1b18 c939 03e8 1a38
00000270: 86c9 933a a472 d0b9 df0d e4bd a2d6 7abd
00000280: 61bd bcbc 1443 7abd 2d54 743c cf07 5dbd
00000290: 1d84 743a 5e23 a13d 2533 cdbd d12c 6f3e
000002a0: 95d3 683e d07e 9b3c e5b4 88bf 5ec9 c3be
000002b0: 5904 003f dd18 aa3e 9caf 093e 25c3 9e3e
000002c0: 474e e93d 05d9 dfbc f923 2abe 50e4 febf
000002d0: edcc 8cbc 0f95 ce3d 2421 a83d 34f0 b03d
000002e0: 22c2 383d 51f2 4b3d 57a5 623c f3cf 3e3d
000002f0: 0b98 82bd 56d9 b2bc 325b 1cbd f0b5 efbd
00000300: 0bdb d33a b35a a1bb 91b5 ae3a a5f1 a9bb
00000310: b611 28bb 3cf6 aeba e94e 18bb 7459 9dba
00000320: cbbb 113a e64c 4fba 6638 5939 c5a0 1e3a
00000330: 9b5f 92ba 91a5 4dbb 411c 98ba 3f12 04bb
00000340: 7f24 a53a eff5 81bc 2cbe 4b39 7302 6abc
00000350: c9b3 09ba ab75 f5ba 8d70 b4bc f08f 98bc
00000360: 49fa 84bb 6c0d b63b 2feb c0bb c67b 743b
00000370: 4039 94bc aac1 9dbc 398d 4ebd c241 36bc
00000380: 55f8 c7bc e1dc 3fbe e16e 673d e47d 86be
00000390: 8c42 dbbe 4c28 8a3e f6e1 c8be bb8f 97be
000003a0: 44a3 e23e 8aae 26be 1b6e 6b3e 88af 7ebe
000003b0: 3c49 d93c 6370 303e 8978 f3be 14aa 3abf
000003c0: 11e0 5739 b4ae 17b9 9273 a739 61d8 d3b8
000003d0: edb3 3cba b200 b337 c876 53bb eae3 28ba
000003e0: e7d3 d839 a002 223b 5045 333a 3d19 f539
000003f0: 6444 8f39 a35f e4ba 72b9 33bd 5948 00bc

conv2Da.bias f4 [64]
-0.021201055 -0.15181027 0.17800324 -0.0023774856 -0.102326326 0.034031488 0.18218401 -0.33552632
-0.11245153 -0.19009094 -0.035815794 -0.103104606 0.20983116 -0.08233484 -0.0008029792 -0.0012283012
-0.028546477 -0.007075505 -0.2697248 -0.0080034165 -0.09109804 -0.0022383821 -0.103202805 -0.23061538
-0.0114508495 -0.0024705387 -0.0025624186 -0.106501184 0.33704293 0.70071214 -0.0007292857 -0.0024204105
-0.012430846 -0.09759257 0.19458796 -0.13394184 -0.02476614 -0.003837129 -0.008201929 -0.010147622
-0.0040829135 -0.0034505988 -0.051666617 -0.0008844124 -0.08519742 -0.01690806 -0.0029299683 -0.05342325
0.06406709 0.087671384 -0.0043621464 -0.108735226 0.35534415 -0.002490102 0.0014833877 -0.0034686227
0.6462331 -0.0010918898 -0.082896486 0.30404055 -0.12260889 0.34576333 -0.033433013 0.027503664
00000000: d6ad adbc 2774 1bbe 7b46 363e 97cf 1bbb
00000010: 7790 d1bd 9a64 0b3d 728e 3a3e 1bca abbe
00000020: fd4c e6bd 33a7 42be 95b3 12bd 8228 d3bd
00000030: fbdd 563e 2b9f a8bd 067f 52ba f3fe a0ba
00000040: 4dda e9bc a3d9 e7bb 5e19 8abe c320 03bc
00000050: 9c91 babd d2b1 12bb fe5b d3bd 7026 6cbe
00000060: 589c 3bbc c3e8 21bb 40ee 27bb 4b1d dabd
00000070: e490 ac3e df61 333f 892d 3fba c09f 1ebb
00000080: bfaa 4bbc 9dde c7bd 1142 473e 0d28 09be
00000090: 5ce2 cabc 5878 7bbb 6261 06bc 3642 26bc
000000a0: f6c9 85bb 7123 62bb 60a0 53bd e9d7 67ba
000000b0: fc7b aebd c682 8abc b604 40bb 56d2 5abd
000000c0: 9b35 833d 0e8d b33d 56f0 8ebb 93b0 debd
000000d0: abef b53e fb30 23bb 3b6e c23a d551 63bb
000000e0: 886f 253f be1d 8fba a2c5 a9bd 34ab 9b3e
000000f0: 5f1a fbbd e407 b13e 0ef1 08bd 5d4f e13c

cbam1.ChannelGate.mlp.1.weight f4 [4, 64]
-1.7558e-41 -0.001303143 -4.9773416e-17 -9.729e-42 -0.004148732 -3.13e-42 2.6962e-41 -5.2409003e-05
0.00029966756 -6.6399113e-09 -5.192252e-05 0.00067818427 -4.7690905e-06 -4.629326e-08 -0.0021634111 -1.2934e-41
-1.8396952e-07 -2.6273048e-07 -3.9418252e-10 6.217746e-08 -2.417558e-09 -5.9693277e-05 0.00042588156 6.8606665e-10
1.765067e-05 -0.0016701194 2.0290365e-05 6.0104535e-06 4.081797e-31 -2.2276842e-07 2.0704268e-25 -2.3658e-41
-1.7203431e-11 -1.4536514e-06 0.00010135947 -2.3549964e-08 0.00013187244 -2.1418076e-09 5.3620764e-11 -2.1412656e-07
6.664692e-14 7.7568103e-07 -3.8775e-41 -0.00017548598 1.4861216e-05 -3.701e-42 -3.7708e-41 -3.657614e-06
-0.00083980005 4.148923e-09 -9.009819e-08 -2.8417235e-25 -5.4101927e-12 -0.00074371387 6.204e-42 -2.5035617e-15
6.8578345e-08 2.0343e-41 -2.0927784e-12 -8.221037e-06 3.6081776e-05 -0.00012109793 -2.3981468e-12 -7.259e-42
-1.3332631e-16 -7.6884233e-16 -3.21515e-16 2.4081217e-18 -6.595448e-16 1.8250253e-17 -1.6892316e-16 -3.1166797e-16
6.405632e-16 -0.003026871 -9.14276e-17 -1.9350276e-16 4.9867694e-16 -1.1903963e-06 1.7506313e-17 1.7839526e-17
-3.2663543e-17 1.0394999e-16 -1.2520375e-19 6.9236377e-19 4.05507e-16 -7.358355e-07 -1.0109274e-16 -1.6167266e-19
-2.707402e-19 -1.2394291e-19 -4.7488687e-19 2.9623936e-19 -5.7838586e-16 -2.0374988e-16 -2.1878925e-19 -6.11568e-19
-1.4199695e-17 -3.057415e-16 2.5715392e-13 2.8893205e-13 1.4966832e-20 1.9010108e-19 -2.52969e-17 3.147229e-17
-1.5017366e-18 4.758116e-19 -8.9698136e-17 -6.267739e-17 -2.181193e-06 1.03939554e-19 2.3748162e-19 2.7629418e-16
-2.6792714e-16 2.8647745e-16 2.714809e-19 8.093731e-16 -6.494973e-16 3.0875188e-19 2.3420934e-19 1.2120432e-21
7.671345e-16 2.3596855e-19 -9.756728e-17 -6.7846714e-16 -9.195754e-16 -5.097968e-06 -7.3502696e-07 -1.1334234e-16
-5.32996e-23 7.2802097e-22 -5.441231e-22 -3.4173363e-25 2.3953066e-22 -2.263275e-22 5.1325578e-23 -6.8113425e-23
-1.4397656e-22 -2.7833828e-08 1.0094423e-22 1.2053927e-22 -8.104879e-23 -1.0030846e-21 -3.3009017e-23 -3.646994e-25
-2.7456238e-23 -2.0557124e-24 2.2461725e-25 4.020062e-25 -1.4035912e-22 -2.3829329e-21 -5.9201317e-22 2.6511246e-25
2.4521986e-26 -1.7984098e-26 -4.917967e-25 1.1271601e-24 9.381208e-23 -4.5896816e-22 -1.8308262e-25 -2.4026281e-24
5.383282e-23 -7.559695e-24 -4.8449146e-22 -2.7754893e-22 1.261839e-25 3.0976029e-25 3.2940197e-23 -1.6163322e-22
-4.86656e-26 5.594277e-24 1.5679412e-22 6.493422e-23 -1.0343741e-21 3.8553255e-25 -2.4043539e-25 -3.357122e-22
-1.4231351e-22 -2.671059e-22 2.921245e-24 -8.098181e-23 -2.5634587e-22 -7.787813e-25 -4.902539e-25 -9.820036e-25
4.3995896e-22 6.1252343e-25 3.0669685e-23 -2.9337967e-22 -1.5852404e-23 -1.2470149e-21 -9.5986096e-23 -1.6121947e-23
0.026437465 0.0758339 0.15440187 0.00023827303 0.34078112 0.042896025 0.17221531 0.24372987
0.35653263 0.2693617 -0.1551551 0.30842355 0.20974186 -0.014185017 0.011514404 0.0038620129
0.019812819 0.018224275 0.0047479714 0.003334499 0.26872778 0.5670095 0.19346446 -0.0064169923
0.0008692776 2.8855146e-05 0.00089221104 -0.0048212167 0.21299398 0.041439943 1.0457044e-05 0.00013416183
0.0072054164 0.25580963 -0.17501876 0.60029036 0.0016810687 4.8383466e-05 0.02964681 0.0640307
-7.631449e-05 0.00014100233 0.015293844 0.027803142 0.7318671 0.00014797485 6.673208e-05 -0.019941537
0.45656598 -0.29153877 0.0033487412 0.38988706 0.092894234 0.0006132079 0.0004190345 0.000667265
0.20606889 2.7789538e-05 0.24184962 0.058872964 0.44351187 -0.16302446 0.10350155 0.010461156
00000000: f230 0080 39ce aaba 148a 65a4 1f1b 0080
00000010: 16f2 87bb ba08 0080 294b 0000 bdd1 5bb8
00000020: b31c 9d39 4725 e4b1 62c7 59b8 2dc8 313a
00000030: 2d06 a0b6 fad3 46b3 04c8 0dbb 0e24 0080
00000040: 2889 45b4 670d 8db4 42b4 d8af 6c86 8533
00000050: 2122 26b1 2b5f 7ab8 db48 df39 a695 3c30
00000060: 8610 9437 e8e7 daba 3a35 aa37 67ad c936
00000070: 3e76 040d 1e32 6fb4 3927 8016 f341 0080
00000080: af52 97ad 151b c3b5 f390 d438 eb4a cab2
00000090: 3d47 0a39 142f 13b1 9dd3 6b2e a9ea 65b4
000000a0: 5513 9629 6538 5035 176c 0080 a902 38b9
000000b0: 7054 7937 510a 0080 1d69 0080 5475 75b6
000000c0: 0726 5cba 508e 8e31 017c c1b3 e8e4 af96
000000d0: af5a beac cbf5 42ba 4b11 0000 9066 34a7
000000e0: 5845 9333 b538 0000 2544 13ac 16ed 09b7
000000f0: 8356 1738 f5f5 fdb8 2cc1 28ac 3c14 0080
00000100: fbb6 19a5 8d9a 5da6 3d57 b9a5 22b0 3122
00000110: d119 3ea6 3154 a823 51c1 42a5 13aa b3a5
00000120: 39a1 3826 785e 46bb 54d1 d2a4 ef17 5fa5
00000130: ddbb 0f26 b5c5 9fb5 9d77 a123 648a a423
00000140: 4ea2 16a4 3eb1 ef24 83d0 13a0 8759 4c21
00000150: 45c2 e925 3b86 45b5 9f1a e9a4 90de 3ea0
00000160: 1ad1 9fa0 7253 12a0 7029 0ca1 6dde ae20
00000170: 58b5 26a6 5ae8 6aa5 7f26 81a0 c680 34a1
00000180: 15f8 82a3 7b3f b0a5 c9c3 902a 7fa7 a22a
00000190: 945b 8d1e 876e 6020 9e52 e9a3 ec23 1124
000001a0: 019e dda1 4f6f 0c21 6fd4 cea4 3386 90a4
000001b0: 9c60 12b6 9b6b f51f 352f 8c20 d345 9f25
000001c0: 1173 9aa5 9c24 a525 0941 a020 3249 6926
000001d0: 7134 3ba6 4441 b620 b740 8a20 a628 b71c
000001e0: 891c 5d26 8f4a 8b20 8ef9 e0a4 0a8e 43a6
000001f0: 5886 84a6 360f abb6 ab4e 45b5 c1ac 02a5
00000200: dbde 809a e507 5c1c 7c73 249c db85 d396
00000210: 93c9 901b 7cce 889b fd31 781a 2bb0 a49a
00000220: 960e 2e9b 3c17 efb2 7411 f41a 19b9 111b
00000230: c5f6 c39a f594 979c 2f9f 1f9a edbc e196
00000240: 2dc5 049a 940d 1f98 0608 8b16 6dd4 f816
00000250: 0baf 299b a00c 349d cdec 329c bf18 a416
00000260: 9fda f214 1b1b b294 2634 1897 696b ae17
00000270: ddd2 e21a f1b6 0a9c 33a5 6296 f4e4 3998
00000280: e728 821a cc39 1299 b66d 129c 9ec4 a79b
00000290: 4635 1c16 7abb bf16 fd49 1f1a 0f67 439b
000002a0: fafa 7095 096b d818 6e8d 3d1b 5600 9d1a
000002b0: 694f 9c9c 12a2 ee16 82d2 9496 f2ec ca9b
000002c0: e60b 2c9b a374 a19b 3805 6218 50cd c39a
000002d0: 9af3 9a9b 6905 7197 eab9 1797 2cf5 9797
000002e0: 2df8 041c 1b91 3d17 3b4f 141a 4e56 b19b
000002f0: a750 9999 8d71 bc9c 8414 e89a 02ec 9b99
00000300: 6293 d83c ce4e 9b3d 861b 1e3e eed8 7939
00000310: dd7a ae3e beb3 2f3d 3659 303e 5394 793e
00000320: 728b b63e c7e9 893e fbe0 1ebe b1e9 9d3e
00000330: 92c6 563e 4668 68bc e9a6 3c3c d319 7d3b
00000340: 7e4e a23c 134b 953c df94 9b3b 9c87 5a3b
00000350: b096 893e 8927 113f 8c1b 463e a245 d2bb
00000360: 3be0 633a f40d f237 45e3 693a 4cfb 9dbb
00000370: 181b 5a3e eebc 293d a970 2f37 cbad 0c39
00000380: 6a1b ec3b 7bf9 823e 1e38 33be a1ac 193f
00000390: 4e57 dc3a 5aef 4a38 dedd f23c 8722 833d
000003a0: 080b a0b8 06da 1339 0893 7a3c 6ac3 e33c
000003b0: a45b 3b3f b229 1b39 83f2 8b38 6f5c a3bc
000003c0: 04c3 e93e 9244 95be 8e76 5b3b 479f c73e
000003d0: 553f be3d b0bf 203a dcb1 db39 65eb 2e3a
000003e0: b903 533e 941d e937 6da7 773e c724 713d
000003f0: fd13 e33e e2ef 26be 9ff8 d33d 4565 2b3c

cbam1.ChannelGate.mlp.1.bias f4 [4]
2.3697612e-18 8.5379693e-16 -2.9281346e-22 -0.17561828
00000000: 86db 2e22 1817 7626 b0fe b09b 47d5 33be

cbam1.ChannelGate.mlp.3.weight f4 [64, 4]
-1.5267e-41 -1.7431913e-17 -4.8923396e-23 -0.09365107 6.923445e-10 -1.7603412e-16 1.5780517e-22 0.3440215
-1.6545e-41 -2.0537633e-16 6.5871924e-23 0.20424755 -2.5194e-41 -1.2954653e-19 1.1033592e-25 -0.013210866
1.1969623e-08 9.844938e-17 4.7543583e-23 -0.2444414 -7.2582e-41 7.1827474e-17 3.4219057e-23 0.034776986
-1.9128e-41 2.6471034e-16 1.5870565e-22 0.19055411 5.696022e-13 5.0454242e-17 -6.508909e-23 0.20873062
-1.0349e-41 1.490446e-17 4.8789728e-23 -0.2509903 -1.5515e-41 -0.062706694 -0.0011718825 -0.20825991
3.094e-42 -3.8652408e-16 7.893003e-23 0.3426758 2.166e-42 2.5072184e-17 2.768699e-23 -0.24207184
-9.93e-42 6.525075e-19 -1.4565939e-22 0.377222 1.6497e-41 1.7624856e-16 -1.6932695e-22 0.33702138
-2.468219e-08 3.687567e-17 1.2019529e-23 -0.030842325 1.6083e-41 1.8192175e-18 -3.2481503e-25 -0.019536499
-7.197258e-36 7.596174e-17 4.2585378e-23 -0.031597298 -5.025e-42 3.5414663e-17 9.595176e-24 0.0221617
1.7379e-41 4.940406e-21 -8.0802634e-26 -0.1849658 9.146e-42 -3.6598785e-19 1.9492726e-25 -0.064773515
9.993e-42 -3.2679104e-17 1.1166519e-22 -0.22799504 1.5588e-41 3.1556744e-16 -1.8373587e-22 0.36348656
5.353e-42 1.02143247e-16 -2.8986976e-24 0.38279817 -4.605e-42 -7.5490176e-20 -4.356663e-25 -0.15543208
1.4603e-41 -1.3112581e-20 -5.941809e-26 -0.00036365053 -1.2240062e-25 -4.0982736e-19 -1.5911329e-26 -0.00031834876
3.4360677e-19 5.946052e-19 2.549606e-25 -0.009908044 3.128463e-15 1.6725242e-19 1.5144774e-26 -0.018362517
-1.6488e-41 1.5040955e-16 9.067377e-23 0.3026288 1.6607349e-32 -2.4928238e-16 -1.6336615e-22 0.48764047
6.222e-42 -2.926801e-20 -4.050815e-27 -0.00928465 -3.9341e-41 -2.0724296e-19 -7.131319e-27 -0.0132899
2.0963e-41 -1.5117369e-18 -2.4757335e-23 -0.012397042 4.9851846e-14 9.9049287e-17 -1.5801338e-23 -0.22652155
-1.619e-41 -6.3226754e-17 -3.7785803e-23 0.28260398 -8.378e-42 2.6183088e-16 1.0649365e-22 -0.26891035
3.43e-42 4.5087748e-20 1.0455295e-25 -0.0027144917 2.428e-42 -1.6727177e-20 1.5557338e-25 -0.0014748944
-8.834e-42 1.3285818e-16 3.552803e-24 0.0021510345 -1.85e-42 -4.430885e-18 2.0701008e-22 0.45318902
2.1524e-41 -1.1188179e-18 1.6960868e-25 0.0025918828 5.07e-43 1.4636175e-19 -2.4404526e-24 -0.001487576
-2.5364e-41 -5.531828e-17 -1.5013651e-23 0.03167276 9.353677e-20 1.0839733e-17 -5.712739e-24 -0.0051203733
-8.636028e-35 -5.894763e-05 -7.541366e-22 -0.25194612 -2.4695e-41 5.1488927e-20 3.1200068e-25 -0.032020606
7.0369e-41 4.1059744e-19 2.6113704e-25 -0.0037431447 9.851816e-33 2.186927e-17 -7.798107e-23 0.13035758
1.139e-42 -3.5182083e-17 -1.4474828e-22 0.41852742 -1.3538e-41 -4.3968425e-17 -6.3216623e-24 0.38176647
3.6883125e-14 2.8401288e-19 6.008763e-25 -0.0030199648 -1.1601e-41 2.0625406e-16 -1.7291176e-22 -0.24849212
-1.4505e-41 -3.2088345e-16 -8.757873e-23 0.47775048 7.801633e-10 2.3188068e-20 1.3021172e-26 -0.00045580877
-1.7347e-41 -1.02735057e-19 -1.1623124e-24 -0.007808489 2.047e-42 -4.3107957e-19 -1.7836218e-25 -0.0032061003
-4.0254e-41 3.648756e-17 1.8821535e-22 0.37386337 -3.6e-44 1.5912312e-19 -2.8783952e-25 -0.0063785813
1.3367e-41 6.18602e-17 -9.340273e-23 -0.21226835 -1.2442e-41 1.4404455e-17 -1.7216067e-23 0.3597938
-1.379e-42 -9.860552e-17 -6.325231e-23 -0.26722828 -1.4845e-41 -1.6187245e-17 3.6630207e-23 0.32647356
-7.608e-42 -0.00046934802 -7.463797e-18 -0.17713523 5.218e-42 5.9150044e-17 -1.2362777e-23 0.002563595
00000000: 8f2a 0080 f1c7 a0a3 3b94 6c9a 22cc bfbd
00000010: 6a4f 3e30 1af4 4aa5 56c6 3e1b 9623 b03e
00000020: 1f2e 0080 65c8 6ca5 bf44 9f1a 4526 513e
00000030: 3b46 0080 09f1 18a0 d996 0816 6372 58bc
00000040: f5a2 4d32 4202 e324 1be8 651a d94e 7abe
00000050: 54ca 0080 759f a524 2479 251a 5072 0e3d
00000060: 5235 0080 5a98 9825 05dd 3f1b 9e20 433e
00000070: 2a54 202b dbad 6824 3260 9d9a 7bbd 553e
00000080: d91c 0080 2978 8923 c2ee 6b1a cd81 80be
00000090: 402b 0080 5e6c 80bd da99 99ba 1642 55be
000000a0: a008 0000 e3d0 dea5 52d7 be1a 3473 af3e
000000b0: 0a06 0000 0540 e723 d5e2 051a aee1 77be
000000c0: ae1b 0080 1396 4021 6617 309b 3e23 c13e
000000d0: fd2d 0000 6533 4b25 27b4 4c9b 118e ac3e
000000e0: b604 d4b2 1b0f 2a24 d37d 6819 0ba9 fcbc
000000f0: d52c 0000 0c3c 0622 ff0c c996 020b a0bc
00000100: 9a11 1985 e627 af24 25ee 4d1a 2b6c 01bd
00000110: 020e 0080 4152 2324 0399 3919 748c b53c
00000120: 7230 0000 ada4 ba1d c10e c895 ad67 3dbe
00000130: 7f19 0000 850a d8a0 ea4e 7116 faa7 84bd
00000140: db1b 0000 adb4 16a4 b4fe 061b 8877 69be
00000150: 742b 0000 89e9 b525 7f1f 5e9b e91a ba3e
00000160: ec0e 0000 bb86 eb24 9f46 6098 1ffe c33e
00000170: d60c 0080 033f b29f 0ad5 0697 9629 1fbe
00000180: b528 0000 8db0 779e b01c 9395 59a8 beb9
00000190: 4e86 1796 5ceb f1a0 0394 9d94 0ce8 a6b9
000001a0: 63d4 ca20 197f 2f21 1fd0 9d16 5955 22bc
000001b0: f56d 6127 f174 4520 90fc 9514 fd6c 96bc
000001c0: f62d 0080 1069 2d25 583c db1a 29f2 9a3e
000001d0: e875 ac0a 96b3 8fa5 607f 459b 03ac f93e
000001e0: 5811 0000 da36 0a9f 2578 a093 a51e 18bc
000001f0: ab6d 0080 57ab 74a0 1540 0d94 e1bd 59bc
00000200: 703a 0000 ce17 dfa1 3170 ef99 f61c 4bbc
00000210: 4483 6029 6164 e424 38d2 9899 44f5 67be
00000220: 222d 0080 7dca 91a4 8fb8 369a 78b1 903e
00000230: 5b17 0080 6bef 9625 30be 001b 9eae 89be
00000240: 9009 0000 beeb 541f 276e 0116 9de5 31bb
00000250: c506 0000 d5fb 9d9e 2c97 4016 3e51 c1ba
00000260: a018 0080 d02c 1925 4271 8918 5ff8 0c3b
00000270: 2805 0080 8778 a3a2 8442 7a1b 6408 e83e
00000280: 003c 0000 bf1b a5a1 23f7 5116 94dc 293b
00000290: 6a01 0000 20cb 2c20 25d2 3c98 c5fa c2ba
000002a0: b446 0080 4c1c 7fa4 0034 9199 4cbb 013d
000002b0: 82db dc1f 31f5 4723 3a00 dd98 cec8 a7bb
000002c0: c395 e586 893e 77b8 7eec 639c 15ff 80be
000002d0: d744 0080 4b26 731f 7b1e c116 0a28 03bd
000002e0: 29c4 0000 bb5f f220 d1a2 a116 8c4f 75bb
000002f0: 3d9d 4c0a 5bb5 c923 f28b bc9a 757c 053e
00000300: 2d03 0000 ac3f 22a4 6cfd 2e9b 3a49 d63e
00000310: bd25 0080 c1c4 4aa4 b68e f498 e576 c33e
00000320: 591b 2629 d0a6 a720 53f6 3917 9aea 45bb
00000330: 5720 0080 74cb 6d25 9909 519b b874 7ebe
00000340: 6f28 0080 0afa b8a5 9cc0 d39a b69b f43e
00000350: 1d73 5630 4f01 db1e 98f4 8014 9ef9 eeb9
00000360: 5b30 0080 8893 f29f f0db b397 5ade ffbb
00000370: b505 0000 e776 fea0 3bcd 5c96 701d 52bb
00000380: 3670 0080 e844 2824 d489 631b 056b bf3e
00000390: 1a00 0080 03dc 3b20 fe29 b296 6b03 d1bb
000003a0: 4325 0000 d1a3 8e24 7dd5 e19a e05c 59be
000003b0: af22 0080 8fdb 8423 eb80 a699 e536 b83e
000003c0: d803 0080 6d5e e3a4 49ef 989a 25d2 88be
000003d0: 6229 0080 0d4d 95a3 0022 311a 8b27 a73e
000003e0: 3515 0080 d312 f6b9 c9ae 09a3 f062 35be
000003f0: 8c0e 0000 0664 8824 8221 6f99 fd01 283b

cbam1.ChannelGate.mlp.3.bias f4 [64]
-0.0016166603 0.062498495 -0.0352952 -6.9318485e-05 -0.028593246 -0.00067109545 0.006400305 -0.07668829
-0.029491883 0.7737121 0.0835766 -0.030514944 0.03271317 -0.0022840768 -0.00026123668 -0.0005226928
-0.0012283314 0.0012018129 -0.028698068 -0.000514467 -0.029706147 0.081363015 0.12969981 -0.035748456
-4.890385e-05 -1.8018332e-05 -0.0001136575 -0.0031346313 0.03682968 -0.009689653 -7.734828e-06 -6.442473e-05
-0.0005612616 -0.029106693 0.06600853 0.04860988 -0.0004400396 -1.2645648e-05 -0.001560474 -0.15475681
0.0007709135 -2.978545e-05 0.0051403535 -1.4076953e-06 0.42424724 -0.0011104015 -8.843533e-05 -0.018462611
0.15348125 0.25371182 -0.0004551225 -0.019422883 -0.055397976 -1.8857527e-05 -7.531759e-05 -0.00014006626
0.023745932 -2.699806e-05 -0.027457379 0.059544522 -0.027297592 0.04466364 0.3629591 -0.001272926
00000000: 1ee6 d3ba 6cfe 7f3d b391 10bd 145f 91b8
00000010: 623c eabc 74ec 2fba a6b9 d13b c00e 9dbd
00000020: f698 f1bc ff11 463f 352a ab3d 7afa f9bc
00000030: 3ffe 053d 73b0 15bb 98f6 88b9 5205 09ba
00000040: f6ff a0ba 2686 9d3a 3618 ebbc 4cdd 06ba
00000050: 4e5a f3bc a7a1 a63d 07d0 043e f96c 12bd
00000060: 1c1e 4db8 1326 97b7 685b eeb8 636e 4dbb
00000070: b8da 163d 5ac1 1ebc d5c4 01b7 c31b 87b8
00000080: a121 13ba 2971 eebc 7b2f 873d 271b 473d
00000090: 1eb5 e6b9 a528 54b7 d288 ccba 9278 1ebe
000000a0: 2117 4a3a c4db f9b7 6970 a83b 0bf0 bcb5
000000b0: ef36 d93e e48a 91ba 5b76 b9b8 e73e 97bc
000000c0: 302a 1d3e 84e6 813e 829d eeb9 bd1c 9fbc
000000d0: fde8 62bd 3b30 9eb7 d3f3 9db8 c0de 12b9
000000e0: d486 c23c e479 e2b7 4cee e0bc f5e4 733d
000000f0: 339f dfbc 39f1 363d c6d5 b93e 4fd8 a6ba

cbam1.SpatialGate.spatial.conv.weight f4 [1, 2, 7, 7]
1.45657e-40 -9.5975e-41 7.2537e-41 0.40227634 3.3603825e-34 0.0010282731 -1.24581e-40 6.9298e-41
-2.707611e-15 1.9557e-41 0.008748511 8.5035e-41 1.0596e-40 -4.0324e-41 1.7624e-41 1.17063e-40
-4.0562e-41 -0.24598159 5.5955e-41 -6.9245034e-06 2.9588e-41 -6.035e-41 -6.11e-42 9.4034e-41
0.11582724 -1.45706e-40 -5.3282e-41 2.461e-41 -7.8805e-41 0.0009759122 3.2751e-41 0.038963865
-8.219e-41 -3.0983e-41 9.901e-41 1.00503e-40 -5.3647e-41 -8.4641e-41 -0.32262474 -3.7639e-41
1.3577e-41 -3.3733e-41 2.9689376e-10 2.3441e-41 3.2098803e-06 0.048602194 4.6377473e-16 -6.5306e-41
-9.4509e-41 2.2983e-41 2.57e-41 -2.1751e-41 0.14286618 0.00124942 9.3887e-41 3.6598e-41
4.766142e-09 -1.09039e-40 -3.1973e-41 0.16579221 6.5362e-41 1.50994e-40 -3.71317e-40 4.045e-41
-4.229426e-11 4.7585e-41 0.0009690375 -5.6059696e-07 9.0635e-41 2.6246e-41 6.3204e-41 -0.002021289
-8.8854e-41 0.40715092 -9.86188e-40 1.0414e-41 -3.2065e-41 -1.04984e-40 -3.94e-41 -1.36856e-40
-0.012037559 1.0593e-40 1.71131e-40 1.38779e-40 5.7876e-41 2.45681e-40 -6.637e-42 0.29554638
-2.25084e-40 -4.5179e-41 2.736e-41 5.2296e-41 1.1662e-41 -8.6236e-41 0.06437824 -8.5352e-41
-6.984e-42 4.9124e-41
00000000: 0896 0100 8a0b 0180 34ca 0000 2af7 cd3e
00000010: f255 df07 1fc7 863a 485b 0180 2dc1 0000
00000020: 9b1a 43a7 8436 0000 ea55 0f3c 0bed 0000
00000030: 6027 0100 6870 0080 2131 0000 5346 0100
00000040: 1271 0080 99e2 7bbe fb9b 0000 0859 e8b6
00000050: 7b52 0000 3ba8 0080 0811 0080 2106 0100
00000060: d536 ed3d 2b96 0180 8794 0080 9a44 0000
00000070: addb 0080 5cd4 7f3a 4c5b 0000 9398 1f3d
00000080: 1de5 0080 5e56 0080 0014 0100 2918 0100
00000090: 8c95 0080 f2eb 0080 122f a5be ec68 0080
000000a0: d925 0000 095e 0080 1538 a32f 5841 0000
000000b0: 5369 5736 1813 473d 89ac 0526 0cb6 0080
000000c0: 7407 0180 1140 0000 a447 0000 a23c 0080
000000d0: 834b 123e 94c3 a33a b805 0100 0566 0000
000000e0: 6ec3 a331 f52f 0180 2159 0080 6fc5 293e
000000f0: 34b6 0000 e9a4 0100 150b 0480 c270 0000
00000100: 1a03 3aae a684 0000 0107 7e3a ee7b 16b5
00000110: a7fc 0000 2a49 0000 30b0 0000 9a77 04bb
00000120: b0f7 0080 1676 d03e 17bd 0a80 081d 0000
00000130: 6259 0080 a724 0180 d56d 0080 807d 0180
00000140: 2f39 45bc 4a27 0100 0bdd 0100 dc82 0100
00000150: 56a1 0000 dcac 0200 8012 0080 db51 973e
00000160: 7173 0280 f17d 0080 454c 0000 c891 0000
00000170: 8220 0000 64f0 0080 bdd8 833d eded 0080
00000180: 7813 0080 f088 0000

conv2Db.weight f4 [128, 64, 2, 1]
-5.3703094e-05 -0.00010092597 -0.14280422 -0.04944708 -0.055337854 -0.0011338465 -3.483261e-05 -5.0697556e-05
-0.00015600113 -0.0073706936 -0.0045969496 -0.004252466 -0.018810712 0.022220787 -0.04578127 0.017895943
-0.00047414526 -0.0033352592 -0.12323718 -0.058446653 -0.05521117 -0.057108823 0.00074065855 -0.0012835761
-0.0755945 0.02292693 -0.14603907 0.0124584 7.780471e-05 -0.00023515517 0.0005507128 -0.0007871052
0.0015773722 -0.0027295258 -0.00040771352 -0.0020811912 0.0006775135 0.00068740215 0.0008779711 0.00067262066
0.00079001725 -0.0048212674 -0.14609396 -0.039840575 -0.070182025 0.0131876245 0.00013888467 0.0041159815
0.00018702535 -3.2702876e-05 0.00013741235 -0.0001215655 -0.00082700886 0.00042845463 0.000119821 0.00045739562
-0.031646673 0.029554585 -0.069805115 -0.021975696 -3.1608844e-05 -1.7695678e-05 -0.0006744189 -0.00016612781
0.00026423004 -0.00082563894 0.0006278386 0.0013208489 -0.14389436 -0.082578875 -0.0012295056 -0.02863418
0.00016454319 -0.00025635518 -1.2216309e-05 6.943811e-06 0.003376618 -0.0030651307 -0.054157898 -0.026779424
0.00027210967 0.0006125631 -7.414473e-05 1.933834e-05 0.003545829 -0.0026761938 -1.3085441e-06 -6.139212e-05
-0.005043857 -0.054789994 -0.00053378026 0.0007150867 5.192252e-05 -4.0573934e-05 -0.051815677 0.010580656
-0.004812242 0.004196258 -0.07829591 -0.07509726 0.00047169093 -0.0005686464 -0.000689799 -0.014139207
-0.18753731 -0.043224 5.0777006e-05 -4.9349164e-05 0.000151716 0.00040596578 1.9712588e-05 -1.9261857e-05
-0.04409086 0.008893925 -0.00015440396 -0.0002366317 -0.0008043396 -0.0092260875 -0.07991386 -0.023695093
-0.00057656586 -0.0063776574 -0.15519433 -0.069659725 -0.042670686 -0.01855967 -0.0010908308 -0.0029519906
4.8012144e-10 -1.1062792e-07 -0.00031082018 0.0003276173 -5.6385525e-05 -8.278546e-05 -1.4907002e-08 -5.3685202e-08
-1.2561616e-05 -1.4514112e-05 3.0075125e-05 9.347923e-06 8.8092616e-05 -0.00011092239 -0.00024727843 -1.848857e-05
-1.3836955e-05 -8.906688e-06 -0.00059443124 3.291867e-05 -3.779198e-05 -6.289869e-06 -1.589015e-05 -1.0810029e-06
2.8092118e-05 -3.9932205e-05 -0.001012904 8.0566584e-05 1.5348726e-06 -2.034594e-07 1.2390792e-06 -3.7570084e-07
-2.7605374e-06 -8.3329945e-07 1.3699942e-05 2.867399e-06 -3.0375508e-05 1.8997709e-05 -1.0692066e-05 -2.211775e-06
-1.687019e-05 -3.987944e-06 -0.0011444147 -0.0006201678 -0.000135335 0.00025325967 -9.1549955e-06 -1.2835019e-05
-2.4578594e-07 5.274063e-06 6.930449e-08 -3.1583937e-08 8.303008e-06 7.498835e-08 1.3334787e-05 1.4392327e-07
0.00018449067 0.00033073494 0.00013160352 0.00012645427 2.8539343e-08 -1.3350905e-08 -1.1341413e-05 -1.1899392e-07
-1.4698259e-06 -6.620129e-06 -1.4443514e-05 1.3464658e-05 -0.00010594665 0.00028843508 -2.1655413e-05 -2.9913543e-05
1.4939845e-06 -2.1392823e-06 -1.2667186e-07 6.518083e-08 -1.682226e-05 5.789938e-06 2.4398521e-05 -0.00031815202
1.7930435e-07 -1.9017834e-09 -8.1690615e-07 -3.4961996e-08 -2.649439e-05 2.6840964e-06 2.1672104e-08 -1.128335e-08
3.719349e-06 5.674579e-05 4.0423556e-06 -2.6326265e-06 1.8207579e-06 4.648652e-06 -0.00011262205 8.779901e-06
0.00017308886 0.00034589594 0.00032807817 0.0004622048 1.3693336e-06 2.9078004e-07 -3.3302915e-06 -1.2943758e-05
-0.0007984766 -8.504071e-05 -1.0573353e-06 2.7613135e-07 4.8452756e-07 -8.0265664e-08 -3.641361e-06 -3.9134484e-06
-1.5162482e-05 -0.0006055502 2.0004941e-07 -8.9639755e-08 1.0727681e-06 -8.128389e-06 0.00018112807 -0.0003733946
-1.4351569e-05 9.3311955e-06 -0.0010985946 -1.0945303e-05 -0.00064072886 -0.000116768526 2.1509019e-05 -2.30529e-06
00000000: 423f 61b8 38a8 d3b8 453b 12be 0589 4abd
00000010: f2a9 62bd 939d 94ba 3b19 12b8 16a4 54b8
00000020: 3c94 23b9 dc85 f1bb 02a2 96bb 4558 8bbb
00000030: ec18 9abc 5e08 b63c 2485 3bbd 839a 923c
00000040: b396 f8b9 5d94 5abb c663 fcbd c265 6fbd
00000050: 1c25 62bd f1ea 69bd c128 423a ab3d a8ba
00000060: 4ad1 9abd 42d1 bb3c 448b 15be 511e 4c3c
00000070: 162b a338 fc93 76b9 b65d 103a bc55 4eba
00000080: d4bf ce3a d8e1 32bb 62c2 d5b9 9864 08bb
00000090: 299b 313a c732 343a a527 663a cf52 303a
000000a0: 2919 4f3a b9fb 9dbb a899 15be df2f 23bd
000000b0: 98bb 8fbd e810 583c 92a1 1139 5bdf 863b
000000c0: 3c1c 4439 722a 09b8 5916 1039 fbf0 feb8
000000d0: a0cb 58ba 35a2 e039 6948 fb38 9ace ef39
000000e0: f19f 01bd 751c f23c fcf5 8ebd 6006 b4bc
000000f0: bd93 04b8 2e71 94b7 7ccb 30ba 9832 2eb9
00000100: 5b88 8a39 b16f 58ba 8995 243a 5620 ad3a
00000110: 0b59 13be 1d1f a9bd 5d27 a1ba 3a92 eabc
00000120: 3a89 2c39 6967 86b9 a6f4 4cb7 e2fe e836
00000130: 404a 5d3b 5ce0 48bb acd4 5dbd 8660 dbbc
00000140: f1a9 8e39 6a94 203a 267e 9bb8 c538 a237
00000150: 2461 683b 1563 2fbb 3ca1 afb5 a5bf 80b8
00000160: f046 a5bb 796b 60bd 63ed 0bba a874 3b3a
00000170: 62c7 5938 ee2d 2ab8 ad3c 54bd 7d5a 2d3c
00000180: 03b0 9dbb c380 893b 9b59 a0bd 98cc 99bd
00000190: 494d f739 3711 15ba a1d3 34ba 22a8 67bc
000001a0: c809 40be a60b 31bd 65f9 5438 43fc 4eb8
000001b0: f415 1f39 ced7 d439 765c a537 8694 a1b7
000001c0: 9e98 34bd d3b7 113c 7fe7 21b9 5720 78b9
000001d0: 51da 52ba 0429 17bc e1a9 a3bd 361c c2bc
000001e0: ae24 17ba abfb d0bb 43eb 1ebe c2a9 8ebd
000001f0: 75c7 2ebd 730a 98bc 35fa 8eba 2f76 41bb
00000200: 8bf9 0330 5892 edb3 94f5 a2b9 0dc4 ab39
00000210: 7f7f 6cb8 1b9d adb8 d80c 80b2 8193 66b3
00000220: bbbf 52b7 a381 73b7 d749 fc37 06d5 1c37
00000230: 5dbe b838 019f e8b8 26a5 81b9 e717 9bb7
00000240: 4525 68b7 ef6d 15b7 9bd3 1bba 2712 0a38
00000250: d482 1eb8 900d d3b6 d64b 85b7 fa16 91b5
00000260: 5da7 eb37 e17c 27b8 6bc3 84ba dbf5 a838
00000270: d201 ce35 7e76 5ab4 704e a635 eeb3 c9b4
00000280: ac41 39b6 e7af 5fb5 ced8 6537 8a6d 4036
00000290: e8ce feb7 455d 9f37 1362 33b7 016e 14b6
000002a0: 7584 8db7 2ed0 85b6 2f00 96ba c292 22ba
000002b0: b6e8 0db9 f0c7 8439 6898 19b7 fd55 57b7
000002c0: 90f4 83b4 dbf7 b036 8cd4 9433 e8a6 07b3
000002d0: 264d 0b37 4809 a133 79b8 5f37 5489 1a34
000002e0: d673 4139 7e66 ad39 0dff 0939 cf98 0439
000002f0: ae26 f532 e75d 65b2 ff46 3eb7 9989 ffb3
00000300: d546 c5b5 7a22 deb6 6c52 72b7 44e6 6137
00000310: ad2f deb8 1a39 9739 a5a8 b5b7 d8ee fab7
00000320: eb84 c835 9790 0fb6 4c03 08b4 8af9 8b33
00000330: 871d 8db7 3047 c236 6dab cc37 a4cd a6b9
00000340: ce86 4034 87b0 02b1 5d49 5bb5 1f29 16b3
00000350: 4540 deb7 6d20 3436 7629 ba32 b3d8 41b2
00000360: ee99 7936 5402 6e38 92a3 8736 2eac 30b6
00000370: c460 f435 9efb 9b36 812f ecb8 634d 1337
00000380: 307f 3539 5e59 b539 e801 ac39 1454 f239
00000390: f2c9 b735 811c 9c34 f97d 5fb6 0429 59b7
000003a0: dc50 51ba e257 b2b8 c4e9 8db5 343f 9434
000003b0: 7b10 0235 845e acb3 1b5e 74b6 4450 83b6
000003c0: 5d62 7eb7 c9bd 1eba 2acd 5634 fa7f c0b3
000003d0: 08fc 8f35 2a5f 08b7 32ed 3d39 2dc4 c3b9
000003e0: 85c7 70b7 2e8d 1c37 b8fe 8fba b8a1 37b7
000003f0: 96f6 27ba a0e1 f4b8 446e b437 95b4 1ab6

conv2Db.bias f4 [128]
-0.13967596 -0.0010293565 -0.0029389393 -0.038442977 -0.0010526223 -0.001973229 -0.099318415 -0.004974289
0.3098935 -0.051387027 0.08971031 -0.00048208455 -0.00849934 -0.00040831743 -0.035663545 -0.017483214
-0.016824782 0.24932882 -0.0533855 -0.003460248 -0.030612804 -0.01111407 -0.047598768 -0.012356982
0.07009896 -0.0021373837 -0.022349337 -0.0059543196 -0.0017996837 -0.035620015 -0.03310671 -0.014447466
-0.007143657 -0.0020338076 -0.0039049755 -0.012465185 -0.0034909768 -0.000270394 -0.004811605 0.00935018
-0.0053651957 -0.00083251635 -0.11772048 -0.0044172155 0.13059728 -0.0028473018 -0.007352284 -0.0014997799
-0.00938813 -0.00040089962 -0.004697525 -0.0015674513 -0.007983875 9.39174e-05 -0.01744668 -0.0022316943
-0.09768735 -0.12099369 -0.10841201 -0.0018335482 -0.005233545 -0.0013560974 -0.0025718964 -0.035800338
-0.0016298785 -0.033265367 -0.1836865 -0.0010136043 -0.0043765414 -0.0010779721 0.10758263 0.0037000547
-0.04368959 -0.004962485 -0.0007895944 -0.0014779875 -0.0023509997 -0.029508842 0.022978332 -0.0019225545
0.10558065 -0.012693345 -0.0007758753 0.12565804 -0.024400912 -0.03178401 -0.005582944 -0.0010538758
-0.0033650382 -0.06907462 0.23617683 -0.01823048 -0.0034762218 -0.009576494 0.17041487 -0.079659514
-0.00049951934 -0.023359558 0.003185546 -0.11589375 -0.0011103554 0.045064252 -0.000967385 0.045122202
0.109400645 -0.002564881 -0.01571331 -0.00585226 -0.030892845 0.50355965 -0.0076934323 0.283091
-0.026499564 -0.16311607 -0.0010194085 -0.00094049866 -0.0069723376 0.10991289 -0.03971745 0.09612873
-0.01568431 -0.09789123 0.011654755 0.0071330443 -0.0023436227 -0.07170967 -0.08411967 -0.0008334414
00000000: 3707 0fbe 79eb 86ba 389b 40bb 6276 1dbd
00000010: 25f8 89ba 4a51 01bb 7467 cbbd 5cff a2bb
00000020: 5caa 9e3e 347b 52bd 0aba b73d 4bc0 fcb9
00000030: d140 0bbc 7013 d6b9 f013 12bd f538 8fbc
00000040: 20d4 89bc 0e50 7f3e c1aa 5abd 54c5 62bb
00000050: b4c7 fabc ca17 36bc edf6 42bd f074 4abc
00000060: 0b90 8f3d 5913 0cbb f515 b7bc 741c c3bb
00000070: 5de3 ebba 4be6 11bd e79a 07bd 10b5 6cbc
00000080: 5715 eabb a149 05bb 9eea 7fbb c63a 4cbc
00000090: dfc8 64bb abc3 8db9 abaa 9dbb 7f31 193c
000000a0: 86ce afbb 3a3d 5aba 6f17 f1bd 4abe 90bb
000000b0: 4bbb 053e cc99 3abb 6eeb f0bb 4394 c4ba
000000c0: acd0 19bc d62f d2b9 b2ed 99bb f072 cdba
000000d0: cdce 02bc 85f5 c438 57ec 8ebc 9e41 12bb
000000e0: 4e10 c8bd 8acb f7bd 1e07 debd ab53 f0ba
000000f0: 287e abbb 14bf b1ba 438d 28bb 60a3 12bd
00000100: a6a1 d5ba 4441 08bd 5018 3cbe ebda 84ba
00000110: 1769 8fbb be4a 8dba 4854 dc3d 9e7c 723b
00000120: dbf3 32bd 579c a2bb c9fc 4eba 08b9 c1ba
00000130: 3b13 1abb 87bc f1bc 0e3d bc3c 39fe fbba
00000140: ab3a d83d bff7 4fbc 1c64 4bba 80ac 003e
00000150: 6ce4 c7bc f32f 02bd 21f1 b6bb 3422 8aba
00000160: f987 5cbb ff76 8dbd 57d8 713e 1658 95bc
00000170: 53d1 63bb bae6 1cbc 3c81 2e3e 8724 a3bd
00000180: 2df2 02ba 8b5c bfbc 98c4 503b b459 edbd
00000190: 5889 91ba 4b95 383d 1c98 7dba 0fd2 383d
000001a0: 720d e03d 9017 28bb 33b9 80bc 51c4 bfbb
000001b0: fe12 fdbc 49e9 003f 3019 fcbb 4ef1 903e
000001c0: 9d15 d9bc e607 27be ac9d 85ba cc8b 76ba
000001d0: 3578 e4bb 021a e13d c4ae 22bd 24df c43d
000001e0: 627c 80bc 327b c8bd 96f3 3e3c 50bc e93b
000001f0: 7797 19bb 85dc 92bd ef46 acbd 4e7b 5aba

cbam2.ChannelGate.mlp.1.weight f4 [8, 128]
-0.007713533 6.466383e-06 4.6710524e-05 -0.0051812693 1.1375968e-05 4.5951678e-05 -0.002320105 4.6672736e-05
-0.027422842 -0.0046396703 -0.011294771 -6.4268286e-05 -8.8841516e-05 1.4249553e-06 0.0030308787 -0.0027036818
-0.00062810787 -0.033296652 -0.007099484 7.95738e-05 7.0080765e-05 -0.0027493574 -0.004469137 0.0001479637
-0.05372367 -5.4379052e-05 -0.010572169 1.6103038e-05 2.5484196e-05 0.00018197876 0.0035679997 -0.003861267
6.623651e-05 -3.605924e-05 2.188171e-05 -0.0016737094 0.00014389858 -5.3203985e-05 -6.1695224e-05 -0.0070552183
3.670917e-05 6.0323796e-06 -0.01507684 3.909914e-05 -0.0036069066 9.639914e-06 3.992225e-07 1.6047512e-05
7.281349e-05 2.2683087e-06 4.065206e-06 9.0319e-06 8.265002e-05 -0.0026424138 -0.0019274702 1.0139309e-05
-0.005983355 -0.0073152613 -0.06274728 2.3193716e-05 1.0440114e-05 -3.95175e-06 3.1332012e-05 -0.00013609171
1.0069741e-05 0.0040092086 -0.008470969 2.4823883e-05 -0.006069838 8.785914e-06 -0.007685055 0.0048080496
-0.02595989 -0.054323237 7.3987712e-06 1.6797412e-05 5.8777245e-05 -0.0092418045 -0.049873192 2.9880324e-05
-0.018024692 0.006852349 1.7434657e-05 -0.012782162 -0.0014285904 -0.012396398 -0.008028388 1.7074311e-05
4.163799e-05 0.000757111 -0.024395645 -0.010600833 7.985577e-06 0.001256386 -0.041377425 0.0003671415
8.970487e-06 0.0004670352 -2.2382828e-05 -0.0027090583 -4.0034774e-05 -0.010961882 1.4925152e-05 -0.04782399
-0.05018908 -0.00016722386 -0.00047815972 0.0006020102 -0.00050810707 -0.06451719 0.0007502133 -0.029789777
-0.0022021562 0.005693934 3.9613874e-06 -1.4066444e-05 8.315483e-05 -0.01787074 -0.00057185814 -0.04663825
-0.0003347655 -0.007937225 -0.007777491 -0.009774986 -7.278547e-05 -0.008218751 0.00035609238 8.563904e-06
0.016795749 -4.687633e-05 -0.007511972 0.050167765 -1.6303615e-05 -0.0001030479 0.09512186 -4.1873143e-05
0.18592845 0.039820623 0.05335171 -3.601494e-05 0.00045937925 -3.4825833e-05 0.107345685 0.029310437
0.0065567913 0.05456307 0.071566105 -0.00021618781 -0.012587546 0.17349263 0.11132054 0.0070029176
0.7263208 -3.342391e-05 0.28818533 -0.0016735846 -3.4581037e-05 0.14308423 0.040778145 0.036992885
-0.0001906625 -5.222042e-05 0.0014185567 0.019130226 -5.132108e-05 -8.265189e-05 -3.852935e-05 0.47076872
-0.00011409472 -0.00017825078 0.20100236 2.7158072e-07 -0.09621365 -7.02326e-06 0.006490081 -0.0001584267
-0.0018264882 -1.0412678e-05 -9.327785e-05 -6.389397e-06 -0.00023550341 1.9920173e-05 0.034887232 0.0012723099
0.06586651 -0.06626098 -0.07094441 -2.7965787e-05 -0.00071423553 -6.463201e-05 5.785135e-05 -0.005709256
-1.2707762e-05 0.012090137 -0.052336592 -3.4668155e-05 0.10081963 -1.8053532e-05 0.06653936 0.020275597
-0.049089696 0.10640782 0.00035002668 -5.3593947e-05 4.9710736e-05 0.033089098 -0.16187288 0.00017821546
0.1069245 0.010585605 -2.211908e-05 0.27707547 0.029389735 0.3501374 0.17994688 -5.6832927e-05
-8.6149135e-05 -0.0036124024 0.10911824 0.30443057 -0.00019154427 0.011296631 -0.014009196 -0.0020852794
-7.5294876e-05 -0.0050219847 0.011068763 0.0059477747 -0.00013318658 0.24771746 -2.108508e-05 -0.10648779
-0.10458643 -0.00024777968 0.0030578335 -0.012382254 0.004722714 0.47488874 0.0059240684 0.08882906
0.041951887 0.0069597834 -9.3141134e-05 -4.362171e-05 0.0001702257 0.29063198 -0.0006070933 -0.14844835
-0.0023543083 0.29560634 0.17928678 0.267575 -0.00020775368 0.13066973 -0.0038425536 4.759947e-05
00000000: cec1 fcbb cff9 d836 0beb 4338 a3c7 a9bb
00000010: 69db 3e37 3dbc 4038 e70c 18bb 78c2 4338
00000020: dea5 e0bc 6008 98bb b40d 39bc c6c7 86b8
00000030: 6d50 bab8 1741 bf35 b5a1 463b 4130 31bb
00000040: 9ba7 24ba 1262 08bd caa2 e8bb dce0 a638
00000050: 53f8 9238 902e 34bb d771 92bb b426 1b39
00000060: 5a0d 5cbd 1015 64b8 e436 2dbc 0315 8737
00000070: e5c6 d537 8dd1 3e39 1ad5 693b 4f0d 7dbb
00000080: 75e8 8a38 503e 17b8 9d8e b737 5e60 dbba
00000090: 7be3 1639 5827 5fb8 5f62 81b8 762f e7bb
000000a0: 2cf8 1938 bf69 ca36 da04 77bc 62fe 2338
000000b0: da61 6cbb 1ebb 2137 b954 d634 c59d 8637
000000c0: 72b3 9838 3f39 1836 db67 8836 b787 1737
000000d0: 6454 ad38 592c 2dbb 2ba3 fcba 001c 2a37
000000e0: 0510 c4bb dcb4 efbb a581 80bd 2090 c237
000000f0: f327 2f37 4699 84b6 7e6a 0338 d7b3 0eb9
00000100: 35f1 2837 ae5f 833b d2c9 0abc e23c d037
00000110: 7ee5 c6bb 3767 1337 ead2 fbbb d88c 9d3b
00000120: d6a9 d4bc 0b82 5ebd f642 f836 2be8 8c37
00000130: 9687 7638 f06a 17bc d547 4cbd 82a7 fa37
00000140: 85a8 93bc ab89 e03b a440 9237 466c 51bc
00000150: 8a3f bbba 431a 4bbc 8089 03bc ce3a 8f37
00000160: 74a4 2e38 dc78 463a 60d9 c7bc 1eaf 2dbc
00000170: cbf9 0537 52ad a43a 607b 29bd e67c c039
00000180: f37f 1637 67dc f439 c2c2 bbb7 758a 31bb
00000190: 03eb 27b8 7799 33bc 0a67 7a37 17e3 43bd
000001a0: 1193 4dbd d058 2fb9 83b1 fab9 38d0 1d3a
000001b0: 7d32 05ba 9721 84bd f6a9 443a b109 f4bc
000001c0: 0d52 10bb 2e94 ba3b 0fec 8436 ebfe 6bb7
000001d0: 6963 ae38 a865 92bc c0e8 15ba c007 3fbd
000001e0: 7783 afb9 220b 02bc 53da febb 4327 20bc
000001f0: 67a4 98b8 f1a7 06bc e9b1 ba39 b0ad 0f37
00000200: 3d97 893c 139d 44b8 fd26 f6bb b77c 4d3d
00000210: bfc3 88b7 6c1b d8b8 40cf c23d f2a0 2fb8
00000220: 0764 3e3e f31a 233d 5387 5a3d bf0e 17b8
00000230: d7d8 f039 f411 12b8 0ed8 db3d 711c f03c
00000240: 5ada d63b 877d 5f3d 4091 923d 79b0 62b9
00000250: ff3b 4ebc 0da8 313e 06fc e33d bb78 e53b
00000260: 29f0 393f a630 0cb8 078d 933e 2e5c dbba
00000270: 1b0b 11b8 ac84 123e fc06 273d da85 173d
00000280: 93ec 47b9 4007 5bb8 ddee b93a feb6 9c3c
00000290: 9741 57b8 6555 adb8 939a 21b8 9908 f13e
000002a0: 2346 efb8 d4e8 3ab9 90d3 4d3e c5cd 9134
000002b0: aa0b c5bd 58a9 ebb6 bfaa d43b 581f 26b9
000002c0: c666 efba 1db2 2eb7 2a9e c3b8 8164 d6b6
000002d0: 77f1 76b9 3f1a a737 eae5 0e3d a3c3 a63a
000002e0: 05e5 863d d6b3 87bd 4e4b 91bd 1298 eab7
000002f0: 893b 3bba 0c8b 87b8 6aa5 7238 b614 bbbb
00000300: 6c33 55b7 b615 463c e55e 56bd a668 11b8
00000310: 867a ce3d aa71 97b7 ca45 883d 0219 a63c
00000320: 4712 49bd 58ec d93d c983 b739 10ca 60b8
00000330: 7f80 5038 6f88 073d 01c2 25be 59df 3a39
00000340: 3bfb da3d 3f6f 2d3c 5d8c b9b7 d6dc 8d3e
00000350: bec2 f03c 3645 b33e ff43 383e e45f 6eb8
00000360: f7aa b4b8 0ebe 6cbb 6279 df3d 53de 9b3e
00000370: 46d9 48b9 8115 393c d486 65bc 2fa9 08bb
00000380: a1e7 9db8 768f a4bb c259 353c 8de5 c23b
00000390: 00a8 0bb9 a5a9 7d3e dddf b0b7 4516 dabd
000003a0: 6931 d6bd 6de8 81b9 ef65 483b f0de 4abc
000003b0: ffc0 9a3b 9e24 f33e b01e c23b 03ec b53d
000003c0: bed5 2b3d e50e e43b c454 c3b8 74f6 36b8
000003d0: 9d7e 3239 b7cd 943e 5725 1fba d802 18be
000003e0: bd4a 1abb b759 973e f496 373e 97ff 883e
000003f0: 74d8 59b9 49ce 053e 5ad3 7bbb 8ba5 4738

cbam2.ChannelGate.mlp.1.bias f4 [8]
-0.04564971 0.022015296 -1.1614676e-07 -3.373518e-24 -4.0606174e-08 0.42721978 1.9065872e-08 2.3676962e-13
00000000: 31fb 3abd 6c59 b43c 5b6c f9b3 b481 8298
00000010: f666 2eb3 8dbc da3e 4cc6 a332 194a 852a

cbam2.ChannelGate.mlp.3.weight f4 [128, 8]
-0.00022450292 -0.07446596 1.2571895e-08 4.8485568e-27 -8.319781e-09 -0.043663956 -7.095879e-11 2.3786468e-15
-1.1311106e-06 -2.447158e-05 1.0366447e-12 -4.102279e-28 3.069655e-11 -2.6533513e-05 1.2455205e-12 -1.8360334e-17
-1.3355996e-05 -0.0033412173 -4.582206e-12 -4.823539e-27 3.189347e-10 0.00015591779 -5.0496834e-10 2.243747e-18
0.00042471944 -0.07123342 -1.477327e-11 -3.076401e-28 -3.749999e-09 0.019350255 -2.9026755e-11 -7.879267e-14
-9.085137e-07 -0.0020534594 -9.14546e-13 -6.313735e-30 4.893424e-12 -4.268007e-05 -6.8440186e-13 -1.1150669e-17
-5.829797e-07 0.00011194191 5.9345493e-12 2.012253e-27 1.7789237e-11 -0.00017653876 -1.1556062e-10 -6.719604e-17
0.007486615 0.1357975 1.9397133e-09 -5.006362e-27 -3.0000056e-08 0.015645197 5.5803673e-10 -1.9996519e-15
-2.3513546e-06 -0.0023733822 3.527613e-11 1.7834427e-27 4.740316e-11 -0.00010776991 -5.2617745e-12 1.3390332e-18
0.037245736 0.014536311 1.3068711e-08 4.8525126e-24 -4.2083755e-08 0.38641748 1.0916397e-06 2.6882776e-09
0.0035751022 0.054153223 3.0805172e-10 6.469377e-27 -2.766369e-08 -0.034740567 8.749494e-11 -1.5349894e-14
0.029521545 0.27441522 4.866496e-09 2.5429212e-25 -1.817141e-07 -0.35968015 7.3934925e-10 5.1264026e-14
1.5046215e-06 6.013331e-05 -5.2812524e-12 1.661007e-27 -1.4568137e-12 -7.032895e-05 -1.5507224e-11 -5.436238e-16
1.3370868e-05 -0.0013112009 3.4829377e-13 2.9689389e-27 -4.896948e-11 0.00023346566 -6.219976e-11 -5.7113374e-17
-7.5536514e-07 -0.0001393679 6.722123e-13 -2.6533164e-28 7.75675e-12 -2.3554183e-05 -4.0102877e-13 -1.0009564e-17
0.009932236 -0.03718224 2.0523288e-09 -1.709842e-25 -8.749204e-09 0.15773503 1.4909652e-09 1.207875e-13
0.0003140928 -0.055764187 7.8423906e-11 -9.331667e-28 4.4294444e-09 0.011944124 1.0657388e-11 4.1538018e-14
3.5533125e-07 -0.0017023607 -6.834418e-10 9.416375e-26 9.655684e-11 -0.009176703 -9.402422e-12 -1.9098968e-18
0.016794723 0.21706642 3.800075e-08 -1.4450218e-25 9.887552e-09 0.23639365 -3.6542693e-09 4.287211e-14
0.024486886 0.12517972 1.0287713e-08 1.0487495e-24 6.8333916e-09 0.16646428 -1.0655385e-09 -3.6911227e-15
2.4310753e-05 -0.00029116453 -2.3883588e-12 9.144247e-28 -1.102814e-10 -0.00025167552 -8.889982e-13 -1.4847363e-17
0.0025093157 0.089611426 3.6867068e-10 2.0593144e-25 -1.7106665e-08 0.032161944 9.343634e-10 2.588473e-15
0.014787866 -0.080819055 -3.6253793e-09 5.0838064e-27 2.447157e-07 0.3640709 8.190168e-10 2.5809619e-09
0.011312809 0.06809297 3.6239578e-09 -9.493391e-26 -5.519082e-08 0.037138637 -3.773582e-10 -5.640679e-14
-9.40696e-06 -0.018117756 -1.3797635e-12 -1.005732e-25 7.2862494e-11 0.0046199034 1.0072901e-09 -1.1024973e-15
0.017826123 0.31221527 2.1563372e-08 -3.795914e-26 4.969559e-10 0.30180478 -7.641427e-10 3.9007693e-15
-1.1205391e-06 -0.0011236445 1.992883e-12 1.3819181e-27 -1.6657856e-11 -0.0012913186 -2.8278638e-12 -5.820883e-17
0.0068103657 -0.10933907 1.8545766e-08 -3.2406252e-26 1.799178e-07 0.30260548 8.0184237e-10 -2.0483826e-11
-5.9649046e-06 0.0073101544 1.542007e-11 -8.826798e-28 -1.3882354e-11 -0.0005541098 4.4379837e-11 -8.776521e-17
-7.016154e-07 3.190327e-05 -5.219865e-12 -1.9351823e-27 -1.8314333e-11 -0.00030030552 -7.2509373e-12 5.25722e-17
0.006188791 0.16142043 8.2833984e-10 -1.4680265e-24 -2.9718649e-08 0.07117061 4.941989e-09 -9.900297e-15
0.0031453597 0.030429002 4.140038e-09 8.848697e-26 -1.9859038e-11 0.09379819 -2.6116085e-09 2.7333654e-15
0.00022601518 -0.07320453 -2.3055155e-11 -1.655195e-27 -4.394823e-09 0.01008636 -6.800377e-11 -2.8851975e-14
00000000: 8b68 6bb9 9c81 98bd c7fb 5732 3512 c013
00000010: c9ee 0eb2 fad8 32bd 3f0a 9cae 4a66 2b27
00000020: aad0 97b5 5148 cdb7 10e5 912b a401 0292
00000030: 3e01 072e 4994 deb7 9b4a af2b 1d58 a9a3
00000040: 9113 60b7 53f8 5abb d838 a1ac 7f14 bf93
00000050: 1256 af2f dd7d 2339 fdcd 0ab0 2f8f 2522
00000060: e1ac de39 d4e2 91bd 72f2 81ad 76fd c291
00000070: 57d9 80b1 6d84 9e3c 7152 ffad e26c b1a9
00000080: 96e0 73b5 5593 06bb feb5 80ab c90e 008f
00000090: 0c2c ac2c 6003 33b8 5aa4 40ab 8cb1 4da3
000000a0: 0f7e 1cb5 5bc2 ea38 abcd d02c 576d 1f13
000000b0: cd79 9c2d 431d 39b9 d81e feae 8af1 9aa4
000000c0: 4752 f53b 800e 0b3e cc4b 0531 8b52 c693
000000d0: 69d9 00b3 5b2a 803c 5864 1930 1117 10a7
000000e0: f7cb 1db6 bf8a 1bbb 6425 1b2e 844c 0d13
000000f0: 377b 502e 8802 e2b8 da21 b9ac 3e9b c521
00000100: fc8e 183d b529 6e3c cc84 6032 f5b8 bb18
00000110: 94bf 34b3 83d8 c53e 7484 9235 aebc 3831
00000120: 434c 6a3b c5cf 5d3d 6d5a a92f a323 0014
00000130: 19a1 edb2 204c 0ebd 4667 c02e 7242 8aa8
00000140: 2bd7 f13c 2780 8c3e 2736 a731 3266 9d16
00000150: 311d 43b4 ff27 b8be 143b 4b30 66df 6629
00000160: 67f2 c935 a637 7c38 4bd1 b9ac 3999 0313
00000170: 3f07 cdab 917d 93b8 2a67 88ad 5bb0 1ca6
00000180: 7153 6037 9adc abba 6c12 c42a 3c39 6b13
00000190: bc5e 57ae 76ce 7439 5ac7 88ae c9b1 83a4
000001a0: 4cc4 4ab5 4923 12b9 0036 3d2b 852c a891
000001b0: 4c75 082d 3996 c5b7 56c2 e1aa d4a4 38a3
000001c0: d1ba 223c 684c 18bd f308 0d31 0eab 5396
000001d0: 684f 16b2 4b85 213e adea cc30 a0fe 072a
000001e0: d2ac a439 fd68 64bd bc74 ac2e bddd 9392
000001f0: ce31 9831 49b1 433c 9c7c 3b2d 1312 3b29
00000200: 5bc4 be34 bf21 dfba f1dc 3bb0 5e23 e915
00000210: ab54 d42e e259 16bc bf68 25ad eeec 0ca2
00000220: 1695 893c a946 5e3e 4436 2333 92e2 3296
00000230: eadd 2932 2d11 723e 961e 7bb1 2d14 4129
00000240: b998 c83c 1d2f 003e d7bd 3032 3f49 a217
00000250: 26cb ea31 9d75 2a3e 4e72 92b0 99fc 84a7
00000260: f2ee cb37 71a7 98b9 d910 28ac 79e5 9012
00000270: e982 f2ae 51f3 83b9 123b 7aab 58f1 88a3
00000280: 5573 243b 3286 b73d c9ad ca2f 47ee 7e16
00000290: f4f1 92b2 3ebc 033d fd6a 8030 e684 3a27
000002a0: ce48 723c 7684 a5bd 5922 79b1 ec63 c913
000002b0: 7861 8334 8067 ba3e 2f21 6130 c35c 3131
000002c0: 5c59 393c 5474 8b3d 5709 7931 840b eb95
000002d0: f30a 6db3 af1e 183d 7274 cfaf 9a08 7ea9
000002e0: 96d2 1db7 b06b 94bc 382f c2ab d701 f995
000002f0: f039 a02e 8f62 973b df70 8a30 f9e2 9ea6
00000300: 1708 923c aeda 9f3e 5b3a b932 edf6 3b95
00000310: 2a9a 0830 2886 9a3e c30b 52b0 3f8a 8c27
00000320: 6e65 96b5 4147 93ba 973c 0c2c 42f9 da12
00000330: 2886 92ad 7641 a9ba 44fe 46ac 6e38 86a4
00000340: 7d29 df3b 2aed dfbd 924e 9f32 ce77 2095
00000350: 6e2f 4134 1bef 9a3e a468 5c30 7a2d b4ad
00000360: 2426 c8b6 058a ef3b e9a2 872d bfdd 8b92
00000370: 9038 74ad ae41 11ba 412f 432e 705f caa4
00000380: a556 3cb5 e0cf 0538 5da8 b7ac 2952 1993
00000390: 3618 a1ad 5372 9db9 a31e ffac 4c72 7224
000003a0: 57cb ca3b 664b 253e 3cb1 6330 852a e397
000003b0: 0048 ffb2 e6c1 913d 32ce a931 1059 32a8
000003c0: 6122 4e3b 3e46 f93c 2940 8e31 4815 db15
000003d0: 94ae aead 4419 c03d e777 33b1 b1f5 4427
000003e0: 7dfe 6c39 42ec 95bd 98cb caad 5823 0393
000003f0: 4601 97b1 4341 253c b88a 95ae 10f0 01a9
