models/ETH_UCY/hotel.pt (torch, 448466 bytes, 33 tensors)

conv2Da.weight f4 [64, 2, 2, 2]
-0.33004385 -0.06489733 1.3151567 -0.19041385 0.18104984 0.0018582549 -0.24204528 -0.19724023
-0.05760271 -0.01157211 0.012759114 -0.0072033936 0.27688107 0.016008632 0.26111096 0.15103859
-0.2089124 0.035591993 -0.29866967 0.0343222 0.050563544 0.030989282 0.1255214 0.08139593
0.005409869 -0.20420243 -0.84684527 0.30338717 0.30794874 -0.029214343 0.074802965 -0.04660238
0.12382677 -0.007204906 0.12852438 0.011849037 0.029188417 2.9286099e-05 -0.11619039 0.026763653
-0.005124835 0.0006861458 -0.005015214 0.00040007787 -0.005425366 1.2414437e-05 -0.020308891 0.013481582
-0.08330961 -0.059641276 -0.9080789 -0.20184065 0.1090983 -0.0048957192 -0.03835152 0.059305195
-0.2693484 0.14038396 -1.1579078 0.78270847 0.025433382 0.0994476 -0.31419158 0.1654282
-0.28726676 0.21643883 0.90004754 -0.86862767 0.19504176 -0.012920651 0.05020539 -0.28732783
0.031563886 0.00916943 0.07595549 0.012424629 -0.03274885 0.013507384 -0.04170746 0.10075198
0.054950826 -0.018126471 0.18205084 -0.108875565 0.109655246 -0.0010740017 0.09262132 -0.14024757
-0.08175757 -0.049388137 -1.3757747 0.053113706 0.030238362 0.052171346 -0.1889778 0.013004338
-0.45721558 0.3231693 -0.05553652 0.42804414 -0.4408431 0.0072901165 0.26264974 0.017897025
0.10562862 0.008105719 0.24509087 -0.0019001443 -0.07783513 0.049617615 -0.112531304 0.14057602
0.24638908 -0.09765896 -0.38183212 -0.62256175 0.24370502 -0.0057228 0.17632514 -0.28624013
0.00018446932 0.00013876994 0.00022565907 0.0001768092 -6.468061e-05 7.968576e-06 -0.00085359544 -0.0008606327
-0.17867818 0.019074686 0.23129971 0.13953528 0.13777341 0.0009288234 -0.17937662 -0.022575635
-0.03771363 0.0103064515 0.053897865 0.04082779 0.39785263 -0.0006196107 0.31385183 0.31977144
-0.10746818 -0.048134968 -0.37605244 0.046067655 0.026210917 0.027513195 -0.12898873 0.11804414
0.2044701 -0.5744717 -0.22352889 -1.7449509 0.0564333 -0.017463613 -0.15058665 0.07733935
0.026600005 -0.10798096 0.19948049 -1.06245 0.2502337 -0.000997842 -0.005396651 -0.36916596
0.1686332 0.20865406 0.7356081 0.350189 -0.03633599 0.048472058 0.2497252 0.03691726
2.4096038e-05 7.6450284e-05 8.047625e-05 2.1090194e-05 -2.5945483e-05 2.3625698e-06 -0.0004960161 -0.0007785423
-0.006850211 -0.0087519 0.023201004 0.012213579 0.30241287 -0.0004094107 -0.03601129 -0.09827368
-0.1377916 0.366967 0.23984826 0.30650336 0.05881751 0.0009971565 0.19660859 -0.25045994
0.0047166725 -0.003775551 -0.007302452 -1.5459655e-05 0.12515421 -0.00014897554 -0.051123824 -0.025015075
-0.18349153 -0.08467169 -0.32698563 -0.019707298 0.31599182 0.08328377 0.008271719 -0.17854278
-0.34626517 0.06611983 0.0041026194 0.10155863 -0.018986395 0.00097650645 0.3680116 -0.3878324
-0.03614629 -0.1020588 -0.056545854 -1.1127015 -0.1703218 -0.0019460777 -0.2783157 -0.4352039
0.00083362573 0.0007337531 0.03932194 -0.0015130941 -0.00080041116 5.1894378e-05 0.014588045 -0.0130399205
-0.105235614 -0.23609291 -0.7668774 -0.8410823 0.025367934 -0.0023403915 -0.25489405 0.029741706
1.34193415e-05 2.1458462e-05 6.7499124e-05 2.9326064e-05 -0.0020217255 7.1052787e-06 -0.005544962 -0.002117228
00000000: 82fb a8be e4e8 84bd 0e57 a83f d9fb 42be
00000010: 2165 393e b090 f33a b8da 77be 58f9 49be
00000020: d2f0 6bbd f298 3dbc 9a0b 513c 720a ecbb
00000030: 5bc3 8d3e 8924 833c 56b0 853e dca9 1a3e
00000040: 22ed 55be e9c8 113d 3beb 98be 6f95 0c3d
00000050: b81b 4f3d 3cdd fd3c af88 003e e9b2 a63d
00000060: 4545 b13b 711a 51be daca 58bf 9055 9b3e
00000070: 75ab 9d3e eb52 efbc 4c32 993d 23e2 3ebd
00000080: e498 fd3d 2217 ecbb e59b 033e 7722 423c
00000090: 8c1c ef3c 6bab f537 3af5 edbd 733f db3c
000000a0: 3bee a7bb 77de 333a aa56 a4bb 8bc1 d139
000000b0: 45c7 b1bb 9a47 5037 d55e a6bc dae1 5c3c
000000c0: 3b9e aabd 694a 74bd dc77 68bf 51af 4ebe
000000d0: ee6e df3d 456c a0bb 7c16 1dbd 01ea 723d
000000e0: 09e8 89be d0c0 0f3e 5336 94bf 955f 483f
000000f0: ab59 d03c 2fab cb3d b8dd a0be 0366 293e
00000100: a114 93be 24a2 5d3e 8469 663f 625e 5ebf
00000110: 07b9 473e 23b1 53bc 2ba4 4d3d a21c 93be
00000120: 2249 013d 603b 163c 8d8e 9b3d ac90 4b3c
00000130: a823 06bd 134e 5d3c 71d5 2abd 0e57 ce3d
00000140: 1e14 613d f77d 94bc 896b 3a3e 27fa debd
00000150: ee92 e03d 84c5 8cba 3fb0 bd3d 0f9d 0fbe
00000160: 8370 a7bd 374b 4abd 6319 b0bf c28d 593d
00000170: 71b6 f73c 9fb1 553d 6583 41be 2610 553c
00000180: 2918 eabe 7276 a53e 437a 63bd 9a28 db3e
00000190: 30b6 e1be eee1 ee3b 077a 863e c89c 923c
000001a0: d153 d83d dacd 043c 1af9 7a3e 430e f9ba
000001b0: 0668 9fbd d73b 4b3d d076 e6bd 29f3 0f3e
000001c0: 6b4d 7c3e 6c01 c8bd 807f c3be 3560 1fbf
000001d0: cf8d 793e 5386 bbbb 948e 343e 118e 92be
000001e0: 1b6e 4139 c682 1139 e59e 6c39 dc65 3939
000001f0: 23a5 87b8 c6b0 0537 d2c3 5fba 159c 61ba
00000200: 6af7 36be 8442 9c3c d5d9 6c3e 56e2 0e3e
00000210: 7914 0d3e 497c 733a 81ae 37be 8af0 b8bc
00000220: 9b79 1abd 64dc 283c 02c4 5c3d 0a3b 273d
00000230: 57b3 cb3e 5f6d 22ba 30b1 a03e 15b9 a33e
00000240: 4718 dcbd 2c29 45bd f289 c0be 70b1 3c3d
00000250: 47b8 d63c 5a63 e13c 9f15 04be 20c1 f13d
00000260: 9c60 513e 9410 13bf c2e4 64be 8d5a dfbf
00000270: 9b26 673d da0f 8fbc 6333 1abe 1864 9e3d
00000280: 41e8 d93c 1f25 ddbd 9d44 4c3e 5dfe 87bf
00000290: a21e 803e 06ca 82ba 64d6 b0bb 5203 bdbe
000002a0: 2eae 2c3e 69a9 553e d050 3c3f f94b b33e
000002b0: 0cd5 14bd a38a 463d f6b7 7f3e 8e36 173d
000002c0: d921 ca37 ef53 a038 5cc5 a838 d9ea b037
000002d0: 80a5 d9b7 a48c 1e36 1407 02ba 1717 4cba
000002e0: bc77 e0bb 2164 0fbc 0810 be3c 771b 483c
000002f0: dcd5 9a3e 2da6 d6b9 9380 13bd b643 c9bd
00000300: 3e19 0dbe 19e3 bb3e c89a 753e 02ee 9c3e
00000310: a1ea 703d 05b3 823a c353 493e 493c 80be
00000320: 518e 9a3b 3c6f 77bb 6849 efbb 5baf 81b7
00000330: 6d28 003e 5136 1cb9 3767 51bd 6aec ccbc
00000340: 34e5 3bbe 5a68 adbd a96a a7be 3371 a1bc
00000350: aec9 a13e ae90 aa3d 1b86 073c ebd3 36be
00000360: ab49 b1be d569 873d 446f 863b f9fd cf3d
00000370: 5b89 9bbc 3dfc 7f3a 046c bc3e f891 c6be
00000380: 220e 14bd 3404 d1bd a09c 67bd 016d 8ebf
00000390: d768 2ebe 8813 ffba 657f 8ebe 0cd3 debe
000003a0: ad87 5a3a 5659 403a 0b10 213d 0353 c6ba
000003b0: afd2 51ba 2aa9 5938 b202 6f3c 64a5 55bc
000003c0: c585 d7bd 57c2 71be 1452 44bf 2b51 57bf
000003d0: 6ad0 cf3c 4161 19bb 7981 82be e1a4 f33c
000003e0: a223 6137 b201 b437 518e 8d38 3e01 f637
000003f0: ed7e 04bb e169 ee36 83b2 b5bb 31c1 0abb

conv2Da.bias f4 [64]
0.1823619 -0.020990962 0.013641191 0.03109684 -0.08910236 -0.016797148 0.16586505 0.055565238
0.27769 0.061997354 -0.105926804 0.051515225 0.15162113 0.17921804 -0.022227677 -0.0015154727
-0.038965143 -0.12790023 0.0032578232 0.10057778 -0.12821615 -0.20166434 -0.00035080637 0.035653897
-0.28312153 -0.022503756 0.41140893 -0.1366444 0.23409832 -0.04259304 0.034448784 -0.0008972547
-0.0029165307 0.4716275 -0.16520147 0.08926788 0.047923543 -0.20385319 -0.0040509445 -0.18125068
-0.013816055 -0.05304907 0.46571046 0.034095112 -0.0018252434 0.09634457 0.30935484 0.004363625
-0.058568735 -0.052942146 0.23741278 0.2022531 -0.10432701 0.20803834 0.11205225 -0.0027449732
-0.061464403 0.390033 -0.0020982902 0.059564214 0.20517562 0.12990688 0.31201446 0.24183512
00000000: 14bd 3a3e 3df5 abbc 4d7f 5f3c cdbe fe3c
00000010: 4c7b b6bd 2c9a 89bc 87d8 293e 6098 633d
00000020: 622d 8e3e f0f0 7d3d 27f0 d8bd a101 533d
00000030: 9242 1b3e ef84 373e d116 b6bc d3a2 c6ba
00000040: ea99 1fbd 47f8 02be 3481 553b b9fb cd3d
00000050: 184b 03be 1981 4ebe 6fec b7b9 d209 123d
00000060: 4ef5 90be cc59 b8bc 31a4 d23e 82ec 0bbe
00000070: 78b7 6f3e 0a76 2ebd 2b1a 0d3d be35 6bba
00000080: 4423 3fbb 2979 f13e 932a 29be 14d2 b63d
00000090: 7a4b 443d e4be 50be c9bd 84bb c799 39be
000000a0: bc5c 62bc fb49 59bd 9a71 ee3e 51a7 0b3d
000000b0: 013d efba 4d50 c53d c263 9e3e bdfc 8e3b
000000c0: c5e5 6fbd ddd9 58bd 561c 733e 701b 4f3e
000000d0: 66a9 d5bd 0108 553e a67b e53d 02e5 33bb
000000e0: 19c2 7bbd 68b2 c73e 7883 09bb 9bf9 733d
000000f0: 8f19 523e 4f06 053e 5cc0 9f3e a0a3 773e

cbam1.ChannelGate.mlp.1.weight f4 [4, 64]
0.23120452 0.41361278 0.27044564 0.28612852 0.025227737 0.0011685708 0.27131766 0.06918429
0.3882158 0.07146909 0.1973025 0.109596506 0.26081386 0.09438194 0.31851766 -4.2785858e-05
0.09745276 0.40882683 0.07143264 0.027035473 0.2637599 0.29977968 3.334306e-06 0.2823734
0.13095926 0.14025238 0.3140915 0.2956694 -0.010558732 0.010366981 0.053821884 8.7353656e-05
1.0965206e-06 0.20122762 0.023332074 0.2908891 0.28132886 0.04671166 0.024297806 0.09221487
-0.004047965 0.14155807 0.03322644 0.33184323 0.02244055 0.06375229 0.31845295 0.038101915
0.122825176 0.23661819 0.16454169 -0.018088013 -0.004337355 0.11387008 0.079728715 -3.1308784e-05
0.029352834 0.052918058 -0.000102606944 0.054958604 0.31050554 0.07552115 0.17474322 0.055929206
-2.3227878e-10 -2.3093968e-07 -0.0016442213 -0.009877966 -0.00017428279 9.8721495e-05 -2.166601e-06 -7.845948e-06
1.3722169e-07 -0.00041662352 -0.00654752 -4.9329778e-05 -9.583195e-06 0.0025565932 -0.0002464955 1.707e-42
-2.7405282e-09 0.00012372754 -1.7926118e-07 -1.2954e-41 2.469665e-07 4.015078e-07 1.1384e-41 -8.8157526e-10
-0.0010529254 -0.0001236537 -8.8363624e-05 -0.0001624296 -6.667e-42 -1.4124e-41 -1.689351e-05 -2.2620131e-10
-2.5111e-41 5.6514835e-08 0.00022651996 -4.363528e-05 5.769e-42 -1.7246e-41 9.38553e-05 -0.0015387135
-0.0005003643 1.6447115e-05 9.285e-42 -1.1903564e-11 3.9755746e-06 -0.0036919962 5.5513474e-09 0.00043859245
-4.804668e-05 0.0025234688 -2.4643e-41 -1.4286152e-09 2.128e-41 -0.008297276 5.0721937e-08 -1.7396e-41
-1.5899243e-06 6.781e-42 1.4589e-41 -0.0006035499 0.0005354067 -0.000887224 -0.003786343 0.00027524083
-0.0012087368 -0.0003442587 -0.001115575 -0.0044322447 6.4051426e-05 8.8428374e-07 -0.008401473 2.469651e-05
-0.0026681966 -2.5589154e-05 -0.0008108505 -0.0014930721 -0.0019592629 0.0005288899 -0.0032883575 7.692922e-07
-4.376959e-05 -0.008888079 0.00029047643 0.0010032468 0.0023674923 -0.00031134387 -4.8067534e-07 -0.0015223022
0.004305141 -0.00070744485 -0.0028528809 0.0057174126 -0.00024129574 2.4545966e-06 0.00034327368 -3.9493227e-07
-7.9266704e-07 0.0003504906 -1.812118e-05 -0.0011220046 -0.0006108652 0.00020919302 -3.0221563e-06 -0.0013429979
2.58155e-06 -0.00036713522 0.002475068 -0.0012138095 8.549252e-05 -0.00018420021 -0.008007612 0.00022423857
-0.0025312833 -0.0036610912 0.0019622634 0.0012275251 2.0637633e-05 -6.234099e-05 -0.00078068394 2.001128e-07
5.648689e-05 0.0030358038 4.3043315e-06 0.0018767074 -0.013167119 0.00017268446 -0.0010754381 0.000506582
-8.052406e-06 -9.738758e-05 -0.00738741 0.008060906 -0.004405083 -0.0062249224 -0.00037735424 -0.0011605923
-0.00057750684 0.0025560223 0.020302607 -0.0007047824 -0.0022171729 -0.019626837 0.0008782362 8.935e-42
-6.860404e-06 -0.0049657878 -0.00065752934 1.1124e-41 -0.0003482734 -0.0007402335 6.264e-42 -3.772508e-07
-0.013875572 -0.00010281258 -0.0020026907 0.0006735081 1.9536934e-26 -2.181257e-11 -0.00020030669 -0.000114699564
2.7774e-41 -3.1025258e-05 -0.0019085847 -0.00019468933 -1.2769013e-15 -5.139e-42 -0.003644131 -0.003725278
0.0029132073 -0.0023541655 -2.0183e-41 7.693619e-06 -0.0005836538 0.009178448 -0.000111551 -0.0037339798
0.011522983 -0.019498033 5.598e-42 -1.0147482e-05 -3.0105e-41 -0.016483285 -1.2326219e-05 2.5306e-41
0.0017145777 2.4999e-41 1.0619e-41 -0.004610453 -0.003954817 -0.005230583 -0.018063497 -0.007750055
00000000: e1c0 6c3e 0ec5 d33e da77 8a3e 707f 923e
00000010: 66aa ce3c bb2a 993a 26ea 8a3e 7eb0 8d3d
00000020: 39c4 c63e 635e 923d ab09 4a3e 2274 e03d
00000030: 6589 853e 524b c13d bf14 a33e f774 33b8
00000040: 5095 c73d c051 d13e 474b 923d 7f79 dd3c
00000050: 8a0b 873e b97c 993e f1c2 5f36 3f93 903e
00000060: 2f1a 063e 529e 0f3e 9ad0 a03e fb61 973e
00000070: 88fe 2cbc 45da 293c 5674 5c3d a331 b738
00000080: 292c 9335 9d0e 4e3e e822 bf3c 6bef 943e
00000090: 560a 903e ba54 3f3d 310c c73c 26db bc3d
000000a0: cba4 84bb 99f4 103e 7318 083d 5be7 a93e
000000b0: 3fd5 b73c 9090 823d 440c a33e c110 1c3d
000000c0: c48b fb3d 0a4c 723e 9e7d 283e 502d 94bc
000000d0: 5f20 8ebb b734 e93d cf48 a33d 8d51 03b8
000000e0: 5b75 f03c 9bc0 583d af2e d7b8 461c 613d
000000f0: 95fa 9e3e d5aa 9a3d e3ef 323e 0616 653d
00000100: aa64 7faf 37f8 77b4 e982 d7ba 31d7 21bc
00000110: aebf 36b9 b308 cf38 ec65 11b6 17a2 03b7
00000120: 3657 1334 436e dab9 948c d6bb 72e7 4eb8
00000130: 82c7 20b7 848c 273b 113c 81b9 c204 0000
00000140: e253 3cb1 dcbc 0139 f07a 40b4 1c24 0080
00000150: d196 8434 d08e d734 bc1f 0000 5853 72b0
00000160: 5002 8aba 0aa9 01b9 dc4f b9b8 dd51 2ab9
00000170: 9612 0080 5f27 0080 89b6 8db7 02b6 78af
00000180: 0046 0080 b8ba 7233 fd85 6d39 0605 37b8
00000190: 1510 0000 1330 0080 2ed4 c438 a8ae c9ba
000001a0: e12a 03ba e9f7 8937 e219 0000 e368 51ad
000001b0: ed65 8536 6bf5 71bb 2bbe be31 e2f2 e539
000001c0: bb85 49b8 c860 253b b244 0080 ee58 c4b0
000001d0: 523b 0000 4cf1 07bc 5cd9 5933 7e30 0080
000001e0: 6265 d5b5 e712 0000 ab28 0000 8c37 1eba
000001f0: 895a 0c3a 9894 68ba 4b24 78bb 334e 9039
00000200: 7a6e 9eba 9f7d b4b9 7c38 92ba 5d3c 91bb
00000210: 5953 8638 845f 6d35 55a6 09bc 5a2b cf37
00000220: e9dc 2ebb 4aa8 d6b7 428f 54ba 30b3 c3ba
00000230: fa66 00bb 33a5 0a3a 7c81 57bb 5c81 4e35
00000240: 3d95 37b8 4e9f 11bc 164b 9839 607f 833a
00000250: ee27 1b3b de3b a3b9 c207 01b5 fc87 c7ba
00000260: 2412 8d3b d273 39ba 66f7 3abb 2259 bb3b
00000270: 5504 7db9 a6b9 2436 6af9 b339 1407 d4b4
00000280: aac7 54b5 0dc2 b739 f002 98b7 3a10 93ba
00000290: 7822 20ba d35a 5b39 40d0 4ab6 8807 b0ba
000002a0: b13e 2d36 0e7c c0b9 c034 223b b018 9fba
000002b0: 724a b338 de25 41b9 5c32 03bc 9521 6b39
000002c0: e3e3 25bb ebee 6fbb 5199 003b e8e4 a03a
000002d0: fb1e ad37 10bd 82b8 d0a6 4cba 96de 5634
000002e0: 56ec 6c38 56f4 463b ed6d 9036 dafb f53a
000002f0: e6ba 57bc a212 3539 b7f5 8cba 24cc 043a
00000300: d218 07b7 8f3c ccb8 1612 f2bb e411 043c
00000310: 8458 90bb 6ffa cbbb a1d7 c5b9 041f 98ba
00000320: d463 17ba f082 273b a751 a63c 25c1 38ba
00000330: fd4d 11bb 76c8 a0bc 6f39 663a e818 0000
00000340: 6c32 e6b6 0cb8 a2bb 0c5e 2cba 021f 0000
00000350: 7798 b6b9 3b0c 42ba 7611 0000 f588 cab4
00000360: 5e56 63bc 159d d7b8 933f 03bb 5d8e 303a
00000370: 037c c114 8bdd bfad 6b09 52b9 dc8a f0b8
00000380: 6c4d 0000 1e21 02b8 7a29 faba 8525 4cb9
00000390: 5805 b8a6 530e 0080 5fd2 6ebb cb23 74bb
000003a0: 82eb 3e3b 5848 1abb 4338 0080 d813 0137
000003b0: 5800 19ba 3361 163c 7df0 e9b8 c9b5 74bb
000003c0: e5ca 3c3c 57ba 9fbc 9b0f 0000 1a3f 2ab7
000003d0: ec53 0080 f407 87bc b5cc 4eb7 8b46 0000
000003e0: aebb e03a b045 0000 9a1d 0000 4813 97bb
000003f0: 6997 81bb 4f65 abbb e6f9 93bc 2cf4 fdbb

cbam1.ChannelGate.mlp.1.bias f4 [4]
0.20911586 -1.3675726e-15 -0.007721584 1.6969723e-20
00000000: 7822 563e 8616 c5a6 5705 fdbb 4646 a01e

cbam1.ChannelGate.mlp.3.weight f4 [64, 4]
0.43295315 1.0646e-41 0.002678035 5.076e-42 -0.20329969 4.991e-42 -0.0002950971 1.2249e-41
-0.14193027 7.8284444e-36 -0.0022161137 7.155e-42 0.31137338 1.3936e-41 0.0014215608 -8.125e-42
0.06749288 -5.39e-42 3.3505795e-08 -7.337e-42 -0.002187333 -6.4687434e-24 -3.0877725e-06 -1.1285e-41
0.30625764 -8.629291e-19 -0.0005477739 -6.1536146e-36 0.41047028 1.7012e-41 0.0008330463 7.025e-42
0.3677936 -6.4479124e-31 0.0022627024 -1.2672e-41 -0.11168545 8.686532e-37 0.00011628214 2.001e-42
0.12839042 -3.227e-42 -0.0010164997 -9.079e-42 0.40828207 2.85484e-40 -0.00025424143 -1.3783e-41
0.3061833 -1.1356e-41 0.00049140636 2.786e-42 -0.11142631 -9.84e-42 0.0015303046 -8.652e-42
0.16942613 -2.5722213e-05 0.0009403416 -4.032729e-08 1.4610046e-05 -1.3729e-41 1.3481818e-08 1.3615e-41
0.09913032 2.7716e-41 -0.00045050707 2.767e-41 -0.20693423 -1.0758e-41 0.0014020388 6.142e-42
-0.04724273 -6.978e-42 -0.00082121603 2.583e-42 0.2141167 2.8428e-41 0.0011375685 1.2054e-41
0.1949372 2.442e-41 -0.00056195864 -1.9076e-41 0.278687 -4.401e-42 0.00041350003 -6.122e-42
1.1033341e-05 2.0851e-41 -3.7996067e-08 -6.0574e-41 -0.15565029 -6.383e-42 0.0007698085 1.32e-41
0.21736301 -8.009604e-14 0.00036911404 -1.6868728e-29 -0.12607013 -1.0525e-41 -4.520364e-05 -5.462e-42
-0.14679186 6.861e-42 -0.001690253 -6.237e-42 0.2802771 1.4030217e-17 0.0004232842 3.939975e-37
0.17381336 -9.146e-42 -0.0004721135 6.751e-42 -0.0052235504 -1.7619e-41 -7.2893823e-07 1.7228e-41
0.2519762 8.442013e-30 0.000623161 1.0695e-41 -3.426171e-05 2.108e-42 -8.092509e-08 1.4778e-41
1.9049393e-06 -9.247e-42 -3.310391e-08 -2.4028e-41 0.27029592 2.17e-43 -0.007320012 2.0731e-41
0.07569451 1.616003e-11 -1.6693753e-05 8.385651e-26 0.29294497 -1.3132e-41 0.002070111 -6.756e-42
0.3674451 2.8828e-41 0.00021362283 3.6466e-41 0.19366269 -3.5327e-41 0.00023381299 -1.4435e-41
0.007675971 -1.2158e-41 -1.8495949e-06 2.27e-42 -0.13043685 -2.2347013e-30 -0.00082092255 1.2717e-41
-0.0037807908 -1.7356063e-12 9.451553e-08 1.4636257e-26 -0.08573059 2.4413e-41 9.665027e-05 2.1936e-41
0.3880939 -1.43e-43 0.0002744093 -1.773e-42 0.4153098 -2.7718e-41 -0.0011833219 -2.5592e-41
-0.03694958 -3.305861e-09 -6.352995e-07 3.80559e-19 -0.08313156 1.2912e-41 -0.00014738315 -8.073e-42
0.42232308 2.4984e-41 -0.0032940346 2.5187e-41 0.25795403 -1.1215728e-21 -3.8360733e-05 -5.534029e-39
-0.10189845 -1.8550125e-05 0.00016305177 2.738892e-08 0.12915844 -2.8011675e-08 -0.0058164303 1.0554746e-15
0.43116295 2.4746e-41 0.00024209009 -6.426e-41 0.18284953 -3.29885e-27 -0.0012171624 -5.671e-42
-0.0063915323 1.2375e-41 -7.01868e-05 -9.333e-42 0.0996627 3.243644e-26 -0.0012355425 7.348e-42
0.3511963 1.7617e-41 0.0007323738 -2.3498e-41 -1.9052693e-05 -6.4733e-41 -1.3505267e-07 -1.4733e-41
0.029324377 3.907e-42 1.8474986e-05 1.3455e-41 0.21607994 1.2551e-41 -0.0066241734 2.7293e-41
3.5062978e-05 2.7792e-41 1.7026903e-07 9.3507e-41 0.15369058 1.3578072e-11 5.949765e-05 1.1658482e-23
-0.118320055 -3.401779e-38 -0.0021132797 6.91e-42 0.29886433 -6.105e-42 0.0014679921 3.187e-42
0.26170298 -7.790787e-05 0.0018245907 1.9145666e-08 0.3034974 -6.0812444e-33 0.00054836966 1.1938e-41
00000000: 09ac dd3e ad1d 0000 f981 2f3b 260e 0000
00000010: cb2d 50be ea0d 0000 43b7 9ab9 2522 0000
00000020: 2b56 11be 1b7e 2605 383c 11bb f213 0000
00000030: 556c 9f3e d926 0000 aa53 ba3a a616 0080
00000040: b539 8a3d 060f 0080 03e8 0f33 7414 0080
00000050: 5c59 0fbb 553f fa98 8737 4fb6 751f 0080
00000060: cdcd 9c3e 14b1 7ea1 7c98 0fba 77df 0285
00000070: 2929 d23e 6c2f 0000 ca60 5a3a 9513 0000
00000080: 714f bc3e 293f 518d d949 143b 5323 0080
00000090: 57bb e4bd 2fcb 9303 80dc f338 9405 0000
000000a0: c778 033e ff08 0080 123c 85ba 4f19 0080
000000b0: 590a d13e d01b 0300 b54b 85b9 6c26 0080
000000c0: 0fc4 9c3e a81f 0080 b9d1 003a c407 0000
000000d0: 7a33 e4bd 6e1b 0080 8094 c83a 1e18 0080
000000e0: 0b7e 2d3e 08c6 d7b7 4281 763a 5334 2db3
000000f0: ab1d 7537 4526 0080 aa9d 6732 f425 0000
00000100: d604 cb3d 434d 0000 0932 ecb9 224d 0000
00000110: 91e6 53be fd1d 0080 9ec4 b73a 1f11 0000
00000120: 9881 41bd 7413 0080 e046 57ba 3307 0000
00000130: 6941 5b3e 3f4f 0000 771a 953a 9a21 0000
00000140: 9e9d 473e 1344 0000 6850 13ba 2d35 0080
00000150: 10b0 8e3e 450c 0080 09cb d839 1111 0080
00000160: d71b 3937 203a 0000 1e31 23b3 dba8 0080
00000170: ca62 1fbe cb11 0080 f9cc 493a cc24 0000
00000180: 6994 5e3e 395c b4a9 a685 c139 b911 ab8f
00000190: 8718 01be 571d 0080 0a99 3db8 3a0f 0080
000001a0: 9b50 16be 2013 0000 7b8b ddba 6311 0080
000001b0: 7b80 8f3e ea67 8123 3eec dd39 0612 0603
000001c0: 21fc 313e 7f19 0080 0086 f7b9 d212 0000
000001d0: 512a abbb 1d31 0080 41ac 43b5 0630 0000
000001e0: 0603 813e 7039 2b0f a05b 233a d01d 0000
000001f0: 3bb4 0fb8 e005 0000 0ac9 adb3 3229 0000
00000200: 37ad ff35 c719 0080 222e 0eb3 fb42 0080
00000210: 3a64 8a3e 9b00 0000 b6dc efbb ca39 0000
00000220: b905 9b3d 2725 8e2d 9009 8cb7 619e cf15
00000230: e2fc 953e 9b24 0080 b3aa 073b d512 0080
00000240: c421 bc3e 5c50 0000 f1ff 5f39 a765 0000
00000250: 834f 463e 7a62 0080 b22b 7539 3d28 0080
00000260: b686 fb3b e421 0080 993f f8b5 5406 0000
00000270: 3d91 05be ee4c 358e 2e33 57ba 7323 0000
00000280: 25c7 77bb cf43 f4ab 76f8 ca33 52f3 9014
00000290: 8593 afbd 0e44 0000 b8b0 ca38 263d 0000
000002a0: 3eb4 c63e 6600 0080 98de 8f39 f104 0080
000002b0: 7ca3 d43e 444d 0080 b219 9bba 5747 0080
000002c0: 7158 17bd 522d 63b1 7389 2ab5 73a4 e020
000002d0: e140 aabd fe23 0000 dd8a 1ab9 8116 0080
000002e0: bb3a d83e a545 0000 bbe0 57bb 3646 0000
000002f0: 8d12 843e bf7c a99c 86e5 20b8 9f42 3c80
00000300: 22b0 d0bd 179c 9bb7 e0f8 2a39 df44 eb32
00000310: 1c42 043e 539e f0b2 c197 bebb 241c 9826
00000320: 64c1 dc3e fb44 0000 90d9 7d39 21b3 0080
00000330: e83c 3b3e 50ae 8293 3189 9fba cf0f 0080
00000340: 0f70 d1bb 7f22 0000 4031 93b8 041a 0080
00000350: f51b cc3d 139e 2015 edf1 a1ba 7c14 0000
00000360: 00d0 b33e 1c31 0000 c6fc 3f3a 8141 0080
00000370: 59d3 9fb7 73b4 0080 ff02 11b4 1229 0080
00000380: ad39 f03c e40a 0000 bbfa 9a37 8225 0000
00000390: 0f44 5d3e fd22 0000 980f d9bb 154c 0000
000003a0: 9610 1338 794d 0000 32d3 3634 a904 0100
000003b0: 1061 1d3e 33de 6e2d 1e8d 7938 0282 6119
000003c0: c951 f2bd e135 3981 f37e 0abb 4313 0000
000003d0: bf04 993e 0511 0080 a469 c03a e208 0000
000003e0: effd 853e 7862 a3b8 1b27 ef3a c475 a432
000003f0: 0364 9b3e e29a fc89 77c0 0f3a 4721 0000

cbam1.ChannelGate.mlp.3.bias f4 [64]
0.011755004 0.027513579 0.23120818 0.26360634 0.011261956 -0.0002856595 0.06756986 0.08932756
0.2921314 0.015271443 -0.022002233 0.10667599 0.04554113 0.13702442 -0.09617874 -1.0391266e-06
-0.005835003 0.30434564 0.1970497 0.034393504 0.05511114 0.025879266 3.0665277e-07 0.031604894
0.013262996 -0.0063832346 0.44232523 0.005894105 0.036384966 -0.00057421246 0.07683633 2.388194e-07
-1.1819006e-05 0.09097191 0.014541907 0.08214807 0.12782554 0.053224094 0.00019646798 0.29889637
-0.0004708038 -0.009748918 0.14936239 0.070635125 0.006844045 -0.1406733 0.07748349 0.0872793
-0.00468723 -0.28053406 -0.003529573 0.045752253 0.0012452162 0.01392414 0.060244415 -5.2157066e-06
3.4527424e-05 0.18953972 2.2810975e-06 0.053461835 0.1775105 -0.0070407847 0.114513606 -0.0074542053
00000000: 0f98 403c 2864 e13c d6c1 6c3e 69f7 863e
00000010: 1184 383c 92c4 95b9 1162 8a3d 5ef1 b63d
00000020: 3f92 953e 1335 7a3c 073e b4bc f178 da3d
00000030: 5689 3a3d 2150 0c3e 5cf9 c4bd 1e78 8bb5
00000040: 8e33 bfbb 31d3 9b3e 66c7 493e 34e0 0c3d
00000050: 38bc 613d c100 d43c 09a2 a434 2274 013d
00000060: 0a4d 593c 742a d1bb 7478 e23e 5623 c13b
00000070: 6708 153d bf86 16ba 5e5c 9d3d 1737 8034
00000080: 3f4a 46b7 7b4f ba3d 2e41 6e3c 3f3d a83d
00000090: b3e4 023e 8201 5a3d f902 4e39 f208 993e
000000a0: 37d6 f6b9 edb9 1fbc 74f2 183e 26a9 903d
000000b0: 0344 e03b a90c 10be aaaf 9e3d 7dbf b23d
000000c0: 5697 99bb 29a2 8fbe 6950 67bb b766 3b3d
000000d0: 8636 a33a 1322 643c d9c2 763d 9402 afb6
000000e0: 8ad1 1038 b316 423e f514 1936 ccfa 5a3d
000000f0: 50c5 353e 62b6 e6bb 1c86 ea3d 6842 f4bb

cbam1.SpatialGate.spatial.conv.weight f4 [1, 2, 7, 7]
5.4537e-41 -1.19941e-40 -8.5562e-41 0.63811153 -7.6781e-41 1.24634e-40 -3.3839e-41 3.1313e-41
-9.902e-41 -2.9705e-41 0.07044288 -0.0011614562 4.0118e-41 3.8669e-40 -4.4316e-41 -9.5105e-41
-5.3207e-41 -0.11033945 9.436e-41 -8.8531e-41 -1.6115e-41 -9.0608e-41 -9.4366e-41 -1.88032e-40
-0.1055148 -3.512223e-10 4.9314e-41 6.795e-42 1.19402e-40 4.0846e-41 -2.08145e-40 0.013117726
8.3246e-41 -6.5378e-41 -1.11322e-40 1.28788e-40 -1.45194e-40 3.9239e-41 0.16775095 -4.1689e-41
-2.0751e-40 6.7043797e-09 -2.7992206e-08 -5.1449e-41 1.55113e-40 0.4085389 1.00945e-40 -9.7034e-41
-1.36168e-40 -1.16156e-40 7.4223e-41 -6.6557e-41 0.14569736 5.7432e-41 -7.9945e-41 2.9657e-41
-5.9334e-41 -1.41867e-40 2.9188007e-14 0.010111876 8.5423e-41 1.57474e-40 7.1011e-41 2.4513e-41
3.272e-41 -1.67618e-40 0.33498648 -5.0411273e-07 7.758e-41 -3.5338e-41 -7.0099e-41 -4.0954e-41
-2.6273e-41 0.12513633 1.7791e-41 -1.27088e-40 -2.6884e-41 3.6263e-41 9.5577e-41 -6.886674e-15
-0.05344257 8.7654e-41 7.3308e-41 2.3542e-41 1.2365312e-10 5.8978e-41 -7.9783e-41 0.10922786
-8.2836e-41 9.4484e-41 -8.3027e-41 1.2083333e-22 -4.452e-41 -1.08919e-40 -0.0018862745 1.818235e-15
1.85184e-40 -1.21537e-40
00000000: 0798 0000 594e 0180 83ee 0080 475b 233f
00000010: 09d6 0080 6e5b 0100 545e 0080 4a57 0000
00000020: 0714 0180 ce52 0080 5b44 903d 013c 98ba
00000030: d56f 0000 ef35 0400 897b 0080 1d09 0180
00000040: 5294 0080 a6f9 e1bd 0a07 0100 caf6 0080
00000050: ec2c 0080 94fc 0080 0e07 0180 280c 0280
00000060: 2518 d8bd 2516 c1af 7889 0000 f112 0000
00000070: d84c 0100 dd71 0000 3944 0280 bbeb 563c
00000080: 0ee8 0000 3fb6 0080 5236 0180 0267 0100
00000090: be94 0180 626d 0000 e8c6 2b3e 3674 0080
000000a0: 7442 0280 595c e631 8373 f0b2 6b8f 0080
000000b0: 64b0 0100 032c d13e 6519 0100 7e0e 0180
000000c0: 957b 0180 cc43 0180 e7ce 0000 89b9 0080
000000d0: b031 153e 19a0 0000 dbde 0080 ac52 0000
000000e0: 66a5 0080 788b 0180 7b73 0329 48ac 253c
000000f0: 20ee 0000 f9b6 0100 f3c5 0000 5544 0000
00000100: 365b 0000 40d3 0180 5983 ab3e 5d52 07b5
00000110: 43d8 0000 8262 0080 68c3 0080 2a72 0080
00000120: 3d49 0080 bd23 003e 9831 0000 4562 0180
00000130: f14a 0080 1665 0000 6e0a 0100 5b1e f8a7
00000140: 99e6 5abd 58f4 0000 5acc 0000 a041 0000
00000150: 42f5 072f 68a4 0000 67de 0080 dbb2 df3d
00000160: eae6 0080 6207 0100 72e7 0080 1b14 121b
00000170: 1b7c 0080 9f2f 0180 df3c f7ba 8404 0327
00000180: 3804 0200 cc52 0180

conv2Db.weight f4 [128, 64, 2, 1]
-0.28358096 0.19271354 0.010509861 -0.06639293 0.045345627 -0.032909047 0.08969112 -0.27213383
0.004635975 0.02072399 -1.861617e-05 0.00051194604 0.12417836 -0.07869435 -0.09176412 -0.007936813
-0.14142936 0.17896275 -0.014657184 0.014235833 -0.06593887 -0.02230074 0.029879732 -0.01708374
0.09101325 0.17071855 -0.047808535 0.034170743 -0.04221994 -0.018859819 2.7839924e-05 -1.3598677e-05
-0.069182225 0.01721921 0.025383139 -0.10717449 -0.001895589 -0.011076629 -0.025682788 0.04581183
-0.1378053 0.016237423 -0.03795349 0.07616964 -2.1312047e-05 5.121639e-06 -0.031449996 -0.01716797
0.04571191 0.016342936 0.0007486443 -0.008912922 -0.017800706 0.06771783 0.09133118 -0.0043144915
0.0061889063 0.12605004 -0.0032458121 0.0012307941 -0.009447232 0.016009774 -3.8026315e-07 -0.00016072244
0.00015767328 -0.00011673599 0.1964546 -0.09472682 -0.009800974 0.00071590644 -0.08111772 0.032832507
-0.07400326 0.23758984 0.017071275 0.07611232 0.00014270376 0.0043092985 0.006712666 0.0033169545
-2.6189242e-05 0.0009794912 0.0011777714 -0.0074428953 -0.10589627 0.038816866 -0.22911091 0.2315635
0.0008774579 0.0003409843 0.0008918929 -0.005032572 0.022289526 -0.118688606 -0.10290516 0.058538973
0.0011555322 -0.009275495 -0.0497945 -0.22418864 -0.0043172436 0.22187172 0.008720708 0.045940235
-0.005196794 -0.00049090857 -0.02251472 -0.040666927 0.002632166 0.15520324 8.758203e-05 -9.5789015e-05
-0.022589466 0.0029960065 0.080035694 -0.062499166 -7.819657e-06 -2.5198837e-05 0.016623806 0.050162464
0.04231747 0.016769283 -0.0080520855 0.072758876 0.016651526 0.15284497 -0.050309293 0.08211904
-8.28799e-05 -8.8050634e-05 -1.6331966e-05 -3.2600874e-05 -0.00012918298 -0.0002514234 -0.0011712853 -0.0009633359
-1.3479023e-06 1.09872035e-05 -1.3049332e-08 1.271416e-06 -0.00031825042 -0.00052031374 7.6707605e-05 -5.745862e-05
-0.00027491004 -0.00021270728 -1.6880027e-05 -2.3910286e-05 5.1269875e-05 4.6630594e-06 4.7216137e-05 6.978666e-06
-0.00035224116 -0.00081823865 -6.192452e-05 -5.154707e-05 0.00014561535 -0.00027111353 2.7878184e-09 2.9591325e-08
6.7650784e-05 -5.5095024e-06 -0.00014325962 -5.5013566e-05 1.8467803e-05 -2.6384403e-05 0.0001393922 -0.00013927517
-6.452979e-05 -6.588035e-05 -0.00035942905 -0.0003593219 -1.135501e-08 1.00445305e-08 -1.7212406e-05 -2.2005002e-05
-2.1666401e-05 -8.483549e-06 8.055749e-06 1.9360143e-06 -0.00020019463 4.686115e-05 -0.00067280565 1.2479952e-05
0.00030174037 4.083906e-05 4.4592816e-06 -1.330565e-07 0.00017805016 3.92613e-05 -2.4257798e-08 -5.038526e-08
4.447028e-08 4.3366562e-08 -0.0012831094 -0.0007454519 3.642863e-07 -0.00010929007 -0.0004607356 -0.0007910481
7.961772e-06 7.274577e-06 -8.44076e-06 2.7904343e-05 -3.398343e-08 -1.1272382e-06 -8.345644e-05 -0.00018449209
-5.5748494e-08 1.2256122e-06 1.2879361e-05 3.457137e-06 0.00022547737 2.2678347e-05 -0.00017612119 -2.3008048e-05
6.9880343e-07 4.7514486e-06 -1.4691215e-05 -2.9618466e-05 -0.00048200903 -0.00014294594 -0.00011790967 -8.563796e-05
3.2705386e-06 -4.144232e-05 -0.00050344336 -0.0008091283 5.4904835e-06 -5.3715474e-05 4.513555e-05 9.1485526e-05
6.3105193e-07 4.237902e-06 1.5048306e-05 -7.88532e-05 2.3956381e-05 1.7226106e-06 1.2279288e-06 -1.0471825e-06
3.5032442e-06 -6.7812294e-08 8.7616696e-05 2.073013e-05 7.31281e-08 1.10029944e-07 0.00010186355 -0.00014145103
-0.00015318357 -0.000107587686 -0.0005954273 -0.00018701969 -0.0009657914 -0.0024674553 -4.311966e-05 3.2293105e-05
00000000: 8631 91be b356 453e 8d31 2c3c 04f9 87bd
00000010: 56bc 393d a3cb 06bd faaf b73d 2055 8bbe
00000020: 61e9 973b 5bc5 a93c ec29 9cb7 1e34 063a
00000030: 3951 fe3d 812a a1bd d4ee bbbd 6809 02bc
00000040: dcd2 10be 0342 373e af24 70bc 693d 693c
00000050: f50a 87bd 0bb0 b6bc 57c6 f43c 33f3 8bbc
00000060: 2865 ba3d d8d0 2e3e e2d2 43bd 9ff6 0b3d
00000070: d1ee 2cbd e87f 9abc c889 e937 df25 64b7
00000080: 69af 8dbd 4d0f 8d3c 4df0 cf3c 4d7e dbbd
00000090: 6a75 f8ba c07a 35bc b664 d2bc 2fa5 3b3d
000000a0: d51c 0dbe 5804 853c 1e75 1bbd d4fe 9b3d
000000b0: 46c7 b2b7 8bda ab36 b6d1 00bd d8a3 8cbc
000000c0: 693c 3b3d 9fe1 853c ab40 443a 8107 12bc
000000d0: c9d2 91bc a5af 8a3d d70b bb3d 9460 8dbb
000000e0: 4fcc ca3b 4313 013e b1b7 54bb 9952 a13a
000000f0: 90c8 1abc ee26 833c f826 ccb4 9a87 28b9
00000100: 1955 2539 28d0 f4b8 652b 493e 2300 c2bd
00000110: 4494 20bc abab 3b3a 0c21 a6bd 617b 063d
00000120: 058f 97bd c04a 733e 0fd9 8b3c c7e0 9b3d
00000130: c0a2 1539 0435 8d3b ecf5 db3b 4361 593b
00000140: f8b0 dbb7 4562 803a 735f 9a3a 88e3 f3bb
00000150: 25e0 d8bd 6ffe 1e3d 0d9c 6abe fb1e 6d3e
00000160: 3405 663a 23c6 b239 ebcd 693a 46e8 a4bb
00000170: 8698 b63c 0313 f3bd f1bf d2bd 90c6 6f3d
00000180: 3a75 973a 3ff8 17bc 51f5 4bbd b591 65be
00000190: aa77 8dbb 5732 633e 4de1 0e3c d42b 3c3d
000001a0: de49 aabb 51b0 00ba ca70 b8bc 5d92 26bd
000001b0: 6b80 2c3b 99ed 1e3e 3fac b738 56e2 c8b8
000001c0: 8b0d b9bc a658 443b c1e9 a33d 20ff 7fbd
000001d0: 2c31 03b7 1762 d3b7 a62e 883c 2877 4d3d
000001e0: 1555 2d3d bc5f 893c e5ec 03bc 9b02 953d
000001f0: c868 883c 6483 1c3e 1e11 4ebd 072e a83d
00000200: cfcf adb8 d3a7 b8b8 a100 89b7 ecbc 08b8
00000210: 4b75 07b9 7ad1 83b9 d085 99ba 6188 7cba
00000220: 92e9 b4b5 ae55 3837 922f 60b2 85a5 aa35
00000230: d9da a6b9 aa65 08ba 15de a038 b9ff 70b8
00000240: cd21 90b9 2d0a 5fb9 9599 8db7 f392 c8b7
00000250: 9c0a 5738 6077 9c36 f109 4638 492a ea36
00000260: 02ad b8b9 117f 56ba 79dd 81b8 3f34 58b8
00000270: 53b0 1839 3e24 8eb9 d293 3f31 0330 fe32
00000280: bddf 8d38 44de b8b6 f637 16b9 5ebe 66b8
00000290: 4eeb 9a37 1354 ddb7 cf29 1239 650a 12b9
000002a0: 2b54 87b8 3e29 8ab8 c071 bcb9 5e63 bcb9
000002b0: dd13 43b2 5090 2c32 5c63 90b7 6297 b8b7
000002c0: 3ec0 b5b7 9154 0eb7 2e27 0737 79ec 0136
000002d0: 56eb 51b9 c78c 4438 395f 30ba fc60 5137
000002e0: e832 9e39 9b4a 2b38 f0a0 9536 4bde 0eb4
000002f0: fab2 3a39 80ac 2438 765f d0b2 2e67 58b3
00000300: 97ff 3e33 0a42 3a33 022e a8ba 6e6a 43ba
00000310: 2193 c334 a932 e5b8 e38e f1b9 575e 4fba
00000320: 8d93 0537 2418 f436 ca9c 0db7 1f14 ea37
00000330: 2df5 11b3 9c4b 97b5 5605 afb8 3874 41b9
00000340: 1e70 6fb3 b77f a435 6f14 5837 2901 6836
00000350: 1f6e 6c39 613d be37 2cad 38b9 6801 c1b7
00000360: 6895 3b35 a26e 9f36 4a7a 76b7 2c75 f8b7
00000370: 28b6 fcb9 c2e3 15b9 4646 f7b8 8898 b3b8
00000380: 6d7b 5b36 5ad2 2db8 83f9 03ba ae1b 54ba
00000390: e53a b836 8d4c 61b8 ee4f 3d38 ebdb bf38
000003a0: 8f65 2935 4d33 8e36 fb77 7c37 fd5d a5b8
000003b0: f0f5 c837 7334 e735 50cf a435 eb8c 8cb5
000003c0: 4719 6b36 34a0 91b3 dbbe b738 9de5 ad37
000003d0: 990a 9d33 9a49 ec33 949f d538 7952 14b9
000003e0: e79f 20b9 b3a0 e1b8 7316 1cba b71a 44b9
000003f0: 2a2d 7dba 08b5 21bb 62db 34b8 7572 0738

conv2Db.bias f4 [128]
0.0462381 0.0018426825 -0.04780343 -0.0055281254 -0.0056860577 -0.0048410185 -0.027103448 -0.0037228751
-0.002535647 0.061530802 -0.00016293346 0.08436752 -0.0065970207 -0.0004254314 0.03375184 -0.000712677
-0.005041338 -0.0013397824 -0.027767844 0.27837715 0.0668048 -0.044644255 -0.032616336 -0.0014365917
0.11483602 0.06020995 -0.00054032606 0.043217774 -0.0101595605 -0.0039304495 -0.0028656216 -0.00043292527
0.025094993 -0.04061312 -0.056065634 0.17365715 -0.006568018 -0.0160294 0.29232487 0.023975061
0.012829301 0.28641948 0.003728912 -0.008367597 0.055505924 -0.0022824497 -0.03659191 -0.01665502
0.00072070985 -0.008965683 0.122855574 0.1412307 0.0058686733 -0.016353635 -0.0018675238 -0.010244071
-0.000156557 -0.06989866 -0.0011274954 -0.030753933 -0.00072711083 -0.0034929928 0.010206449 -0.00041553815
-0.10773181 -0.00057486905 -0.011418493 -0.0009407938 -0.0074454807 -0.012177474 -0.00029262895 -0.00018336154
-0.031415142 -0.095858805 0.033830985 -0.025683748 0.06356114 0.040591262 -0.07012407 0.08542733
0.005203195 -0.006571553 -0.16970177 -0.00036868965 -0.11084665 -0.0013716103 -0.001238501 0.07834041
-0.0034067472 0.06761566 -0.024587054 -0.00062210637 0.2019512 0.0006628511 0.22809072 -0.013119575
-0.14118537 -0.0057965196 0.045193903 0.0009587278 -0.015588202 0.39787906 -0.16854765 -0.022238124
-0.07147868 -0.028752036 -0.0005006337 0.0637049 -0.0010836468 -0.003597827 0.103296004 -0.022759162
-0.09150881 -0.005385061 -0.006051835 0.23968434 -0.00065622665 -0.024618836 0.08666315 0.37510908
-0.056682598 0.14210546 -0.041834775 -0.04627769 0.14555918 0.045952275 -0.005089478 -0.1516734
00000000: 2964 3d3d 2a86 f13a 88cd 43bd 4725 b5bb
00000010: 1c52 babb 68a1 9ebb 0d08 debc 7bfb 73bb
00000020: 192d 26bb b907 7c3d 1ed9 2ab9 e1c8 ac3d
00000030: d22b d8bb 700c dfb9 5f3f 0a3d f2d2 3aba
00000040: cf31 a5bb a39b afba 6479 e3bc 7387 8e3e
00000050: f4d0 883d e5dc 36bd b598 05bd 054c bcba
00000060: 262f eb3d b59e 763d aba4 0dba 1f05 313d
00000070: 4974 26bc 00cb 80bb 27cd 3bbb 3ffa e2b9
00000080: 0494 cd3c f159 26bd 14a5 65bd 2ed3 313e
00000090: 8738 d7bb 1750 83bc 9bab 953e 5967 c43c
000000a0: fd31 523c 93a5 923e c360 743b 3f18 09bc
000000b0: 2e5a 633d 2795 15bb 66e1 15bd 1c70 88bc
000000c0: 05ee 3c3a cde4 12bc b49b fb3d c89e 103e
000000d0: 004e c03b 0ff8 85bc b3c7 f4ba bfd6 27bc
000000e0: 7329 24b9 0727 8fbd 78c8 93ba acef fbbc
000000f0: 959b 3eba b2ea 64bb f338 273c 96dc d9b9
00000100: 7fa2 dcbd cfb2 16ba a214 3bbc 9a9f 76ba
00000110: 38f9 f3bb 0784 47bc fe6b 99b9 bd44 40b9
00000120: 2aad 00bd 9f51 c4bd 5c92 0a3d b966 d2bc
00000130: 582c 823d 0643 263d 359d 8fbd 86f4 ae3d
00000140: 907f aa3b 2f56 d7bb 4dc6 2dbe b04c c1b9
00000150: 9203 e3bd 9bc7 b3ba 3355 a2ba f070 a03d
00000160: bc43 5fbb 147a 8a3d ca6a c9bc da14 23ba
00000170: 4ccc 4e3e 2fc3 2d3a 9d90 693e 7cf3 56bc
00000180: e692 10be bbf0 bdbb 3e1d 393d 2253 7b3a
00000190: a865 7fbc ceb6 cb3e c197 2cbe ba2c b6bc
000001a0: 6a63 92bd 6489 ebbc f53c 03ba b777 823d
000001b0: 2709 8eba 85c9 6bbb db8c d33d 6c71 babc
000001c0: f968 bbbd 2a75 b0bb 794e c6bb d06f 753e
000001d0: a006 2cba 71ad c9bc 737c b13d 4c0e c03e
000001e0: 032c 68bd 1884 113e f15a 2bbd ad8d 3dbd
000001f0: 770d 153e 7438 3c3d a3c5 a6bb 4650 1bbe

cbam2.ChannelGate.mlp.1.weight f4 [8, 128]
-1.3420632e-08 6.5426397e-12 5.5245464e-10 -2.3115636e-09 2.5704616e-11 4.7533258e-12 3.0054587e-11 -4.839811e-10
-9.995732e-11 -1.6070883e-08 5.079885e-12 -3.2501116e-08 2.1997416e-11 9.382634e-13 -4.292036e-08 1.2333973e-12
-1.0347629e-10 5.6032907e-11 -3.1310426e-10 -9.5774325e-08 -3.2378853e-08 -2.5291665e-11 -9.2047514e-08 1.7478725e-12
-4.8976467e-08 -2.9015228e-08 7.424791e-12 -5.303562e-09 6.7746274e-11 -4.2369439e-10 -1.9498363e-12 -9.974773e-12
-3.9289073e-08 -1.3957166e-08 -1.095679e-09 -1.9723318e-08 8.107606e-11 -7.068737e-11 -2.3183027e-09 -1.7770086e-08
-6.781842e-08 -6.666429e-08 -2.906311e-09 -4.703545e-10 -7.0597354e-11 2.2151126e-12 -2.8119725e-08 -2.1057534e-08
-3.7416917e-10 -4.6134737e-08 -4.5336616e-08 -3.9649322e-08 -1.1393009e-07 1.2022205e-11 2.5315527e-10 -9.46341e-12
-2.6544884e-11 -8.443337e-08 -1.9100425e-10 2.981615e-11 5.963099e-12 -1.8414251e-11 -5.424541e-10 6.1530637e-12
-3.427515e-08 2.150439e-11 -2.1724713e-09 -8.492118e-11 4.0051643e-11 3.010525e-11 1.1110103e-12 -3.2562236e-12
-3.3294864e-10 -8.420907e-09 -5.0236444e-08 9.312428e-12 -2.6259517e-09 -6.81027e-08 -1.1465352e-08 -7.1203456e-09
-1.5771752e-09 -1.854871e-10 -5.526119e-08 1.8033845e-12 5.8833303e-09 -5.169094e-11 1.4641413e-11 -4.6204356e-09
-9.201903e-11 -3.1179862e-08 -2.3958777e-09 1.126335e-10 -8.1369265e-08 -9.8515654e-11 -5.6489363e-08 4.734946e-11
-2.6440777e-08 7.599981e-10 -8.38681e-09 -1.810426e-08 -2.9119263e-11 1.1355997e-08 -2.5184332e-09 -2.5592657e-08
8.9227306e-11 -1.6800636e-11 4.2047574e-11 -2.5594712e-10 7.1679156e-12 -3.072194e-11 -1.4269591e-07 1.7081214e-10
-2.7140382e-08 1.0140059e-11 7.1880154e-12 4.3007383e-08 3.8218677e-12 -1.563708e-10 -1.669214e-09 -4.0768356e-08
-5.44974e-08 -3.8442796e-08 4.888208e-09 3.9726014e-08 -7.872151e-08 -2.9933084e-08 2.2128886e-10 -6.270506e-09
6.4607065e-07 -1.9097045e-10 -7.8423015e-12 1.6354174e-07 -1.718092e-09 -6.4669405e-07 1.4042667e-10 1.7107421e-10
-7.104569e-11 -2.1149456e-08 -1.3337688e-12 1.5422694e-07 -5.7223343e-07 5.7440015e-11 2.2108653e-08 -1.7674846e-12
3.6408456e-09 -5.6817755e-11 6.054699e-10 -5.712888e-07 -1.0412546e-06 3.4685692e-09 -5.4101026e-08 -9.883385e-11
-1.5982158e-06 3.363962e-08 -3.568477e-11 -1.7845554e-08 1.4244996e-12 -7.745525e-12 -2.7865635e-11 -4.8330874e-11
2.8507692e-09 -7.3050603e-07 -2.5525605e-08 -5.904986e-07 1.0392068e-08 1.6302733e-11 -2.7179472e-06 -5.411561e-05
-2.1035544e-06 -3.3225824e-06 2.592348e-08 5.728133e-12 -4.2389978e-08 -2.4055348e-06 6.00088e-07 -1.2031694e-06
5.236055e-10 -1.0893954e-06 -1.7058763e-06 2.8505467e-06 -7.135756e-07 1.6260885e-09 -5.4414587e-11 -8.727926e-12
2.475127e-10 -2.2977841e-07 8.1070445e-10 -1.5801804e-06 3.7463713e-10 -3.7059947e-10 -2.8973635e-09 1.08041756e-10
-3.8900458e-07 -1.885333e-09 1.1035057e-08 5.870404e-12 -2.837839e-09 2.865969e-10 2.7415223e-11 4.0136514e-12
-2.788852e-09 -6.8376485e-11 -5.5239616e-05 2.0224897e-10 -1.6853011e-06 3.571899e-07 1.1250763e-07 -1.1101711e-06
4.286134e-09 -9.34981e-11 -1.5427428e-06 -9.748642e-07 -5.689162e-10 2.2446937e-11 1.5925988e-08 -2.0137574e-07
8.423277e-12 -6.257856e-07 -1.099769e-08 4.0857474e-11 5.403455e-07 7.086957e-10 1.9314953e-06 3.7850922e-09
1.8237063e-07 -7.02613e-09 1.5966886e-07 -7.4866335e-09 -6.4798957e-09 1.0695214e-07 -5.1347433e-09 -1.753005e-06
2.591961e-11 -1.7948658e-08 -1.5538566e-10 1.6525226e-07 -6.013392e-06 -1.0883466e-09 -8.2126905e-07 8.967196e-09
2.4320036e-07 8.546304e-12 2.5795233e-10 2.0322176e-07 2.2221809e-09 -1.1785387e-09 -1.9595792e-09 -9.941809e-06
8.877056e-07 1.4598444e-07 -7.1651215e-08 -8.802951e-09 -4.933138e-07 1.5945464e-08 -3.817989e-10 -4.1013033e-11
00000000: 9090 66b2 dc32 e62c 8adb 1730 75d9 1eb1
00000010: a619 e22d 273e a72c 752e 042e 2409 05b0
00000020: f8ce dbae 3f0c 8ab2 89bb b22c 5b97 0bb3
00000030: c77d c12d 800c 842b 6f57 38b3 d295 ad2b
00000040: f98b e3ae 726f 762e 8221 acaf 7eac cdb3
00000050: ed10 0bb3 c477 dead a8ab c5b3 befd f52b
00000060: 325a 52b3 293d f9b2 499e 022d a03a b6b1
00000070: c3f9 942e afed e8af 2135 09ac 627a 2fad
00000080: cbbe 28b3 44c8 6fb2 c796 96b0 096c a9b2
00000090: c449 b22e 7471 9bae 0350 1fb1 d5a4 98b2
000000a0: 92a3 91b3 1529 8fb3 5db8 47b1 414a 01b0
000000b0: c73e 9bae ecdf 1b2c ee8b f1b2 02e2 b4b2
000000c0: a1b3 cdaf ae25 46b3 23b8 42b3 e44a 2ab3
000000d0: bba9 f4b3 337f 532d 702c 8b2f 697b 26ad
000000e0: c47d e9ad bc51 b5b3 eb02 52af 0022 032e
000000f0: d2ce d12c 35f9 a1ad d01b 15b0 df7d d82c
00000100: ed35 13b3 9527 bd2d 854a 15b1 60be baae
00000110: 2426 302e 8067 042e 5d5c 9c2b e922 65ac
00000120: 5b0a b7af 8aab 10b2 8ec3 57b3 73d3 232d
00000130: 3b74 34b1 db3f 92b3 27f9 44b2 39a7 f4b1
00000140: ebc3 d8b0 faf1 4baf 5258 6db3 c6cd fd2b
00000150: 5226 ca31 d356 63ae 88c9 802d c8c1 9eb1
00000160: 1c5a caae 9fea 05b3 baa4 24b1 06af f72e
00000170: 3abd aeb3 62a3 d8ae b69e 72b3 c13e 502e
00000180: e21f e3b2 1de8 5030 9515 10b2 b083 9bb2
00000190: 6011 00ae 3418 4332 bf10 2db1 d9d6 dbb2
000001a0: 8236 c42e abc7 93ad 5ced 382e 5bb5 8caf
000001b0: d832 fc2c d41d 07ae f437 19b4 58cf 3b2f
000001c0: 5522 e9b2 c462 322d e3e7 fc2c 1eb7 3833
000001d0: 5378 862c 78ee 2baf 3f6a e5b0 4819 2fb3
000001e0: 8610 6ab3 4d1c 25b3 22f5 a731 379f 2a33
000001f0: 9c0d a9b3 c68f 00b3 474f 732f f473 d7b1
00000200: a36d 2d35 67f9 51af 96f6 09ad 039a 2f34
00000210: fd21 ecb0 7a98 2db5 9866 1a2f 1c19 3c2f
00000220: 2b3b 9cae 25ac b5b2 16b6 bbab 9499 2534
00000230: 959b 19b5 b59f 7c2e 71e9 bd32 58c0 f8ab
00000240: 6f32 7a31 1be3 79ae 286e 2630 ab5a 19b5
00000250: 3cc1 8bb5 b75b 6e31 b55c 68b3 8356 d9ae
00000260: 4782 d6b5 277b 1033 7bf1 1cae ca4a 99b2
00000270: 027b c82b be42 08ad d51b f5ad ba8f 54ae
00000280: 43e7 4331 fe17 44b5 6643 dbb2 c182 1eb5
00000290: cc88 3232 7e66 8f2d fa65 36b6 32fa 62b8
000002a0: ca2a 0db6 88f9 5eb6 56ae de32 6f8a c92c
000002b0: 4610 36b3 c66e 21b6 bc15 2135 967c a1b5
000002c0: 76ed 0f30 5737 92b5 77f5 e4b5 054c 3f36
000002d0: 8b8c 3fb5 e77c df30 6151 6fae 168b 19ad
000002e0: 5112 882f 02b9 76b4 41d8 5e30 9616 d4b5
000002f0: 7df5 cd2f 3dbd cbaf f51a 47b1 1a96 ed2e
00000300: 62d8 d0b4 218f 01b1 b294 3d32 e68b ce2c
00000310: cb03 43b1 ee8e 9d2f 9825 f12d c237 8d2c
00000320: 01a6 3fb1 8a5c 96ae 16b1 67b8 0660 5e2f
00000330: 8132 e2b5 cec3 bf34 b99b f133 3001 95b5
00000340: 3c45 9331 c09a cdae 3d10 cfb5 14d8 82b5
00000350: eb61 1cb0 0272 c52d 9ecd 8832 be39 58b4
00000360: 112f 142d a9fb 27b5 5af0 3cb2 6db1 332e
00000370: 430c 1135 07ce 4230 d69e 0136 060e 8231
00000380: a8d1 4334 7e6a f1b1 7171 2b34 909e 00b2
00000390: c4a5 deb1 90ad e533 ae6d b0b1 cb48 ebb5
000003a0: c6fd e32d 842d 9ab2 2dd9 2aaf 3270 3134
000003b0: a5c6 c9b6 cb94 95b0 2e75 5cb5 250e 1a32
000003c0: 3491 8234 2259 162d 90cf 8d2f 2c35 5a34
000003d0: 05b5 1831 25fa a1b0 48a9 06b1 bfcb 26b7
000003e0: aa4a 6e35 e6bf 1c34 acde 99b3 ca3b 17b2
000003f0: 446c 04b5 72f8 8832 6be5 d1af 9260 34ae

cbam2.ChannelGate.mlp.1.bias f4 [8]
-3.587043e-08 -1.4370929e-06 -0.036753237 -1.6388924e-07 -0.15014367 -1.5912337e-05 -1.3157786e-10 -1.9507684e-06
00000000: f40f 1ab3 23e2 c0b5 908a 16bd 88f9 2fb4
00000010: 43bf 19be 7c7b 85b7 e0ab 10af f2e9 02b6

cbam2.ChannelGate.mlp.3.weight f4 [128, 8]
-1.33522295e-08 4.1798216e-08 0.27767742 8.784609e-08 -0.038467444 6.5420323e-07 9.091199e-11 2.004783e-13
2.0482501e-13 2.2710815e-12 -0.00012901763 -1.334496e-13 -2.5340876e-07 -1.9414724e-10 -3.564447e-17 -6.45757e-13
1.0735043e-11 -1.817507e-13 -0.0044478234 5.3415583e-09 0.00025676866 -4.160096e-09 -3.555658e-13 2.0395626e-19
-1.8317865e-10 5.1876317e-09 -0.10224381 4.6608557e-09 -0.001729375 2.3287399e-08 1.1017572e-12 -8.029408e-15
-1.3866203e-12 -5.0587184e-11 -0.021972688 7.932403e-14 -5.083223e-06 3.7984027e-10 -4.451265e-15 2.3689138e-17
2.8735548e-13 -2.8764765e-13 -0.005102804 1.1921836e-14 -2.9160012e-07 -1.8995833e-11 -1.204437e-16 1.8830727e-18
1.201373e-11 -3.5803712e-12 0.012957914 -2.4269892e-12 -2.4535064e-05 -4.703802e-10 -8.570648e-15 2.7084442e-16
-7.43157e-12 -8.8172075e-13 -0.00044413787 -3.6630217e-12 1.2397997e-05 -1.4843725e-09 -1.7012716e-15 1.650769e-19
1.2295087e-12 -4.5045426e-14 -2.6535605e-05 6.412265e-13 -5.6524723e-06 1.7609751e-09 -9.1572686e-17 8.164592e-19
-4.498798e-09 9.6991e-10 0.12849669 2.3973632e-09 -0.021932136 -2.6196003e-06 -2.6318956e-11 1.1994622e-14
2.8432705e-05 -8.992013e-14 -0.0011990007 -5.665228e-14 1.477783e-07 -5.5513957e-12 -1.1035917e-17 1.2168318e-18
-3.2875228e-08 1.0708508e-07 0.42692447 2.8690605e-08 -0.06678145 3.776298e-06 5.2136177e-12 -3.6506734e-14
3.1641318e-13 1.3402882e-10 -0.0011425966 -5.554078e-12 8.78117e-07 4.268118e-11 -1.2270428e-15 2.3581257e-17
1.1102458e-15 -3.2979167e-14 -5.3749136e-07 5.7769416e-14 -9.015006e-08 1.4297908e-11 1.0305449e-16 3.1624022e-19
-1.1371048e-08 -4.1665524e-09 0.34693462 4.4674207e-09 0.034008756 1.5808376e-06 -9.621051e-12 -4.465129e-14
4.4013465e-14 1.1919458e-13 -4.1034105e-05 -1.3388809e-13 2.6042496e-08 2.664509e-13 -1.6324876e-17 -7.8902003e-19
2.1619147e-12 -2.4011845e-10 0.00015288121 7.2656776e-11 3.2749201e-06 -8.974728e-10 6.086038e-16 -4.837213e-16
-1.2694312e-09 1.2809976e-13 -3.725324e-06 5.3480945e-14 4.39536e-06 -3.8554962e-12 -1.3188894e-15 -1.1931352e-18
-1.8686082e-11 7.8600375e-13 2.8598737e-05 1.2350368e-10 -0.0007135941 2.1061066e-09 -7.389534e-16 2.6377502e-19
-7.2018864e-08 -2.97307e-07 0.39312473 -3.1773684e-08 -0.014445547 -3.8837578e-07 -6.929675e-11 -2.3567003e-14
-1.2268929e-08 -7.08285e-09 0.3564936 -2.0956772e-09 0.060505938 -4.766914e-07 -5.869937e-12 2.9467033e-14
9.41819e-12 -1.411695e-10 0.0032956237 4.4613277e-10 4.62612e-05 1.1576802e-09 4.080861e-15 2.3291007e-19
-3.2744506e-08 -1.1668389e-07 0.31329957 -1.4978461e-08 0.073657185 -2.3420823e-06 4.4625085e-12 1.2821542e-13
7.0121094e-14 1.4411306e-13 -6.1310566e-06 1.3942748e-13 -1.2575256e-06 -6.294719e-12 -4.106034e-17 -3.4221063e-20
5.4672064e-08 1.4338605e-07 0.27585927 3.4851404e-08 0.098177314 -7.7084735e-07 -5.4220586e-11 1.5868837e-08
1.9324652e-08 5.8714242e-08 0.19838065 2.1222583e-08 0.052531604 7.055668e-07 -8.0376907e-11 -1.1417092e-14
1.5225538e-14 1.7136008e-13 -2.0045269e-05 -5.1253544e-14 3.4556996e-07 -1.1263943e-11 -3.200038e-17 -1.4668032e-19
-6.220607e-09 2.2461242e-08 -0.22042038 1.3533892e-07 0.00068903365 3.6156302e-07 2.0329313e-11 -2.0587559e-13
2.53298e-12 6.34071e-14 -0.00054804765 -5.741288e-11 8.94151e-06 1.8809779e-10 3.2513802e-16 1.1839953e-17
6.7742227e-12 6.9455374e-14 -0.0014645258 -2.0271148e-12 2.4532634e-05 3.1413137e-08 -3.9240024e-14 2.7023652e-19
-2.1485926e-13 2.04791e-13 1.8347344e-05 2.89499e-14 1.2013179e-07 2.431154e-11 -4.190374e-17 -1.1375677e-18
9.158625e-14 -2.1963426e-13 7.0169494e-07 -2.1697989e-13 1.8317463e-07 5.3640547e-11 1.1154322e-15 1.4806e-14
00000000: ba63 65b2 a085 3333 bc2b 8e3e e6a5 bc33
00000010: 0a90 1dbd 819c 2f35 e7ea c72e f0b7 612a
00000020: ca9c 662a 2bd0 1f2c e848 07b9 3a40 16aa
00000030: 3c0c 88b4 9777 55af 9061 24a4 b2c3 35ab
00000040: 56da 3c2d 13a2 4caa 0cbf 91bb d888 b731
00000050: e89e 8639 97f0 8eb1 6f2a c8aa ffc9 7020
00000060: 3568 49af e43e b231 3465 d1bd 5225 a031
00000070: 32ac e2ba 8809 c832 fd0e 9b2b 1ca5 10a8
00000080: 4326 c3ab 1b7c 5eae 1100 b4bc 319f b229
00000090: 8e90 aab6 c4d1 d02f ac5f a0a7 657e da23
000000a0: 4ac4 a12a 65ee a1aa 6c35 a7bb c4c3 5628
000000b0: 378d 9cb4 d016 a7ad b5dc 0aa5 3df2 0a22
000000c0: 0859 532d 3cf2 7bac 6e4d 543c c0c8 2aac
000000d0: a6d0 cdb7 104c 01b0 2365 1aa8 9521 9c25
000000e0: d1bc 02ad ad2e 78ab 2ddb e8b9 91e1 80ac
000000f0: fe00 5037 b702 ccb0 d82d f5a6 6fe3 4220
00000100: b809 ad2b d7dd 4aa9 c798 deb7 3d7d 342b
00000110: 5eaa bdb6 ce06 f230 f926 d3a4 eaf9 7021
00000120: d893 9ab1 ad4d 8530 a394 033e dcbe 2431
00000130: 06ab b3bc 64cc 2fb6 0581 e7ad 6e13 5828
00000140: c582 ee37 6d7b caa9 ca27 9dba a223 7fa9
00000150: fdac 1e34 8752 c3ac a593 4ba3 9b92 b321
00000160: b232 0db3 a5f6 e533 d895 da3e 4f73 f632
00000170: b6c4 88bd 4e6c 7d36 1870 b72c 6669 24a9
00000180: f21f b22a c25d 132f 2ec3 95ba b06a c3ac
00000190: beb7 6b35 bdb6 3b2e e4d5 b0a6 ab7f d923
000001a0: d700 a026 6486 14a9 2048 10b5 cd15 8229
000001b0: 8598 c1b3 0e88 7b2d a2a0 ed24 dfac ba20
000001c0: 665a 43b2 6229 8fb1 6aa1 b13e d97f 9931
000001d0: c44c 0b3d 2b2d d435 5d41 29ad 6f17 49a9
000001e0: 1238 4629 8033 062a 091c 2cb8 9dbe 16aa
000001f0: 0eb4 df32 9fff 952a 0692 96a3 abe0 68a1
00000200: 9821 182c ab01 84af bd4e 2039 21c6 9f2e
00000210: b3c6 5b36 09b2 76b0 096b 2f26 556c 0ba6
00000220: 2478 aeb0 3e3a 102a 9400 7ab6 55db 7029
00000230: db7b 9336 39a7 87ac 6e12 bea6 6013 b0a1
00000240: 515d a4ad 8a3d 5d2b 52e7 ef37 32cb 072f
00000250: 7d10 3bba 05bb 1031 23fd 54a6 8eb4 9b20
00000260: caa8 9ab3 909d 9fb4 a547 c93e 8977 08b3
00000270: 04ad 6cbc f681 d0b4 9a62 98ae cf45 d4a8
00000280: 52c7 52b2 685d f3b1 5486 b63e 8b03 10b1
00000290: 13d5 773d f8eb ffb4 b187 ceac 2db5 0429
000002a0: c2af 252d af37 1baf 64fb 573b 9b43 f52f
000002b0: 9608 4238 401c 9f30 4d07 9327 607c 8920
000002c0: f7a2 0cb3 a693 fab3 cd68 a03e fca9 80b2
000002d0: 94d9 963d ab2c 1db6 b402 9d2c 945b 102a
000002e0: 0fe6 9d29 c341 222a 60b9 cdb6 3cfb 1c2a
000002f0: 40c8 a8b5 ca79 ddac 7e5b 3da4 ba9a 219f
00000300: 92d0 6a33 a8f5 1934 6d3d 8d3e 86af 1533
00000310: 3011 c93d 3aec 4eb5 f476 6eae f14f 8832
00000320: 5cff a532 fe2c 7c33 4c24 4b3e f44c b632
00000330: 612b 573d 2e66 3d35 2dc0 b0ae 0bac 4da8
00000340: b323 8928 2eef 402a e326 a8b7 50d3 66a9
00000350: c686 b934 4a28 46ad 6193 13a4 682b 2da0
00000360: 0abd d5b1 cbf0 c032 e1b5 61be ae51 1134
00000370: 44a0 343a d81c c234 8bd1 b22d 99cb 67aa
00000380: 1c3e 322c b4c7 8e29 dbaa 0fba 2881 7cae
00000390: 7e03 1637 d2d0 4e2f e76d bb25 9968 5a23
000003a0: c658 ee2c 4c66 9c29 55f5 bfba 41a5 0eac
000003b0: 6ecb cd37 1ceb 0633 abb8 30a9 fd84 9f20
000003c0: f7e8 71aa fd92 662a 9fe8 9937 f660 0229
000003d0: 93fd 0034 b9d8 d52d 343f 41a4 18e0 a7a1
000003e0: e13b ce29 4449 77aa 1c5c 3c35 324c 74aa
000003f0: a9ae 4434 e3e9 6b2e 2fc0 a026 505c 8528
