models/ETH_UCY/univ.pt (torch, 448466 bytes, 33 tensors)

conv2Da.weight f4 [64, 2, 2, 2]
0.1088011 -0.15956426 -0.65788066 -0.17192541 0.1854775 0.13317795 -0.032305397 -0.067045376
-0.050328735 0.15495898 -0.8875219 -0.69050467 0.08296721 -0.39998397 0.02584689 0.20842448
0.10687278 0.25175816 0.651065 -0.123864256 -0.2376342 0.28170684 -0.36137354 0.39365262
0.058596086 -0.44921175 0.041025423 -1.1906053 0.0056323754 -0.13322128 0.062471293 0.17628549
0.1463585 -0.23447126 -0.56925464 1.1078149 0.05237457 -0.31579348 0.033895887 -0.030899642
-0.015150372 -0.023394277 -0.16513845 -0.02699567 0.2456589 0.4516349 0.30213884 0.20175901
0.11804755 -0.04071769 0.3791433 0.009095892 -0.10847125 0.18981807 0.049153388 -0.15471333
0.25163144 0.6615724 0.36116803 0.65273625 0.038435083 -0.38486174 0.28699747 -0.30713275
0.00033897112 0.0025402873 -0.026234219 0.007970976 0.22905569 0.032851387 0.28999957 -0.05256592
0.00017248181 0.0001253598 -0.0023731648 -0.0008281869 -0.0061307005 -0.010121025 -0.004494362 -0.017312806
0.17301396 0.21099406 -1.0048176 -1.4357524 -0.0012900775 -0.2718727 0.06416282 0.25322938
0.2706558 0.16083716 -0.95557547 0.84613174 -0.04825158 -0.15036967 -0.029381104 0.014649942
-0.01407335 0.022954313 -0.5242786 -0.00082631264 0.033553857 -0.1004505 -0.023133503 0.15993784
-0.035168294 -0.024433564 -0.033610363 -0.010639511 0.1514613 0.09561963 0.28851494 0.01761379
0.08128897 -0.5663893 0.030533548 -1.3845937 0.11054829 -0.10834156 0.08295883 0.18470386
0.00017734122 -0.0006011092 -0.00013302005 -0.00045963787 -0.0024820108 -0.0008340798 0.00046493375 -0.004291986
-0.012382999 0.0127145955 -0.012882574 0.014945552 -0.0018529423 -0.013647086 -0.017685877 -0.058196664
0.11509532 -0.017375685 0.2679367 -0.039148238 0.11037715 0.034362916 0.13513961 0.10689446
0.25730893 0.55115366 -0.32516968 0.9802914 0.044824395 -0.24331947 0.20070648 0.06832682
0.24106324 0.10156914 -0.6893697 -0.634474 0.21075606 0.085361265 0.26778278 0.22002585
0.20858255 -0.017016992 -0.0103219375 -0.7801727 0.24255131 0.26903486 -0.30055887 -0.08200777
-0.13068621 0.27134266 0.36822286 0.5422785 -0.007840853 -0.03074484 -0.028089654 0.21003996
-0.06254233 -0.08709705 -0.05843982 -0.06191736 0.23395564 0.30467197 0.3212468 0.030459706
-9.093064e-05 -0.00026863188 0.000369432 -0.00021484027 -0.0075678607 -0.0064574294 -0.004738412 0.00040615324
0.00056043366 -0.001231504 0.0006407135 -0.0009062865 -0.006474087 -0.002798431 -0.0041404525 -0.0062849578
0.042033482 0.021963272 0.44605297 -0.08336982 -0.16750483 -0.12446072 -0.22098288 0.113709494
-0.003714207 -0.0034385156 -0.0017512661 -0.0010718397 -0.012251694 -0.008071651 -0.0149297165 -0.015684517
0.042657115 -0.051015187 0.1173619 -0.03658003 0.01757148 -0.022726694 -0.050951306 -0.14400645
-0.14447679 0.14952278 0.3439339 0.7895282 -0.0003895968 -0.09277915 0.0923419 -0.013630626
-0.060663037 -0.12551403 -0.02616105 -0.106984496 0.17620423 0.4568305 0.47525942 0.018182226
0.20114711 -0.1979098 -0.45539242 0.5882718 0.30752468 0.17454048 0.020434352 0.1631789
0.2831206 -0.3044141 -1.047741 0.7609149 0.0006127199 -0.2841514 -0.050525345 0.005681808
00000000: 1cd3 de3d d064 23be de6a 28bf 370d 30be
00000010: d0ed 3d3e cd5f 083e aa52 04bd 164f 89bd
00000020: 8125 4ebd 91ad 1e3e a334 63bf eac4 30bf
00000030: b6ea a93d b3ca ccbe dbbc d33c 3a6d 553e
00000040: 1ee0 da3d 72e6 803e 32ac 263f 8bac fdbd
00000050: 6156 73be e13b 903e f405 b9be d68c c93e
00000060: 7302 703d 15ff e5be 460a 283d c165 98bf
00000070: ca8f b83b 296b 08be e6e1 7f3d 2f84 343e
00000080: 01df 153e 3c19 70be acba 11bf e1cc 8d3f
00000090: b886 563d afaf a1be 6ad6 0a3d 3f21 fdbc
000000a0: 4439 78bc 5ba5 bfbc 0e1a 29be 0626 ddbc
000000b0: 028e 7b3e b13c e73e f1b1 9a3e ea99 4e3e
000000c0: eac2 f13d 98c7 26bd 121f c23e f006 153c
000000d0: 2d26 debd ab5f 423e 1055 493d 2c6d 1ebe
000000e0: d6d5 803e cf5c 293f 04eb b83e b919 273f
000000f0: 1b6e 1d3d 990c c5be 55f1 923e 8140 9dbe
00000100: efb7 b139 f37a 263b 25e9 d6bc b298 023c
00000110: 938d 6a3e 2d8f 063d d37a 943e 5d4f 57bd
00000120: 3cdc 3439 0473 0339 1987 1bbb af1a 59ba
00000130: 0be4 c8bb a8d2 25bc 7145 93bb 96d3 8dbc
00000140: 922a 313e d40e 583e dd9d 80bf bcc6 b7bf
00000150: d117 a9ba e632 8bbe cc67 833d 48a7 813e
00000160: 6693 8a3e 7fb2 243e 98a0 74bf 179c 583f
00000170: 73a3 45bd 82fa 19be a4b0 f0bc 4f06 703c
00000180: e893 66bc af0a bc3c 1f37 06bf e79c 58ba
00000190: c56f 093d feb8 cdbd 7982 bdbc bfc6 233e
000001a0: a10c 10bd e628 c8bc 05ab 09bd 5851 2ebc
000001b0: ac18 1b3e 39d4 c33d 3bb8 933e cc4a 903c
000001c0: d57a a63d e4fe 10bf 7e21 fa3c 5e3a b1bf
000001d0: 2467 e23d 2ee2 ddbd 52e6 a93d 0223 3d3e
000001e0: acf4 3939 c193 1dba 4c7b 0bb9 8dfb f0b9
000001f0: 3ba9 22bb 26a6 5aba 5ac2 f339 caa3 8cbb
00000200: 10e2 4abc e150 503c 6f11 53bc 30de 743c
00000210: 6dde f2ba 0798 5fbc f9e1 90bc a05f 6ebd
00000220: 18b7 eb3d 7457 8ebc 002f 893e e759 20bd
00000230: 6a0d e23d 21c0 0c3d 0a62 0a3e 7ceb da3d
00000240: ffbd 833e 6818 0d3f a47c a6be 61f4 7a3f
00000250: c999 373d bd28 79be 0086 4d3e efee 8b3d
00000260: 48d9 763e 7b03 d03d 887a 30bf e36c 22bf
00000270: 70d0 573e e3d1 ae3d d31a 893e 754e 613e
00000280: aa96 553e 3867 8bbc 581d 29bc 66b9 47bf
00000290: 5f5f 783e f0be 893e dae2 99be b1f3 a7bd
000002a0: 9bd2 05be 6ded 8a3e b587 bc3e c4d2 0a3f
000002b0: ec76 00bc 9adc fbbc 461c e6bc b714 573e
000002c0: 3116 80bd f05f b2bd 985e 6fbd 0f9d 7dbd
000002d0: 1192 6f3e f7fd 9b3e 767a a43e a286 f93c
000002e0: 04b2 beb8 29d7 8cb9 53b0 c139 bf46 61b9
000002f0: d1fb f7bb d898 d3bb ae44 9bbb f7f0 d439
00000300: 11ea 123a 6b6a a1ba 8ef5 273a dc93 6dba
00000310: 9424 d4bb e265 37bb a2ac 87bb 0cf2 cdbb
00000320: 4d2b 2c3d 52ec b33c 0e61 e43e ccbd aabd
00000330: 6386 2bbe 43e5 febd 5649 62be 86e0 e83d
00000340: 0e6a 73bb b858 61bb bd8a e5ba f97c 8cba
00000350: 54bb 48bc f53e 04bc c59b 74bc d17c 80bc
00000360: 3ab9 2e3d 4df5 50bd 705b f03d f1d4 15bd
00000370: 10f2 8f3c 552d babc 51b2 50bd 6d76 13be
00000380: b9f1 13be 801c 193e 1b18 b03e 851e 4a3f
00000390: cc42 ccb9 ff02 bebd c01d bd3d fd52 5fbc
000003a0: ce79 78bd c086 00be b34f d6bc b01a dbbd
000003b0: e26e 343e b0e5 e93e 3455 f33e e4f2 943c
000003c0: 82f9 4d3e dea8 4abe 3229 e9be fb98 163f
000003d0: e073 9d3e bdba 323e f165 a73c 5f18 273e
000003e0: 2ff5 903e 2adc 9bbe 611c 86bf 52cb 423f
000003f0: f09e 203a 4b7c 91be aaf3 4ebd 762e ba3b

conv2Da.bias f4 [64]
0.45000452 0.40163082 -0.25724488 -0.17065422 0.4166711 0.03290753 0.2413526 0.1683392
-0.027246373 -0.015556032 0.16598828 0.26275563 0.23763418 -0.10082019 -0.17465377 -0.0030209874
-0.036268264 -0.12243476 -0.018056905 0.0654586 0.49357358 0.16635396 -0.08661413 -0.0074454625
-0.002317238 -0.03057135 -0.008778111 0.10152989 0.2912096 -0.15338019 0.028277235 0.42937073
-0.005805881 -0.14030272 0.18251136 -0.15869425 -0.02166915 -0.017038958 -0.093144394 0.025669018
0.21871507 -0.0011208904 -0.04047201 0.3188171 -0.032056604 -0.0020839595 -0.071527705 -0.012553854
0.015553416 0.620668 -0.101261355 -0.019310232 -0.0016185208 -0.008917139 -0.13354693 0.26198325
-0.09359336 0.08821978 -0.42438662 0.27262163 0.291356 0.09148404 0.08411428 0.15041338
00000000: fe66 e63e 8ea2 cd3e 9ab5 83be fbbf 2ebe
00000010: ea55 d53e 0cca 063d 2325 773e 1c61 2c3e
00000020: c933 dfbc bade 7ebc d5f8 293e e887 863e
00000030: 6056 733e d17a cebd 70d8 32be c2fb 45bb
00000040: 088e 14bd 13bf fabd 13ec 93bc 290f 863d
00000050: adb5 fc3e b158 2a3e c062 b1bd 11f9 f3bb
00000060: cddc 17bb c570 fabc 11d2 0fbc e7ee cf3d
00000070: 6d19 953e b20f 1dbe a9a5 e73c 7bd6 db3e
00000080: 433f bebb 84ab 0fbe 42e4 3a3e bf80 22be
00000090: 8083 b1bc 4995 8bbc 7dc2 bebd d547 d23c
000000a0: d8f6 5f3e d7ea 92ba fac5 25bd ff3b a33e
000000b0: c94d 03bd 0a93 08bb 1e7d 92bd aeae 4dbc
000000c0: c1d3 7e3c 19e4 1e3f 1d62 cfbd 7e30 9ebc
000000d0: 8c24 d4ba 3119 12bc 87c0 08be ab22 863e
000000e0: e0ad bfbd 92ac b43d 3449 d9be 1095 8b3e
000000f0: 9d2c 953e fc5b bb3d 1c44 ac3d f705 1a3e

cbam1.ChannelGate.mlp.1.weight f4 [4, 64]
0.28848013 0.39692083 0.04336567 0.1016677 0.14674966 0.48330262 0.0202367 0.000818841
0.30822602 0.00011339544 0.41793856 0.18132423 0.28088394 0.2994523 0.11412516 -2.5030176e-05
0.018571533 0.15580858 0.06966005 0.36159727 0.26394942 0.027503615 0.44039994 -0.00030121958
-1.8500788e-05 -0.035170745 0.0012155938 -0.019490115 0.007963012 0.5130212 0.32729486 0.2410815
-4.5088444e-05 0.16153306 0.07683755 0.47833273 -0.0018435578 -9.073318e-05 0.05813005 0.26650926
-0.04902246 -1.5879237e-05 -0.00035023672 0.0010679145 -0.012275144 9.360421e-05 0.083740726 -9.526168e-05
0.16391905 0.54012644 0.030105723 -3.1727493e-05 -1.5282742e-05 -0.01928641 0.043779317 0.11692978
0.0600725 0.16320732 0.16151434 0.24765639 0.353077 -0.040966228 0.21938023 -0.094160914
-2.6115843e-37 1.51238e-40 7.5761904e-33 -1.4321e-41 2.61317e-40 1.1408342e-25 -3.1981121e-12 2.8675014e-38
7.17811e-40 -2.3193e-41 8.6015e-41 1.44238e-40 -1.08606e-40 -1.184428e-39 1.6433e-41 2.503e-42
1.48465e-40 -1.2265264e-32 -4.0849e-41 -1.75494e-40 -4.2132004e-17 2.0333225e-24 -4.7995757e-27 -1.45284e-40
6.8222e-41 -6.7235155e-30 -8.4168e-41 1.0944756e-32 -6.3108877e-32 3.297266e-27 4.90213e-40 -1.24039e-40
-6.3339e-41 -5.180885e-38 -8.52899e-13 -2.4496114e-33 -1.9796956e-27 -4.3243e-41 -2.6207e-41 -1.13643e-40
7.695903e-29 2.3873e-41 1.12981e-40 -1.2007837e-25 -4.23111e-40 -2.4884e-41 -2.8851e-41 -5.2051e-41
-2.8564e-41 7.3118e-41 -7.1039236e-13 6.372e-42 -1.669e-41 -5.1637847e-33 1.26494285e-26 -8.3865e-41
-2.37701e-40 5.0604e-41 6.719e-41 -6.90347e-13 7.1755e-41 1.0812811e-32 -6.838729e-24 -1.4969382e-30
-0.004904461 -0.014888601 0.23540121 0.07997458 -0.11785561 0.052883126 0.15226483 0.06442004
-0.015218769 -4.5770885e-05 0.030337779 -0.08786009 -0.0098937 -0.0013822204 0.09160304 1.085037e-05
0.004239753 0.09335582 -0.059478234 0.054913096 0.080842294 0.078894585 -0.018509777 -3.761875e-05
1.9411907e-05 0.16009872 0.0016698705 0.038154345 0.0145965135 0.080646425 -0.02670313 -0.10902993
4.5015615e-05 0.0187251 0.24451417 0.06858569 0.16885334 7.6555276e-05 0.048612818 -0.08910273
0.07848496 3.7325203e-06 0.00026322698 0.19766231 0.020540893 3.720654e-06 0.0349031 0.00014669899
-0.13795795 0.01273586 0.2724085 0.0011540797 1.8388664e-05 0.25717413 0.1517524 0.0011969381
0.0011482728 -0.04786788 -0.023852468 0.12137224 -0.0056368206 0.042769145 0.1588851 0.18098187
-0.003610999 -0.005597375 0.013910042 -0.0009781466 0.0037740858 -0.025786625 0.0064000958 0.015934795
-0.005412021 1.3609799e-05 -0.006244127 0.0015063018 -0.0036882656 -0.004363226 -0.0015916056 3.48201e-07
6.102565e-05 -0.0012661741 0.0028339417 -0.02359906 0.000716463 0.019711718 -0.012652413 8.6799886e-08
1.0798452e-06 0.0080316495 2.1845424e-05 0.0034671642 0.011396985 -0.015286004 -0.0028803938 -0.0012575482
5.911859e-07 -0.0016781671 0.011572847 -0.008720797 0.009423193 1.0662505e-05 0.0018729232 -0.0045960806
0.0076476494 -8.5156685e-08 -0.00022403715 0.016395364 0.0012307084 1.582567e-07 0.00040224704 -7.2016745e-05
-0.002040866 -0.007424408 0.013877283 1.0016893e-05 1.6972804e-06 0.005891905 0.0074480595 -0.0064127473
-0.0006736961 -0.003523426 -0.0021258253 0.00054349884 -0.002220804 0.0039525786 0.00024728582 0.006587428
00000000: abb3 933e 3539 cb3e 33a0 313d 2837 d03d
00000010: 8b45 163e 7173 f73e 70c7 a53c 7da7 563a
00000020: cdcf 9d3e b7ce ed38 0bfc d53e 0fad 393e
00000030: 05d0 8f3e d051 993e 74ba e93d e5f7 d1b7
00000040: 5423 983c 498c 1f3e eea9 8e3d 4723 b93e
00000050: 6124 873e 434f e13c 1a7c e13e 02ed 9db9
00000060: 2432 9bb7 330f 10bd 8f54 9f3a bca9 9fbc
00000070: 4b77 023c 5b55 033f 3193 a73e 12de 763e
00000080: 591d 3db8 ec68 253e 015d 9d3d 07e8 f43e
00000090: 89a3 f1ba 0148 beb8 c619 6e3d e773 883e
000000a0: c6cb 48bd 6734 85b7 fa9f b7b9 44f9 8b3a
000000b0: b01d 49bc 614d c438 4280 ab3d 3ac7 c7b8
000000c0: 65da 273e ba45 0a3f 47a0 f63c 2313 05b8
000000d0: 7033 80b7 89fe 9dbc f151 333d e178 ef3d
000000e0: 950e 763d d21f 273e 0464 253e a399 7d3e
000000f0: 82c6 b43e 34cc 27bd 36a5 603e 70d7 c0bd
00000100: 37bc b182 97a5 0100 f059 1d0a ec27 0080
00000110: 72d8 0200 7b3a 0d16 110c 61ac 231f 1c01
00000120: f7d0 0700 a740 0080 c6ef 0000 1492 0100
00000130: c02e 0180 b4e5 0c80 cf2d 0000 fa06 0000
00000140: dc9d 0100 54bd 7e8a df71 0080 35e9 0180
00000150: b14c 42a4 1a52 1d18 7b21 be93 fe94 0180
00000160: 2dbe 0000 7d5e 088f a0ea 0080 4e50 630a
00000170: 0bd7 a38b 409e 8213 8456 0500 c559 0180
00000180: 90b0 0080 8009 8d81 da11 70ab 7981 4b89
00000190: ffd8 1c93 8b78 0080 0e49 0080 ca3c 0180
000001a0: 441d c310 8c42 0000 f23a 0100 5ba6 1496
000001b0: 769b 0480 5e45 0080 6d50 0080 1991 0080
000001c0: a04f 0080 d3cb 0000 2af5 47ab c311 0000
000001d0: 862e 0080 c77e d689 398c 7a14 c8e9 0080
000001e0: 9d96 0280 108d 0000 4cbb 0000 be50 42ab
000001f0: 06c8 0000 c492 600a bf47 0499 61e4 f28d
00000200: 9ab5 a0bb 52ef 73bc 040d 713e b6c9 a33d
00000210: 485e f1bd fa9b 583d 50eb 1b3e a7ee 833d
00000220: 2558 79bc 1dfa 3fb8 ef86 f83c feef b3bd
00000230: 2f19 22bc 9f2b b5ba 609a bb3d fc09 3637
00000240: a0ed 8a3b 5631 bf3d 739f 73bd 8eec 603d
00000250: a590 a53d 7c93 a13d d1a1 97bc d3c8 1db8
00000260: c1d6 a237 ebf0 233e 8edf da3a bb47 1c3d
00000270: 3726 6f3c f429 a53d 86c0 dabc 154b dfbd
00000280: 26cf 3c38 6265 993c ec61 7a3e a776 8c3d
00000290: e4e7 2c3e 4d8c a038 3c1e 473d 7e7b b6bd
000002a0: b9bc a03d 367c 7a36 ba01 8a39 fd67 4a3e
000002b0: 6045 a83c 59b0 7936 8ef6 0e3d 36d3 1939
000002c0: d944 0dbe 12aa 503c 2079 8b3e 7d44 973a
000002d0: 5b41 9a37 54ac 833e fb64 1b3e 94e2 9c3a
000002e0: a481 963a 1c11 44bd 4066 c3bc 0292 f83d
000002f0: 14b5 b8bb b32e 2f3d c7b2 223e 5053 393e
00000300: 83a6 6cbb 2f6a b7bb f2e6 633c 2735 80ba
00000310: a756 773b 793e d3bc e5b7 d13b b089 823c
00000320: 5357 b1bb a455 6437 899b ccbb 1a6f c53a
00000330: d4b6 71bb 64f9 8ebb 6c9d d0ba 62f0 ba34
00000340: cbf5 7f38 c1f5 a5ba a7b9 393b d152 c1bc
00000350: 05d1 3b3a 787a a13c 114c 4fbc be66 ba33
00000360: 33ef 9035 2e97 033c b140 b737 5d39 633b
00000370: 6bba 3a3c 2672 7abc fdc4 3cbb 51d4 a4ba
00000380: fcb1 1e35 f2f5 dbba 0a9c 3d3c ace1 0ebc
00000390: bc63 1a3c 1ce3 3237 e07c f53a b89a 96bb
000003a0: 2299 fa3b 62df b6b3 84eb 6ab9 924f 863c
000003b0: b94f a13a 45ed 2934 afe4 d239 b207 97b8
000003c0: 0dc0 05bb 7348 f3bb 8b5d 633c 3a0e 2837
000003d0: 1cce e335 e210 c13b da0e f43b 0622 d2bb
000003e0: fb9a 30ba 47e9 66bb 6e51 0bbb 9779 0e3a
000003f0: e98a 11bb a284 813b 24a6 8139 5adb d73b

cbam1.ChannelGate.mlp.1.bias f4 [4]
0.08949913 -5.5146214e-11 -0.023048833 0.016431283
00000000: 524b b73d 1e89 72ae e8d0 bcbc e69a 863c

cbam1.ChannelGate.mlp.3.weight f4 [64, 4]
0.13093442 -2.4182e-41 0.26320243 0.0024213141 0.444899 -2.929696e-39 0.08393213 0.003837834
0.3359013 2.4226e-40 0.20562877 0.005754598 0.3711204 -5.8295e-41 0.14781351 0.003036891
0.372715 2.29677e-40 0.16610362 -0.0053463993 -0.17658062 -7.093e-42 0.025845852 0.0014975743
-0.11079062 -3.925736e-09 -0.07784857 -0.011876894 0.34213206 -3.28913e-40 0.038789082 -0.00052940944
-0.16941863 -4.49958e-40 -0.0038625447 0.011010158 0.0007794024 3.5800633e-34 9.745225e-05 3.6963306e-06
0.48222494 6.02613e-40 0.10257794 0.0021685124 0.40935254 -1.58766e-40 0.12480932 -0.000646517
-0.14177734 -1.953779e-39 0.05528385 0.00461255 -0.16660768 -2.01154e-40 -0.022720927 -0.0004632576
0.40440935 -1.8804e-41 0.16468325 0.002543059 1.1072401e-05 2.9584e-41 1.2684643e-05 -1.9301542e-07
-0.046062842 2.4761e-41 -0.0032185568 -2.3732895e-05 -0.15943635 -1.004155e-10 -0.01933701 -0.015605181
0.3105605 -3.46056e-40 -0.050361846 -0.0067857224 0.22275479 -9.0464e-41 0.055912092 0.003694581
0.5204607 1.98848e-40 0.19365652 0.0024954097 0.24608761 -6.505012e-15 -0.17888184 -0.054079853
-0.1972296 2.16716e-40 0.006404677 -0.0015366975 -0.00011137859 -1.15702e-40 2.4141582e-07 -3.5278686e-07
-0.0016940134 7.402e-42 -7.594078e-06 1.100334e-07 0.13102 -7.787858e-11 -0.119488634 0.0143197365
-0.0017739964 5.4045e-41 -0.0006508053 -1.8643416e-06 -0.11802366 -7.81822e-40 -0.01230463 3.3461158e-05
0.28429803 -2.427856e-20 -0.05894333 0.007778038 -0.15945305 6.590295e-33 -0.061559785 -0.003265038
0.1936473 4.9958e-41 -0.08241938 0.00076005777 0.4456729 -3.97e-40 0.1930367 -0.0005756111
-1.8625646e-05 -4.092e-41 -4.9754897e-07 -3.2713325e-07 -0.14065367 1.58876e-40 -0.012931512 -0.00016304807
0.24576163 -7.5655013e-16 0.33552596 0.01670688 -0.14509007 -1.1087708e-29 -0.043140396 -0.0021434722
-0.19172885 -1.0430569e-05 -0.016709954 0.0014532321 -0.00017806585 -1.7031e-41 -1.6745256e-05 6.048429e-07
-0.09771468 1.27305e-40 -0.02193367 0.00016002593 0.24930641 1.0859e-41 0.035027932 0.0014081183
-0.21350117 1.3549547e-37 0.10026717 0.0067319865 -7.870673e-05 5.4162e-41 -1.3515784e-05 8.60996e-08
-0.06288061 -1.1262e-41 9.3581366e-05 8.912634e-05 0.25753137 -2.1862945e-09 0.23969679 0.03297226
-0.064841904 -4.3303957e-37 -0.041307017 -0.00061761634 -1.5279591e-05 -3.0393e-41 5.1595653e-06 -1.1945518e-07
-0.10015279 -1.98867e-40 0.03763915 0.00018086872 -0.0018992486 -1.95963e-40 -1.3368346e-05 1.3364499e-05
0.38511539 1.37979e-40 0.046520192 -0.0017816656 0.5234274 2.7423e-41 0.05323495 -0.0035684502
0.2862597 -9.293873e-26 0.0008032867 -0.018153321 -0.0014046842 2.8341e-41 4.78409e-06 -1.6956743e-06
-0.00018564622 -8.419e-42 -2.817464e-05 4.7768947e-07 0.23817104 4.2228418e-27 0.3585967 0.0072470284
-0.3095144 -1.2017619e-08 0.26335806 -0.05442228 0.4338813 3.1353e-41 -0.09388813 -0.0069737383
-0.0030182241 1.26729e-40 -0.004867758 -2.2039922e-05 -0.16536601 4.24141e-40 0.022706741 0.0016350945
0.20408016 -7.0257e-41 0.08584328 7.837118e-06 -0.10994767 -6.1334e-10 -0.22499083 0.01911862
-0.1704379 -2.4610946e-26 0.3103922 0.021195432 -0.14229311 1.4938336e-37 0.0011623908 -0.0032544353
-0.27868882 -1.9546529e-14 0.15657765 0.019269979 0.22339572 -4.946231e-20 0.1712965 0.043076582
00000000: ac13 063e 6943 0080 78c2 863e e9ae 1e3b
00000010: cdc9 e33e cde6 1f80 9ce4 ab3d 2c84 7b3b
00000020: 41fb ab3e 53a3 0200 5990 523e 1191 bc3b
00000030: 7e03 be3e 81a2 0080 6d5c 173e 9406 473b
00000040: 80d4 be3e 3f80 0200 1117 2a3e d930 afbb
00000050: 8dd1 34be c613 0080 aeba d33c 414a c43a
00000060: 31e6 e2bd 24e3 86b1 126f 9fbd 4e97 42bc
00000070: ef2b af3e e094 0380 4de1 1e3d 11c8 0aba
00000080: 147c 2dbe 4de6 0480 bf22 7dbb f363 343c
00000090: cf50 4c3a 9fef ed07 475f cc38 7a0e 7836
000000a0: 30e6 f63e d78f 0600 6214 d23d 9a1d 0e3b
000000b0: a896 d13e 93ba 0180 079c ff3d 057b 29ba
000000c0: 142e 11be 5746 1580 5171 623d e024 973b
000000d0: 349b 2abe bc30 0280 3d21 babc 62e1 f2b9
000000e0: be0e cf3e 6b34 0080 baa2 283e 73a9 263b
000000f0: 9ac3 3937 7852 0000 20d0 5437 ad3f 4fb4
00000100: 64ac 3cbd 0645 0000 6cee 52bb 0116 c7b7
00000110: 4843 23be e7d0 dcae a668 9ebc e0ac 7fbc
00000120: c901 9f3e aac4 0380 3948 4ebd c45a debb
00000130: d519 643e 2dfc 0080 1404 653d c920 723b
00000140: ea3c 053f 4f2a 0200 e54d 463e 078a 233b
00000150: 64fe 7b3e 255e eaa7 cd2c 37be d682 5dbd
00000160: 8ef6 49be 1e5c 0200 53de d13b 036b c9ba
00000170: ed93 e9b8 8842 0180 f09b 8134 a866 bdb4
00000180: a809 deba a214 0000 a2d0 feb6 804b ec33
00000190: 1b2a 063e be41 abae 75b6 f4bd 549d 6a3c
000001a0: 7185 e8ba a896 0000 ce9a 2aba 4a3a fab5
000001b0: 63b6 f1bd 6783 0880 5c99 49bc a558 0c38
000001c0: 838f 913e f54d e59e 906e 71bd e9de fe3b
000001d0: a947 23be 05e0 080a 1d26 7cbd 3ffa 55bb
000001e0: 7a4b 463e 438b 0000 7ecb a8bd 9d3e 473a
000001f0: 3d2f e43e ad52 0480 6aab 453e 9be4 16ba
00000200: 453e 9cb7 1172 0080 4e8f 05b5 daa0 afb4
00000210: 8407 10be e2ba 0100 b1de 53bc e2f7 2ab9
00000220: f0a8 7b3e 8c0f 5aa6 0fca ab3e dedc 883c
00000230: 7e92 14be ace2 608f fcb3 30bd 7f79 0cbb
00000240: 9154 44be f4fe 2eb7 50e3 88bc 617a be3a
00000250: 30b7 3ab9 7a2f 0080 2a78 8cb7 7d5c 2235
00000260: a21e c8bd e062 0100 3dae b3bc a2cc 2739
00000270: 2e4a 7f3e 451e 0000 7379 0f3d 9c90 b83a
00000280: 0da0 5abe 486d 3802 e058 cd3d ff97 dc3b
00000290: 5b0f a5b8 fb96 0000 dac1 62b7 c1e5 b833
000002a0: 8dc7 80bd 651f 0080 1d41 c438 57e9 ba38
000002b0: 27db 833e b33d 16b1 1373 753e ec0d 073d
000002c0: d5cb 84bd 115b 1383 8c31 29bd 88e7 21ba
000002d0: ac2c 80b7 b954 0080 5420 ad36 9743 00b4
000002e0: e81c cdbd 5c2a 0280 822b 1a3d 94a7 3d39
000002f0: 35f0 f8ba 4422 0280 9c48 60b7 1638 6037
00000300: d82d c53e a180 0100 f58b 3e3d c786 e9ba
00000310: 57ff 053f 724c 0000 e40c 5a3d a9dc 69bb
00000320: a290 923e eb1a e695 a893 523a 46b6 94bc
00000330: 611d b8ba 014f 0000 0587 a036 ed96 e3b5
00000340: 07aa 42b9 7817 0080 9458 ecb7 923a 0035
00000350: 1ce3 733e b448 a713 fd99 b73e 7b78 ed3b
00000360: ac78 9ebe 0c76 4eb2 ded6 863e e6e9 5ebd
00000370: b125 de3e 6657 0000 6b48 c0bd f583 e4bb
00000380: 66cd 45bb 4561 0100 b781 9fbb 5fe2 b8b7
00000390: b555 29be 559e 0400 7d03 ba3c ab50 d63a
000003a0: 64fa 503e d9c3 0080 9ace af3d 2a7c 0337
000003b0: 3e2c e1bd f797 28b0 ff63 66be a79e 9c3c
000003c0: 4687 2ebe 29bc f394 baeb 9e3e 0ba2 ad3c
000003d0: 49b5 11be 8154 4b02 5d5b 983a 5d48 55bb
000003e0: 4db0 8ebe 3a0f b0a8 e455 203e 13dc 9d3c
000003f0: d9c1 643e 4394 699f 5a68 2f3e 1271 303d

cbam1.ChannelGate.mlp.3.bias f4 [64]
-0.015517573 0.23409423 0.14311902 0.11607094 0.04694406 0.103931256 0.12375254 0.19537511
0.05377614 5.5259858e-05 0.22706866 0.112114035 0.13317586 0.021035682 0.12621634 2.7946073e-06
-0.0018475972 0.13333917 0.042684227 0.18250324 0.23463304 -0.25038746 0.07038504 -5.9685995e-06
1.9441002e-07 0.20987864 -0.0002694174 0.014208577 0.057127815 0.2981823 0.029974146 0.10339619
-5.418302e-06 -0.004867367 0.3732363 0.14460635 0.13697949 -1.4535806e-05 -0.0038115303 0.09686108
0.11074099 -8.701361e-06 -0.00036998474 0.12525244 -0.0048990785 -4.2800386e-07 0.018746423 3.5649213e-05
0.12578084 0.3070621 0.074553244 1.002944e-05 -1.783708e-05 0.22619748 -0.0012083851 0.08251279
-0.0027661568 -0.00029970065 0.026201965 0.61139536 0.33154258 0.00019709408 0.5078603 0.08864612
00000000: 6b3d 7ebc 66b6 6f3e cb8d 123e 9ab6 ed3d
00000010: 6a48 403d e9d9 d43d f971 fd3d 6a10 483e
00000020: 5f44 5c3d d2c6 6738 b084 683e 0b9c e53d
00000030: 415f 083e 0653 ac3c db3e 013e fd8a 3b36
00000040: 132b f2ba 108a 083e a8d5 2e3d 21e2 3a3e
00000050: a543 703e c932 80be 0826 903d e145 c8b6
00000060: 05bf 5034 6dea 563e 9740 8db9 17cb 683c
00000070: dbfe 693d 5aab 983e 578c f53c 62c1 d33d
00000080: dcce b5b6 6f7e 9fbb d418 bf3e b013 143e
00000090: 5a44 0c3e d0de 73b7 deca 79bb 1a5f c63d
000000a0: 2ccc e23d 10fc 11b7 83fa c1b9 2d42 003e
000000b0: 7388 a0bb 67c8 e5b4 1992 993c 0d86 1538
000000c0: b1cc 003e 3e37 9d3e 5faf 983d 1e44 2837
000000d0: d6a0 95b7 50a0 673e ad62 9eba 77fc a83d
000000e0: 6948 35bb 2421 9db9 81a5 d63c 6884 1c3f
000000f0: f3bf a93e 0aab 4e39 2203 023f 198c b53d

cbam1.SpatialGate.spatial.conv.weight f4 [1, 2, 7, 7]
-8.2001e-41 1.217e-41 5.5131e-41 0.2575957 1.9358e-41 -1.5056e-41 1.16427e-40 -5.8061e-41
-1.0025e-41 -5.9659537e-28 -0.11502653 -3.4506e-41 8.4941e-41 -9.1229e-41 -1.264039e-38 2.4712e-41
-8.072e-41 -0.069768324 1.00668e-40 -6.2327e-41 1.2575e-40 1.0822e-40 4.9121e-41 -3.921e-41
-0.13313045 -4.7748e-41 -7.4644e-41 -6.0945e-41 1.3624827e-13 3.972e-41 -8.095e-41 -0.31849372
-5.9512e-41 2.6304e-41 7.3103e-41 5.2168e-41 1.08662e-40 -3.6334e-41 0.02367936 1.08312e-40
7.1745e-41 -6.0177e-41 -5.985e-41 -6.4988e-41 -3.515e-41 0.31954375 -7.1968e-41 7.5352e-41
-5.2299608e-08 9.1725e-41 -7.3855e-41 -5.5466254e-09 0.21207833 9.228894e-19 -1.46506e-40 1.04002e-40
6.6232e-41 1.4279e-41 -5.5114e-41 0.3188758 -6.71303e-40 -1.70884e-40 2.9678e-41 6.4177e-41
-9.625e-41 -1.58712e-40 0.37714285 -1.31595e-40 -7.5156e-41 3.2545e-41 -5.3381e-41 -1.06614e-40
-8.4793e-41 -0.27819997 -6.2911e-41 6.4234e-41 -8.755e-41 -3.0073e-41 9.786e-41 -1.1836e-40
-0.23290847 6.200635e-21 4.7847e-41 2.5969e-41 8.9966e-41 6.6806e-41 8.685068e-09 0.064946115
1.0922e-40 -9.5164e-41 -1.0757e-40 7.1693e-41 7.6239e-41 2.0609e-41 -0.031929098 8.5682e-41
-6.2993e-41 -4.6864e-41
00000000: 96e4 0080 ed21 0000 af99 0000 95e3 833e
00000010: f635 0000 f829 0080 8d44 0100 daa1 0080
00000020: f21b 0080 9111 3d92 0893 ebbd 3060 0080
00000030: c8ec 0000 4ffe 0080 44a4 8980 e344 0000
00000040: 04e1 0080 b2e2 8ebd 9f18 0100 bead 0080
00000050: 8a5e 0100 ac2d 0100 ee88 0000 4d6d 0080
00000060: 5953 08be 1a85 0080 14d0 0080 e4a9 0080
00000070: e466 192a b96e 0000 a8e1 0080 9c11 a3be
00000080: e5a5 0080 5349 0000 c8cb 0000 6c91 0000
00000090: e82e 0100 4965 0080 38fb c13c ee2d 0100
000000a0: ffc7 0000 c0a7 0080 d6a6 0080 29b5 0080
000000b0: fc61 0080 3d9b a33e 9ec8 0080 0dd2 0000
000000c0: 07a0 60b3 b1ff 0000 e1cd 0080 a294 beb1
000000d0: 102b 593e c731 8821 6698 0180 ea21 0100
000000e0: a1b8 0000 ce27 0000 a399 0080 b043 a33e
000000f0: 524f 0780 5bdc 0180 bb52 0000 e6b2 0000
00000100: 4e0c 0180 6dba 0180 de18 c13e d56e 0180
00000110: 81d1 0080 b95a 0000 ce94 0080 3229 0180
00000120: 5eec 0080 3a70 8ebe 5faf 0080 0fb3 0000
00000130: 0ef4 0080 d553 0080 cb10 0100 f149 0180
00000140: 8f7f 6ebe dd40 ea1d 6185 0000 6448 0000
00000150: cafa 0000 3aba 0000 5535 1532 7802 853d
00000160: 7630 0100 4709 0180 dd2b 0180 dac7 0000
00000170: 86d4 0000 7339 0000 16c8 02bd d9ee 0000
00000180: 99af 0080 a382 0080

conv2Db.weight f4 [128, 64, 2, 1]
0.121738024 0.011542604 -0.08788094 0.12951432 0.043896962 0.016850313 -0.014470868 0.023590904
-0.15214074 -0.053607184 -0.03862989 -0.044796176 -0.0036170925 -0.04606804 -0.04790352 -0.07182647
-0.033630032 -0.014827421 -0.0002581876 -0.00025554167 -0.052230887 0.11141115 -0.06640543 -0.012102799
-0.025445843 0.0031646795 -0.022432938 -0.015284225 0.0030159736 0.05415274 4.023583e-06 -7.210675e-05
-0.00015897522 -0.00021653251 -0.0121330805 0.0034254882 -0.035640538 0.002358307 0.05437241 0.055854753
0.17995271 -0.07822875 -0.034808047 0.0065452238 -0.03188948 -0.030422892 0.0005951011 2.2648006e-05
-9.437882e-06 -8.315162e-05 0.012870055 0.022934081 8.6733504e-05 0.00067771284 -0.0043505086 0.0026750076
-0.062212586 -0.0033771838 -0.018618563 -0.06914767 -0.029276246 -0.07771812 -0.124287866 -0.03417309
-8.033507e-06 -7.873332e-05 -0.0025965609 -0.0077095195 -0.048080776 -0.031594895 -0.010387752 -0.046496924
0.005872505 0.002497916 -1.4005559e-05 -0.00016517099 0.00076032727 0.008988269 -0.0009732233 -0.03361244
-0.0031547325 0.0013542391 -1.3382077e-06 -9.555622e-06 -0.00039376772 -0.00025930683 -0.023978176 -0.0026704299
0.00019873572 0.0012349035 -1.0244138e-05 -1.1583986e-06 0.0055427384 0.006533521 -0.0001987108 6.640065e-05
0.013229972 -0.04973766 0.016961046 0.091321394 0.044840615 -0.010715691 0.00089321076 4.095848e-06
-9.6091835e-06 -1.3862219e-05 0.03890811 0.06363719 -0.00067806337 0.00017939035 -0.060508907 0.098891914
0.00039293015 -0.0045668436 -0.019325053 -0.008338439 0.008122065 -0.041596062 -0.022421127 -0.1206943
-0.04708694 -0.008307266 0.002792487 0.0036108056 -0.06456223 -0.04698945 0.016774597 0.03493594
-6.849309e-06 1.2035825e-06 -3.7628712e-07 -1.6264814e-06 -1.6167933e-06 4.291357e-06 1.9073677e-06 1.0679179e-05
2.2249433e-06 -1.2390141e-06 1.3017508e-06 1.0221174e-06 -8.5475186e-08 6.154997e-07 2.3448238e-06 -1.1643525e-06
7.808846e-07 -5.0167694e-07 3.5543525e-08 -2.8392493e-09 -2.1658047e-06 1.5349452e-06 -3.821949e-09 2.3227396e-07
-3.5177106e-08 4.1827832e-07 2.2317668e-07 3.136199e-07 -1.03316445e-07 7.830771e-06 2.4178037e-10 2.2733446e-09
4.2004746e-09 -1.450357e-07 7.624527e-08 4.0747926e-07 4.83657e-07 5.503906e-07 -5.8890496e-06 5.8587875e-07
-7.268563e-06 5.5192763e-06 9.885971e-07 -2.8448014e-06 1.0680342e-06 6.241983e-07 -1.9257002e-10 1.4076003e-09
9.954577e-09 2.830015e-10 -5.6066676e-07 9.575427e-07 3.565558e-08 -1.8879316e-08 -2.2779875e-07 -3.1084122e-07
2.0427415e-06 -5.813711e-07 -1.6724067e-06 1.5945367e-06 -3.83742e-06 -1.697272e-06 6.1252905e-07 1.4762355e-07
1.16265495e-08 -4.218193e-09 9.169262e-08 5.697193e-08 3.0272488e-06 4.9416503e-06 1.0044597e-06 7.936292e-07
-4.776013e-07 1.827902e-08 3.5414194e-10 1.0160078e-09 -4.7851124e-08 5.613725e-07 -1.2807322e-06 1.8719237e-06
-5.979531e-07 -7.75919e-07 -3.2530365e-10 -4.5392873e-11 -2.6418837e-08 4.088673e-08 1.8644242e-06 -1.0915019e-06
-4.6008026e-08 -5.981275e-07 1.9744968e-08 -1.9983304e-09 -7.401326e-10 6.4438734e-07 -1.3680781e-09 8.225956e-08
3.7138013e-06 2.487084e-06 -1.0379533e-06 -1.6013928e-06 4.5133595e-07 3.5294622e-06 4.2889098e-10 3.3320646e-09
2.34639e-09 3.0026234e-10 -2.0650054e-06 2.7572e-06 -5.145147e-07 -1.6269613e-07 -1.3300061e-06 9.066943e-06
2.806277e-07 -2.2440743e-08 2.956099e-07 1.5017012e-07 2.2421414e-06 -5.0699364e-06 8.2583915e-07 1.7775455e-06
-2.3409676e-07 1.560318e-06 -2.9243668e-07 -4.3529906e-07 5.2834895e-07 8.8603747e-07 -7.6073604e-07 1.7805095e-06
00000000: c951 f93d 311d 3d3c ecfa b3bd 679f 043e
00000010: 4dcd 333d ab09 8a3c 3817 6dbc b641 c13c
00000020: c8ca 1bbe 3593 5bbd 603a 1ebd 327c 37bd
00000030: be0c 6dbb d7b1 3cbd 7b36 44bd c219 93bd
00000040: a5bf 09bd b6ee 72bc 5a5d 87b9 39fa 85b9
00000050: 0ef0 55bd 872b e43d 92ff 87bd d14a 46bc
00000060: cd73 d0bc 8366 4f3b 48c5 b7bc b06a 7abc
00000070: a4a7 453b 43cf 5d3d 5102 8736 0438 97b8
00000080: 96b2 26b9 010d 63b9 d4c9 46bc 287e 603b
00000090: d0fb 11bd d38d 1a3b 9bb5 5e3d f4c7 643d
000000a0: 8645 383e 6536 a0bd e292 0ebd 5179 d63b
000000b0: 8b9e 02bd 6e39 f9bc 8f00 1c3a 39fc bd37
000000c0: 6557 1eb7 b061 aeb8 ecdc 523c 41e0 bb3c
000000d0: b2e4 b538 8aa8 313a b68e 8ebb 2e4f 2f3b
000000e0: a0d2 7ebd be53 5dbb f585 98bc 4b9d 8dbd
000000f0: bdd4 efbc ad2a 9fbd a38a febd 15f9 0bbd
00000100: a6c7 06b7 a11d a5b8 102b 2abb 23a0 fcbb
00000110: 59f0 44bd a669 01bd 6431 2abc 8f73 3ebd
00000120: 246e c03b 14b4 233b 6bf9 6ab7 c031 2db9
00000130: b350 473a 8843 133c e91f 7fba 33ad 09bd
00000140: a1bf 4ebb b980 b13a 779c b3b5 1551 20b7
00000150: 9c72 ceb9 93f3 87b9 e16d c4bc 6102 2fbb
00000160: b763 5039 7cdc a13a 3dde 2bb7 467a 9bb5
00000170: dc9f b53b 2617 d63b 065d 50b9 9440 8b38
00000180: 86c2 583c b7b9 4bbd e4f1 8a3c b606 bb3d
00000190: cbaa 373d de90 2fbc 5c26 6a3a 116f 8936
000001a0: 2137 21b7 c791 68b7 1c5e 1f3d 3754 823d
000001b0: 10c0 31ba bb1a 3c39 30d8 77bd d887 ca3d
000001c0: 3102 ce39 76a5 95bb 934f 9ebc f39d 08bc
000001d0: 6912 053c a260 2abd 83ac b7bc 932e f7bd
000001e0: 3cde 40bd 331b 08bc 2802 373b 44a3 6c3b
000001f0: 3439 84bd 0278 40bd e16a 893c fd18 0f3d
00000200: 1ed3 e5b6 c88a a135 8204 cab4 7a4d dab5
00000210: 9800 d9b5 7afe 8f36 5400 0036 b92a 3337
00000220: 3c50 1536 334c a6b5 d1b7 ae35 b02f 8935
00000230: 7b8e b7b3 d138 2535 c45b 1d36 d946 9cb5
00000240: fb9d 5135 faaa 06b5 85a8 1833 9a1c 43b1
00000250: 3e58 11b6 5104 ce35 3852 83b1 fb66 7934
00000260: a315 17b3 bc8f e034 57a2 6f34 975f a834
00000270: d1de ddb3 e860 0337 90eb 842f 1a39 1c31
00000280: c453 9031 1cbb 1bb4 48bc a333 86c3 da34
00000290: a8d4 0135 8ebe 1335 8d9a c5b6 4845 1d35
000002a0: 7be4 f3b6 3932 b936 f0af 8435 51e9 3eb6
000002b0: 6059 8f35 958e 2735 a4bb 53af 8875 c130
000002c0: b104 2b32 ec94 9b2f ba80 16b5 eb84 8035
000002d0: ba23 1933 0e2c a2b2 d898 74b4 b1e1 a6b4
000002e0: 0816 0936 850f 1cb5 7577 e0b5 dd03 d635
000002f0: 30c3 80b6 d2cd e3b5 ad6c 2435 7482 1e34
00000300: 1bbe 4732 9eef 90b1 8de8 c433 4db1 7433
00000310: bd27 4b36 74d0 a536 f9d0 8635 c909 5535
00000320: 8334 00b5 fd03 9d32 0cb1 c22f 99a3 8b30
00000330: de84 4db3 39b1 1635 a0e5 abb5 cf3e fb35
00000340: 0683 20b5 bf48 50b5 6bd6 b2af d5a3 47ae
00000350: a3ef e2b2 6f9b 2f33 213d fa35 b87f 92b5
00000360: 5c9a 45b3 028f 20b5 a59b a932 0053 09b1
00000370: 3472 4bb0 f6f9 2c35 f806 bcb0 aca6 b033
00000380: 9f3a 7936 c7e7 2636 ce4f 8bb5 70ef d6b5
00000390: 244f f234 b3db 6c36 0ac9 eb2f 4dfa 6431
000003a0: 213e 2131 2b12 a52f 8694 0ab6 5608 3936
000003b0: 2e1d 0ab5 92b1 2eb4 a982 b2b5 391e 1837
000003c0: 2da9 9634 b7c3 c0b2 51b4 9e34 733e 2134
000003d0: b277 1636 6c1e aab6 3caf 5d35 0094 ee35
000003e0: 075c 7bb4 1e6c d135 3100 9db4 0cb3 e9b4
000003f0: ddd3 0d35 08d8 6d35 6235 4cb5 d7f9 ee35

conv2Db.bias f4 [128]
0.054525595 -0.0003656053 -0.00035439458 -0.010161675 -0.0027514342 0.14346424 -0.042230513 -0.0041794656
0.00704329 0.021677284 -0.010330657 -0.003279271 -0.028829291 0.057871424 -0.0022518276 -0.09996079
-0.004592406 -0.030287378 -0.014484878 -0.000250842 -7.844708e-05 -0.00037841446 -0.015590339 -0.00013554552
0.00479698 0.010683112 -0.0033910829 -0.08636559 -0.00034948584 -0.0057243216 -0.037469003 -0.02199014
-0.0011704307 -0.000117270916 -0.014018795 -0.00027478192 -0.043960672 0.03455324 -0.020422574 -0.015469947
-0.013136938 -0.0002454651 0.023792863 0.2090336 -0.1503862 -0.058372464 -0.011052153 -0.27521414
-0.044669703 -0.011043158 0.04290562 0.055612225 -0.00051316747 0.032441847 -0.00077543117 -0.0002643354
0.0035347715 -0.06449975 -0.008123057 0.007801989 -6.083479e-05 -1.568544e-05 -0.007913406 -0.00888033
0.3557601 -0.021926735 0.0084056975 0.055380028 -0.061207145 -3.8180264e-05 0.0073190113 -0.0001319459
-0.066118404 -0.060389988 -0.0030218011 0.09008806 -0.062444977 -0.013019596 -0.000958276 -0.04471129
-0.026575679 -5.1377836e-05 -0.0006682036 0.018164804 -0.00017422189 -0.00021595505 0.03580937 -0.068097904
-0.010957235 -0.00012340947 0.013399191 0.034587756 -0.1989157 -0.026730984 0.06631617 -0.0006234718
-0.066935286 0.0016050128 -0.0001691944 0.050502412 0.0059519303 -0.015211892 -0.013765118 -0.024028586
0.0014967943 -0.0056201583 -0.030047646 -8.166204e-05 -0.003588222 0.13783891 -0.00043026093 -0.00023724748
-0.1152398 -0.03149844 -0.001977166 -0.00013189767 -0.11738509 -0.022522915 -6.2234234e-05 -0.0002446315
-4.5915473e-05 -0.00011504849 -0.0038972702 -0.086881645 -0.033913042 -0.022673529 -0.03511914 -0.01853251
00000000: 3b56 5f3d b6ae bfb9 09ce b9b9 277d 26bc
00000010: 6851 34bb 4ae8 123e e7f9 2cbd e6f3 88bb
00000020: 66cb e63b 8f94 b13c ea41 29bc 0ae9 56bb
00000030: 682b ecbc 960a 6d3d 6693 13bb 3eb8 ccbd
00000040: e57b 96bb 3c1d f8bc fb51 6dbc 7183 83b9
00000050: f583 a4b8 ee65 c6b9 9f6e 7fbc 3921 0eb9
00000060: fc2f 9d3b 3808 2f3c ee3c 5ebb 71e0 b0bd
00000070: 323b b7b9 1793 bbbb 1979 19bd ab24 b4bc
00000080: 2369 99ba 58ef f5b8 17af 65bc 9b10 90b9
00000090: 1b10 34bd b387 0d3d 3e4d a7bc a975 7dbc
000000a0: 503c 57bc c5b1 80b9 40e9 c23c e70c 563e
000000b0: d7fe 19be f717 6fbd 1714 35bc dee8 8cbe
000000c0: 94f7 36bd 5dee 34bc cebd 2f3d a5c9 633d
000000d0: 1686 06ba bee1 043d 4e46 4bba 7f96 8ab9
000000e0: a0a7 673b 7218 84bd 9216 05bc d4a7 ff3b
000000f0: dc28 7fb8 3a94 83b7 3ba7 01bc ce7e 11bc
00000100: 3026 b63e b29f b3bc 0db8 093c 2bd6 623d
00000110: 58b4 7abd bf23 20b8 51d4 ef3b f55a 0ab9
00000120: 1669 87bd 7e5b 77bd 6909 46bb 1780 b83d
00000130: 4ec6 7fbd 2550 55bc d034 7bba 3023 37bd
00000140: 3db5 d9bc 887e 57b8 622a 2fba 5bce 943c
00000150: 55af 36b9 fe71 62b9 d9ac 123d ea76 8bbd
00000160: f985 33bc 7a67 01b9 4888 5b3c e4ab 0d3d
00000170: 8fb0 4bbe f0fa dabc c6d0 873d 7c70 23ba
00000180: 5e15 89bd 4b5f d23a c769 31b9 9edb 4e3d
00000190: 6908 c33b 4d3b 79bc 1787 61bc 99d7 c4bc
000001a0: 1530 c43a 4e29 b8bb 7b26 f6bc f941 abb8
000001b0: 6028 6bbb a525 0d3e a594 e1b9 a3c5 78b9
000001c0: d802 ecbd 8204 01bd 5793 01bb 034e 0ab9
000001d0: 9867 f0bd fa81 b8bc c083 82b8 e241 80b9
000001e0: 5d95 40b8 3046 f1b8 5869 7fbb 01ef b1bd
000001f0: 67e8 0abd d6bd b9bc 16d9 0fbd 7ed1 97bc

cbam2.ChannelGate.mlp.1.weight f4 [8, 128]
0.011669752 -1.0903883e-06 -1.4139543e-05 9.204795e-06 -2.4297426e-05 -0.037249885 0.0010168268 -2.0998723e-05
2.104344e-05 0.0047299997 -0.0010793556 -4.866358e-05 1.7752356e-05 0.017697306 0.004144548 8.139743e-06
-2.4129902e-05 -0.00018217326 -0.0017743584 -4.0011532e-08 -1.5424846e-06 1.9310151e-07 6.410668e-06 -3.7392576e-06
0.0017650053 -0.00042584864 1.443639e-06 0.015283786 2.8498079e-07 7.4373356e-06 0.006857838 -0.0017278166
7.516342e-07 8.05121e-08 -2.8555065e-05 -1.969393e-07 0.0041020415 -0.0013853712 -1.2054379e-05 0.00034185455
-2.7379436e-05 9.192191e-07 -0.00092218834 -0.056246076 0.17457642 1.2949937e-05 0.008397615 0.050590616
-0.0017834947 5.3402728e-06 0.045752984 0.067589454 -0.0001085078 0.0034811785 -1.0872106e-06 1.2763878e-07
7.082368e-05 0.010682539 -2.2799304e-07 0.07193863 2.4469134e-07 2.471696e-07 -0.00024047216 5.0488584e-06
-0.01438903 0.07127365 -4.280559e-06 0.09085462 -0.00034836747 4.896819e-08 -2.9211918e-05 -3.1551437e-08
-0.0014134729 0.05146206 3.6486963e-05 0.00064908096 -0.00084164325 -0.0005826098 5.7684533e-06 0.01474618
0.0032263834 2.7692176e-08 -8.373805e-05 0.001336073 6.379807e-08 4.7038875e-06 0.014556142 0.019603692
5.561655e-06 -4.007676e-06 -0.0030993365 -0.0023607516 1.7850947e-05 -9.1420494e-05 -0.014840493 3.4610485e-07
0.044431556 -0.035146922 3.5499272e-06 0.0012707473 0.035509743 -1.3419901e-05 9.891728e-06 0.066119194
0.0124147255 -1.9451596e-05 -0.0001425443 -2.7520534e-06 2.0826817e-06 0.020049095 5.7928042e-05 -5.7865844e-07
0.09961597 0.015347885 -0.000117815696 -6.009459e-07 -0.000858892 0.0010705341 -0.00014064698 1.3623568e-07
-3.299273e-07 7.754972e-08 1.0134352e-06 0.019448813 0.018298095 0.0042303763 0.013406689 0.00011142289
-7.966282e-05 -6.563611e-08 9.276571e-08 -5.582007e-07 7.0962487e-06 0.0005624536 5.6303663e-05 -7.5931587e-07
1.0127997e-06 6.667721e-06 -1.0554737e-05 -4.111805e-06 -1.2968978e-07 0.0009839261 0.00028649252 -1.9670008e-06
1.7015844e-06 1.7416529e-05 -0.00023254586 3.029135e-06 -1.1479168e-05 4.927522e-09 5.984689e-08 1.4702104e-07
0.00015403266 7.514003e-07 -4.9413853e-08 7.6176475e-05 1.1270023e-08 4.511655e-07 -1.6726797e-05 1.2692105e-05
-1.56979e-07 -5.7635177e-09 -1.5272652e-06 5.124957e-07 0.00060461083 -1.6105178e-05 -1.4897255e-07 -8.6827484e-08
7.8827213e-07 -7.0245653e-07 -0.00027511522 -0.010597903 -0.00084180094 2.2030843e-06 0.00038274538 0.00034668393
1.4945193e-05 4.9021004e-08 0.00027605167 0.00087527686 -3.4657896e-07 -0.00063253334 -2.006124e-07 1.6729073e-08
2.0289411e-07 0.00053288 6.1732186e-07 -4.482896e-05 -1.7512211e-07 3.315677e-09 -5.2561084e-08 4.5766436e-07
-0.0010364347 0.00019058901 -7.0770193e-07 0.0005812434 7.855144e-05 -1.2542406e-08 1.7733528e-06 -1.3419111e-09
-0.0001469333 -0.00048894994 -2.7224462e-06 0.00040572754 -3.5080237e-05 3.8970793e-06 5.3602125e-06 -0.0008784361
0.00010188888 1.994329e-09 -2.916236e-06 0.0005208946 -1.584752e-08 5.0127995e-09 0.0004973312 -0.00020490882
4.3726985e-07 -3.902308e-07 -4.6156332e-05 -4.117532e-05 -1.06079815e-05 -1.0064653e-06 -0.0006753242 -1.5070091e-08
0.00027859383 -0.000327173 -5.1342422e-08 -0.00048655394 -1.4246035e-05 1.4203135e-07 -8.389023e-07 0.00014758727
-0.00070110365 -1.7189798e-06 -4.2569678e-05 -2.715622e-08 -2.1089618e-07 -0.025034016 -4.5493215e-07 -2.8598877e-06
-0.00012644638 0.0005346227 -1.7769955e-05 -1.13164035e-07 3.2471424e-05 3.6935304e-05 1.7572824e-09 7.885745e-09
-6.224832e-08 4.3592903e-09 -2.0619316e-08 3.5404846e-05 0.0006197711 0.00027419138 0.000101085396 2.1757447e-05
00000000: 7d32 3f3c 7559 92b5 e038 6db7 4b6e 1a37
00000010: 53d2 cbb7 5693 18bd 0c47 853a 6a26 b0b7
00000020: 7186 b037 1dfe 9a3b 2a79 8dba 1f1c 4cb8
00000030: e5ea 9437 f1f9 903c fdce 873b ee8f 0837
00000040: 926a cab7 c305 3fb9 9791 e8ba 25d9 2bb3
00000050: 5e07 cfb5 5757 4f34 381b d736 f5ef 7ab6
00000060: c057 e73a 7044 dfb9 0fc3 c135 d868 7a3c
00000070: 76ff 9834 3a8e f936 b7b7 e03b e877 e2ba
00000080: e9c3 4935 ffe5 ac33 8989 efb7 4376 53b4
00000090: 6b6a 863b 5895 b5ba 2a3d 4ab7 f13a b339
000000a0: e4ac e5b7 41c0 7635 03bf 71ba 4962 66bd
000000b0: 29c4 323e 8e43 5937 2696 093c 1b38 4f3d
000000c0: 27c4 e9ba 9830 b336 7b67 3b3d 576c 8a3d
000000d0: ae8e e3b8 7c24 643b 46ec 91b5 150d 0934
000000e0: 2c87 9438 d105 2f3c 40ce 74b4 8f54 933d
000000f0: 1f5e 8334 bbb2 8434 4127 7cb9 5d69 a936
00000100: f7bf 6bbc ebf7 913d b9a1 8fb6 fd11 ba3d
00000110: 17a5 b6b9 1851 5233 1e0c f5b7 2c83 07b3
00000120: 4844 b9ba e2c9 523d 9409 1938 1627 2a3a
00000130: b9a1 5cba 48ba 18ba a38e c136 f699 713c
00000140: bb71 533b bddf ed32 869c afb8 2c1f af3a
00000150: 5c01 8933 16d6 9d36 e27c 6e3c ec97 a03c
00000160: 419e ba36 ad79 86b6 3d1e 4bbb d7b6 1abb
00000170: 9ebe 9537 01b9 bfb8 8a25 73bc 4ad0 b934
00000180: ddfd 353d 38f6 0fbd 493b 6e36 348f a63a
00000190: aa72 113d 0926 61b7 a6f4 2537 8069 873d
000001a0: 2267 4b3c fc2b a3b7 f277 15b9 ebaf 38b6
000001b0: 33c4 0b36 003e a43c c3f7 7238 1b55 1bb5
000001c0: 7503 cc3d b275 7b3c d213 f7b8 b050 21b5
000001d0: 4427 61ba 2a51 8c3a a37a 13b9 2e48 1234
000001e0: dd20 b1b4 6989 a633 5e05 8835 1e53 9f3c
000001f0: e3e5 953c f89e 8a3b bba7 5b3c b5ab e938
00000200: a710 a7b8 d5f3 8cb3 7d36 c733 43d7 15b5
00000210: 501c ee36 9f71 133a 9927 6c38 cad3 4bb5
00000220: 88ef 8735 4abb df36 4014 31b7 23f8 89b6
00000230: db40 0bb4 15f7 803a 6034 9639 d100 04b6
00000240: ff61 e435 b619 9237 8ed7 73b9 2548 4b36
00000250: a796 40b7 f14e a931 2d85 8033 d6dc 1d34
00000260: d483 2139 d6b3 4935 1b3b 54b3 efc0 9f38
00000270: 169e 4132 b737 f234 8650 8cb7 2df0 5437
00000280: 0f8e 28b4 7008 c6b1 6ffc ccb5 7092 0935
00000290: bf7e 1e3a 9b19 87b7 43f5 1fb4 ea75 bab3
000002a0: a699 5335 7290 3cb5 573d 90b9 d4a2 2dbc
000002b0: 4eac 5cba b3d8 1336 37ab c839 21c3 b539
000002c0: 1dbd 7a37 2a8b 5233 07bb 9039 d672 653a
000002d0: 7311 bab4 98d0 25ba eb67 57b4 9fb3 8f32
000002e0: 1cdb 5934 f9b0 0b3a 09b6 2535 bb06 3cb8
000002f0: 3309 3cb4 02da 6331 86bf 61b3 e9b4 f534
00000300: fad8 87ba d9d8 4739 e8f8 3db5 965e 183a
00000310: fcbb a438 167a 57b2 f003 ee35 4d6e b8b0
00000320: 1b12 1ab9 e02c 00ba 45b3 36b6 d4b7 d439
00000330: 1e23 13b8 a8c3 8236 e0db b336 d946 66ba
00000340: 2dad d538 9b0c 0931 8eb4 43b6 a58c 083a
00000350: 1121 88b2 0d3d ac31 555f 023a cbdc 56b9
00000360: e9c1 ea34 ea80 d1b4 fc97 41b8 aab3 2cb8
00000370: eff8 31b7 e215 87b5 3d08 31ba 7b73 81b2
00000380: 3b10 9239 6b88 abb9 9783 5cb3 2a18 ffb9
00000390: 4102 6fb7 4881 1834 ed30 61b5 a8c1 1a39
000003a0: 45ca 37ba b2b7 e6b5 d88c 32b8 2945 e9b2
000003b0: b372 62b4 2314 cdbc 663d f4b4 7fec 3fb6
000003c0: b196 04b9 ec25 0c3a b010 95b7 9604 f3b3
000003d0: ed31 0838 fbea 1a38 e184 f130 e079 0732
000003e0: 60ad 85b3 b9c8 9531 5b1e b1b2 aa7f 1438
000003f0: 2278 223a 58c1 8f39 cffd d338 c383 b637

cbam2.ChannelGate.mlp.1.bias f4 [8]
-0.04824792 -0.008032067 -2.1149588e-05 -0.0009043712 0.30664527 2.46496e-06 -0.07021116 -0.046662677
00000000: 9c9f 45bd ee98 03bc 656a b1b7 5313 6dba
00000010: 9c00 9d3e b16b 2536 deca 8fbd 5d21 3fbd

cbam2.ChannelGate.mlp.3.weight f4 [128, 8]
0.04115523 0.0002588021 6.141924e-25 -4.66281e-09 0.07069169 -9.0956995e-08 0.1395042 0.016319696
-2.038938e-09 -2.9955324e-10 6.242899e-30 -3.5071206e-16 1.0124221e-08 -1.0742403e-12 1.950659e-08 -4.4629744e-09
-3.9470773e-08 6.2676904e-09 -6.2063045e-32 -9.667179e-10 -4.776476e-07 -8.257579e-12 -5.081906e-07 -1.3230175e-07
4.5751212e-06 -5.4032415e-07 2.2895076e-26 3.25758e-12 1.2235715e-05 -1.8766351e-11 4.7584384e-05 7.959255e-07
-1.6436923e-07 1.2033515e-06 -1.4384088e-30 4.523824e-06 1.850813e-05 -1.6414725e-11 -1.2891866e-05 -6.3300713e-06
0.0036484431 0.00020930536 -6.0869005e-25 -1.3821049e-08 0.41757953 0.00013330721 0.12675293 -0.0053778463
-0.0005783023 3.827652e-06 -5.9542117e-25 7.3081055e-11 -0.0079697445 -8.431192e-10 -0.0032569189 -0.0039391518
-1.3923474e-07 7.294442e-09 -8.529423e-31 3.115617e-13 -6.940263e-07 -1.7888411e-11 -2.7015943e-07 -6.6216295e-08
-0.00028976772 -3.2508108e-08 9.3394253e-29 4.0153015e-13 0.0006442189 -9.051123e-11 -0.0024074425 -2.3495679e-05
0.050251696 6.472929e-05 2.8258072e-25 2.863935e-09 -0.04347073 1.9460064e-07 0.22520137 0.06594453
-0.0006255679 -5.9799765e-07 1.4033511e-25 1.03014465e-10 -0.00408816 3.4082515e-09 -0.0019176969 -0.002247097
-5.3240232e-08 2.9682928e-08 5.7266737e-28 1.5273738e-15 -4.4993587e-07 -1.2421328e-11 -4.4319788e-07 -6.1441476e-08
-2.0570567e-05 5.4604858e-08 -1.9982488e-26 2.9801116e-12 -3.1571468e-05 -5.687092e-10 -8.396069e-05 -6.525189e-05
-0.11026143 -0.0017066122 -1.5532244e-25 -1.02055155e-08 -0.04979494 -3.4226443e-07 -0.4224384 -0.21186656
0.009560684 -0.00014675099 3.387435e-26 1.2572244e-09 0.035579845 9.02739e-08 0.06994565 -0.0012638536
-2.1087706e-05 -2.014431e-06 3.6668792e-31 -1.7772764e-14 -0.007184799 -4.7971223e-09 -0.0028894178 -2.1558393e-05
-1.4506648e-07 1.4496859e-08 6.6078924e-31 4.560523e-14 -1.0821138e-06 -1.1522122e-11 -6.484858e-07 -1.3372355e-07
-1.4355622e-05 -1.1834366e-06 -1.7806343e-28 -1.7303474e-15 -0.0018856889 2.5145674e-09 -0.0017151721 -7.4677127e-06
-0.012269226 6.151758e-05 4.0141204e-25 4.4446606e-09 -0.049121037 -1.104808e-08 -0.04610452 -0.033341978
-3.137467e-09 -2.2708546e-10 -4.80988e-27 5.040289e-14 -4.9767164e-09 -1.2636847e-12 -5.9499237e-09 -2.8556901e-09
2.6692617e-09 2.8720555e-09 -2.1823926e-28 1.1912282e-15 -1.8784739e-06 -5.6373817e-14 -2.193944e-06 -5.2832725e-09
2.1545574e-09 -1.6237171e-11 -9.356939e-30 4.903358e-16 -2.1659545e-09 -6.327421e-13 8.546314e-09 -3.2562746e-09
5.4282424e-05 5.38289e-09 1.4338818e-28 8.501223e-14 -0.00019708309 -1.4129631e-11 -0.00013406208 1.2892944e-07
-7.562543e-09 -9.343625e-09 -4.2005604e-31 -1.3790836e-13 -1.7388066e-08 -4.7556696e-13 -2.3637623e-08 -4.0807078e-09
0.05484097 -2.602048e-05 9.266934e-17 -4.990027e-09 -0.040504836 3.63117e-08 0.25265044 0.07126565
-3.8617625e-05 -1.01641284e-07 6.9349995e-26 -3.0043933e-11 -4.863456e-05 3.4157632e-09 -0.0001361931 -6.6664725e-05
2.8951954e-08 7.1714754e-09 -1.1200361e-28 1.8364655e-14 -1.5366375e-08 -2.7288435e-11 1.0357462e-07 -3.47163e-08
0.020017201 5.1839335e-05 -1.6728856e-25 2.357134e-09 0.044931043 1.228724e-08 0.11115817 0.036579154
-6.338048e-09 -6.6440664e-10 1.8025665e-29 6.933783e-16 -1.2203209e-08 -2.0379652e-13 -2.5051452e-09 -3.386086e-09
-0.00023871046 4.6729788e-08 5.1971226e-29 -3.5172677e-15 -0.0010277104 -6.775535e-11 -0.0013125573 -3.0730853e-06
0.014526966 -0.0003017715 7.377704e-26 -4.15463e-09 0.05539925 6.7914044e-07 0.098312 -0.0025064605
0.0024862478 1.531456e-06 1.076906e-24 -1.417355e-10 -0.0051665544 -2.7827743e-10 0.018501993 0.0021885172
00000000: 6392 283d d4af 8739 5615 3e17 8336 a0b1
00000010: cec6 903d 2354 c3b3 30da 0e3e e2b0 853c
00000020: 601d 0cb1 5fae a4af f83d fd0e f72b caa5
00000030: cbee 2d32 962f 97ab 728f a732 bd58 99b1
00000040: 9386 29b3 305b d731 f81f a18b 5ddd 84b0
00000050: b137 00b5 d444 11ad 986a 08b5 d40e 0eb4
00000060: fe83 9936 cb0a 11b5 eabd e214 583b 652c
00000070: ff47 4d37 1112 a5ad 5895 4738 95a7 5535
00000080: 787d 30b4 d882 a135 2a65 e98d 5acb 9736
00000090: e841 9b37 ad62 90ad 254a 58b7 e666 d4b6
000000a0: b81a 6f3b fb78 5b39 6561 3c97 9e71 6db2
000000b0: fccc d53e 62c8 0b39 85cb 013e a538 b0bb
000000c0: 3699 17ba 486f 8036 2046 3897 fab4 a02e
000000d0: 8893 02bc 3dc1 67b0 0872 55bb 0014 81bb
000000e0: 8e80 15b4 97a2 fa31 d665 8a8d c664 af2a
000000f0: 204d 3ab5 1f59 9dad 6e0a 91b4 cb32 8eb3
00000100: f7eb 97b9 0b9f 0bb3 56c8 ec10 980a e22a
00000110: cce0 283a 4b09 c7ae 2fc6 1dbb 9618 c5b7
00000120: b9d4 4d3d 46bf 8738 b4e8 ae16 e1ce 4431
00000130: 5d0e 32bd 6bf3 5034 309b 663e ed0d 873d
00000140: 27fd 23ba 1686 20b5 f9b9 2d16 fd87 e22e
00000150: f9f5 85bb 9836 6a31 3b5b fbba 0844 13bb
00000160: 41aa 64b3 73f9 fe32 4c7c 3512 261e dc26
00000170: b78e f1b4 b084 5aad a7f0 edb4 cff1 83b3
00000180: f58e acb7 ad86 6a33 a0e5 c594 ebb4 512c
00000190: 9b6b 04b8 5a53 1cb0 0d14 b0b8 d7d7 88b8
000001a0: bfd0 e1bd 67b0 dfba a547 4096 5554 2fb2
000001b0: c7f5 4bbd 77c0 b7b4 d949 d8be 8cf3 58be
000001c0: 6aa4 1c3c 2be1 19b9 d7bc 2715 a7ca ac30
000001d0: 2cbc 113d 9adc c133 aa3f 8f3d e4a7 a5ba
000001e0: 81e5 b0b7 a92f 07b6 7bfe ed0c 3415 a0a8
000001f0: 766e ebbb efd3 a4b1 635c 3dbb 4cd8 b4b7
00000200: 92c3 1bb4 dc0d 7932 3970 560d 4063 4d29
00000210: 263d 91b5 06b3 4aad 9b13 2eb5 a695 0fb4
00000220: edd8 70b7 92d6 9eb5 e3b8 6191 8d5e f9a6
00000230: 3829 f7ba bdcc 2c31 a0cf e0ba 2a93 fab6
00000240: dd04 49bc 0003 8138 4776 f816 a6b7 9831
00000250: 2433 49bd f8cd 3db2 18d8 3cbd 9991 08bd
00000260: e79a 57b1 e0ae 79af fa89 be93 93fe 6229
00000270: a9ff aab1 0ad9 b1ab 1570 ccb1 d53d 44b1
00000280: 266e 3731 bc5d 4531 5853 8a91 90ac ab26
00000290: df1f fcb5 96e2 7da9 ac3b 13b6 2888 b5b1
000002a0: 600f 1431 dcd2 8ead 01c8 3d8f 6554 0d26
000002b0: e0d7 14b1 e019 32ab 16d3 1232 fdc4 5fb1
000002c0: 4fad 6338 67f4 b831 20c4 3511 376e bf29
000002d0: 17a8 4eb9 3392 78ad 0493 0cb9 db6f 0a34
000002e0: 6aec 01b2 b385 20b2 e450 088d 6145 1baa
000002f0: c35c 95b2 36dc 05ab af0b cbb2 4936 8cb1
00000300: eda0 603d 8e46 dab7 53ae d524 be74 abb1
00000310: 66e8 25bd 23f5 1b33 665b 813e baf3 913d
00000320: 5cf9 21b8 e345 dab3 c8b3 ab15 7622 04ae
00000330: f6fc 4bb8 beba 6a31 0fcf 0eb9 5ace 8bb8
00000340: 05b2 f832 f768 f631 40fb 0d91 036a a528
00000350: 04ff 83b2 1808 f0ad c06c de33 fa1a 15b3
00000360: 1dfb a33c 106e 5938 dc17 4f96 24fb 2131
00000370: 9d09 383d da17 5332 e5a6 e33d 06d4 153d
00000380: 0fc6 d9b1 76a1 36b0 4dcd b60f 4ada 4726
00000390: 48a6 51b2 5974 65aa fb26 2cb1 a8b0 68b1
000003a0: 5a4e 7ab9 f2b3 4833 41c3 8310 2372 7da7
000003b0: 3db4 86ba dffe 94ae 1d0a acba 343b 4eb6
000003c0: 8302 6e3c 1637 9eb9 c1a9 b615 83c0 8eb1
000003d0: 53ea 623d 2d4e 3635 cd57 c93d 6e43 24bb
000003e0: 51f0 223b 6d8c cd35 a4a4 a617 ffd6 1baf
000003f0: 334c a9bb 11fc 98af 7e91 973c 3a6d 0f3b
