models/ETH_UCY/zara2.pt (torch, 448466 bytes, 33 tensors)

conv2Da.weight f4 [64, 2, 2, 2]
0	0xb91f0ddd	-0.00015168586
1	0xba3ec964	-0.00072779343
2	0xb9a85d7f	-0.00032113117
3	0xba506992	-0.00079503015
4	0xbadc9ae3	-0.0016830828
5	0xbb58c563	-0.0033076636
6	0xb86fcb06	-5.717112e-05
7	0xb921ab38	-0.0001541794
8	0xbdafd0b7	-0.08584731
9	0xbab1fd39	-0.0013579495
10	0x3e07fa1d	0.13279004
11	0xbde94989	-0.11390979
12	0xbbe8bf26	-0.007102865
13	0xbcbc1cd7	-0.02296297
14	0x3cb75821	0.02238089
15	0x3ccb22fd	0.024796957
16	0x3d6033f7	0.054737058
17	0x3d0b2a23	0.03397573
18	0xbdcb6651	-0.09931625
19	0xbd25ca8f	-0.040476378
20	0xbdaa1c92	-0.083062306
21	0xbd766c0c	-0.060161635
22	0x3df06b5a	0.11739226
23	0x3e16f5b4	0.14742166
24	0xbdfbbefb	-0.12292286
25	0x3de5c16d	0.11218534
26	0x3edd5ee5	0.4323646
27	0xbe4e1b64	-0.20127636
28	0x3d8b5966	0.06804161
29	0xbd1641e2	-0.036683924
30	0x3d83d974	0.0643796
31	0x3da72bc3	0.08162644
32	0x393e99c7	0.00018177099
33	0xba4b0a19	-0.000774534
34	0x3950e24d	0.0001992073
35	0xba237f70	-0.0006236946
36	0xba83b4e9	-0.0010048422
37	0xbb009f67	-0.0019626261
38	0xbab0ead1	-0.0013497715
39	0xb9f621f1	-0.00046946065
40	0x3e2477fd	0.16061397
41	0x3dc82f5d	0.09774659
42	0xbeb66153	-0.35621127
43	0xbe861aee	-0.2619242
44	0x3dfd4d1b	0.12368222
45	0xbe395c4d	-0.18101616
46	0x3d352e99	0.044233892
47	0x3e35049d	0.17677541
48	0x3db5b03e	0.08871506
49	0xbeba764f	-0.36418387
50	0x3f1b4791	0.60656077
51	0x3f88855c	1.0665698
52	0x3d61eefa	0.055159546
53	0x3eeb2bdc	0.459319
54	0x3e351263	0.17682795
55	0xbd534a2e	-0.051584415
56	0x3da1d392	0.07901682
57	0x3c8f896a	0.017521579
58	0xbe0ee80c	-0.13955706
59	0xbdd322f4	-0.10309401
60	0x3d34f04e	0.044174485
61	0xbcc465f6	-0.0239744
62	0x3d5139fb	0.051080685
63	0x3e3f6eaa	0.18694559
64	0x3e005fc1	0.12536527
65	0x3d138ba6	0.03602185
66	0xbf40ec26	-0.75360334
67	0x3eee5fea	0.46557552
68	0x3ac6b20b	0.0015159262
69	0x3daf8b9a	0.08571549
70	0x3da83f02	0.08215143
71	0xbdb0270b	-0.08601197
72	0x3b58f83f	0.003310695
73	0xbb3b4887	-0.0028577165
74	0xba291b71	-0.00064509275
75	0xbbbc5d4f	-0.005748428
76	0xbcbae45c	-0.022813968
77	0xbd0fa522	-0.035069592
78	0x3ca5c78b	0.020236751
79	0x3ccd2adc	0.025044851
80	0xbe287856	-0.16452155
81	0x3ecc6b40	0.39925575
82	0xbf6b95d6	-0.92025506
83	0x3f129d04	0.57270837
84	0xbde16cb7	-0.11007064
85	0xbd6e9d2b	-0.058255356
86	0xbd8b2cd6	-0.06795661
87	0x3e02d9ab	0.12778346
88	0x3e102b0d	0.14078923
89	0x3d1e3577	0.038625207
90	0xbf34601c	-0.7045915
91	0xbe3a0ebc	-0.18169683
92	0x3e1f10c7	0.15533744
93	0xbddbe3b6	-0.10736792
94	0x3e0b31c3	0.13593201
95	0x3f0a50e4	0.5402968
96	0xbdae688d	-0.08516035
97	0xbdf81703	-0.12113764
98	0x3f3a2e0b	0.72726506
99	0xbe1de64a	-0.1541988
100	0x3f244a3f	0.6417579
101	0xbefa8fb2	-0.48937756
102	0xbde7d2cb	-0.113195024
103	0x3d8b66b0	0.068066955
104	0x3d1b7c82	0.037960537
105	0x3cfc80ce	0.030823138
106	0xbe1fb621	-0.1559682
107	0x3e9b0f9e	0.30285352
108	0x3d660eec	0.056166574
109	0xbc31f8f0	-0.010862574
110	0x3e414ce1	0.18876983
111	0x3c0cdf13	0.008598107
112	0xbeb3053e	-0.34964937
113	0x3eb67c6a	0.35641795
114	0x3f92ee2b	1.1478933
115	0xbf0f9218	-0.56082296
116	0xbd8899b0	-0.066699386
117	0x3ca56198	0.020188138
118	0x3e92bafc	0.28658283
119	0x3e828ad3	0.2549654
120	0xbbd76f37	-0.006574537
121	0xbb2dc10c	-0.002651277
122	0xbc773956	-0.015089354
123	0xbaf104c0	-0.0018388256
124	0x3c9a3240	0.01882279
125	0x3b0facc2	0.002192304
126	0xbc86b486	-0.016443502
127	0xbcb9c13a	-0.022675145
128	0x3e3685f6	0.1782454
129	0x3db636e1	0.08897186
130	0xbe985040	-0.29748726
131	0x3e3954b3	0.18098716
132	0x3db82eb0	0.0899328
133	0xbc04065e	-0.008058159
134	0x3e8bd039	0.273073
135	0x3d372e1f	0.04472172
136	0x3e88dd6d	0.26731434
137	0xbe992a71	-0.29915193
138	0x3f0268b7	0.5094103
139	0xbf201f10	-0.625474
140	0x3eede910	0.46466875
141	0xbe894e48	-0.26817536
142	0xbd7bd72e	-0.06148451
143	0xbd44c6ff	-0.04804134
144	0x3e8efb9a	0.27926332
145	0x3e9400fe	0.28907007
146	0x3f08571d	0.53257924
147	0x3eb357fb	0.3502806
148	0xbd66ce6c	-0.056349203
149	0xbe4ac757	-0.19802605
150	0xbe033719	-0.12813987
151	0x3d676866	0.056496046
152	0x393fb706	0.00018283361
153	0xb987272f	-0.000257784
154	0x39258e1a	0.00015788563
155	0xb9e73232	-0.00044097152
156	0xba0ebfff	-0.000544548
157	0xbbf02290	-0.007328339
158	0x39a76707	0.00031929484
159	0xbaed000b	-0.0018081678
160	0x3ca0b015	0.019615212
161	0x3d6af3cb	0.057361405
162	0x3ec424b4	0.38309252
163	0xbf3f0685	-0.74619323
164	0xbe3dc540	-0.18532276
165	0x3ceaca2c	0.028660856
166	0x3d145738	0.03621599
167	0x3e6e6fde	0.23284861
168	0xbb1ea12e	-0.0024204957
169	0xbc50b55c	-0.012738552
170	0xbb94e031	-0.0045433273
171	0xbc5712b0	-0.013127014
172	0xbcfcd68a	-0.030864019
173	0xbc74e2ec	-0.0149466805
174	0x3aae9bcb	0.0013321576
175	0x3d37ac73	0.044842195
176	0xbe1fb37f	-0.15595816
177	0xbd13b1a0	-0.03605807
178	0x3f8ffcfa	1.1249077
179	0x3f088ce8	0.53340006
180	0x3e38fcbe	0.18065163
181	0xbe9d8f25	-0.30773273
182	0x3d9492de	0.07254575
183	0xbe1d241d	-0.15345807
184	0xbb72f53a	-0.0037072436
185	0xbab0c1ee	-0.001348553
186	0xbc0850c4	-0.008320037
187	0xbab156e9	-0.001352993
188	0x3c387927	0.011259354
189	0xbaf71c23	-0.001885299
190	0xbca5f8b1	-0.020260187
191	0xbccb6651	-0.024829062
192	0xbdfa21ad	-0.122134544
193	0x3d7c3437	0.061573233
194	0x3eeceb24	0.46273148
195	0x3e1cdc48	0.15318406
196	0x3b44bfa5	0.0030021456
197	0xbda55521	-0.08072878
198	0x3d8f0b2a	0.06984551
199	0xbdf7fa33	-0.121082686
200	0x3e8caaf2	0.2747417
201	0x3d9a0b86	0.07521729
202	0x3f1c3728	0.6102166
203	0xbda0ac23	-0.078453325
204	0xbe54363c	-0.20723814
205	0xbe8d9986	-0.27656192
206	0xbbb615a5	-0.0055567794
207	0x3d3e114d	0.046403218
208	0x38ea71eb	0.000111792084
209	0xb9e84f3a	-0.00044309517
210	0x3748fdd0	1.1980024e-05
211	0xba25c934	-0.0006324232
212	0xba1719e1	-0.0005764049
213	0x39437dd0	0.00018643518
214	0xbaec6332	-0.0018034934
215	0xb9e37458	-0.00043383497
216	0xbcecfda0	-0.028929532
217	0xbb87ab75	-0.0041403123
218	0xbd8ec46f	-0.069710605
219	0x3c9f78db	0.019466808
220	0xbb2e24e2	-0.0026572277
221	0x3da89a96	0.0823261
222	0x3dbeea4a	0.09322031
223	0x3d88b983	0.066760086
224	0x3e27be13	0.16381101
225	0xbc0afb20	-0.008482724
226	0xbea0eaef	-0.3142924
227	0x3d8d3f04	0.06896785
228	0x3dc4512d	0.095857956
229	0x3e5ef930	0.21774745
230	0x3e94b93d	0.29047576
231	0x3d82c96f	0.06386077
232	0x3b199f28	0.0023440812
233	0xba73a10f	-0.0009293714
234	0x3b014920	0.0019727424
235	0xba373b57	-0.00069897383
236	0xb866bed4	-5.5013996e-05
237	0x392734e5	0.00015946066
238	0xba12e0fb	-0.0005602983
239	0x38ae72bf	8.31834e-05
240	0xbeac413d	-0.33643523
241	0xbea42c15	-0.32064882
242	0x3f138547	0.5762524
243	0x3fa735d1	1.3063298
244	0x3e2189c3	0.15775208
245	0xbd5d5ee4	-0.054045573
246	0x3e271e8e	0.1632025
247	0x3da8b298	0.08237189
248	0x3e84e946	0.25959224
249	0xbc33f5ae	-0.010983868
250	0xbf28bc0a	-0.65911925
251	0xbfd7fe0d	-1.6874405
252	0x3e443940	0.19162464
253	0x3e29b89c	0.16574329
254	0x3e2d24af	0.16908525
255	0xbd86a459	-0.065743156

conv2Da.bias f4 [64]
0	0xbaadc36d	-0.0013257094
1	0x39f211f1	0.00046171204
2	0x3d6a29f5	0.05716892
3	0x3c19b1ae	0.009380741
4	0xba0191aa	-0.0004942665
5	0x3dd5029c	0.10400888
6	0x3e0d7b93	0.13816671
7	0x3d186801	0.03720856
8	0x3e769448	0.24080002
9	0xbd05b0bd	-0.032639254
10	0x3e38259d	0.17983098
11	0x3e7b55e9	0.24544491
12	0x3e9febbe	0.31234545
13	0xbdc30839	-0.09523053
14	0xbdab8a88	-0.08376032
15	0xbc3ed5d0	-0.011647657
16	0xbe2d1100	-0.16901016
17	0xbe1c57f4	-0.15267926
18	0xbe1a43dc	-0.15064949
19	0xbb3abae3	-0.002849274
20	0x3ed8ff7b	0.42382416
21	0xbd04364b	-0.03227834
22	0x3e60fac1	0.21970655
23	0xbb59cd54	-0.0033233957
24	0x3d10b9bb	0.035333376
25	0x3df1691c	0.11787626
26	0xbae62b7e	-0.0017560569
27	0xbdb47946	-0.088121936
28	0xbe62689c	-0.22110218
29	0xbcc777f0	-0.024349183
30	0x3da54ec4	0.08071664
31	0x3d2d8bda	0.0423697
32	0x3c3a55d9	0.011373007
33	0x3e453276	0.1925753
34	0x3ee7b906	0.4525835
35	0xbd910ac8	-0.070821345
36	0x3dfbd56c	0.12296566
37	0x3d862d2a	0.06551583
38	0x3dfbed69	0.12301142
39	0xbea3b2ec	-0.31972444
40	0xbd0760a1	-0.033051137
41	0x3df74a93	0.12074771
42	0x3d14eb38	0.036357135
43	0x3d36b4a3	0.044605862
44	0x3e30b71a	0.17257348
45	0x3e14f9de	0.14548442
46	0xbe3d5146	-0.18488035
47	0x3d7d78ec	0.0618829
48	0xbe1db324	-0.15400368
49	0x3eb54932	0.35407406
50	0x3e35aa19	0.17740668
51	0x3d231dac	0.03982322
52	0x3e1619c3	0.14658265
53	0x3d5b17c9	0.05348948
54	0xbb06fa16	-0.002059584
55	0xbe63c33f	-0.22242449
56	0x3e47c53a	0.1950883
57	0x3e206c85	0.15666397
58	0x3d8f46a4	0.069958955
59	0x3e00f176	0.1259211
60	0x3eadb68d	0.33928338
61	0x3e178759	0.14797725
62	0xbe03751d	-0.12837644
63	0x3de16afc	0.11006734

cbam1.ChannelGate.mlp.1.weight f4 [4, 64]
0	0x0ae72238	2.2257363e-32
1	0x80000c2e	-4.369e-42
2	0x0000274d	1.4098e-41
3	0x331d30f5	3.6598937e-08
4	0x000004b0	1.682e-42
5	0xa207f750	-1.8426838e-18
6	0xa65ec742	-7.7291767e-16
7	0x367d08f6	3.7705154e-06
8	0x00002063	1.1618e-41
9	0x80001f6a	-1.1269e-41
10	0x000002d1	1.01e-42
11	0xb6bbead2	-5.600371e-06
12	0xa6137712	-5.116224e-16
13	0x8025f8cb	-3.487163e-39
14	0x2e8ab681	6.3079326e-11
15	0xb25adc70	-1.2739392e-08
16	0xad536dfd	-1.2018384e-11
17	0xb4773f30	-2.3026655e-07
18	0x00002983	1.4892e-41
19	0x0000901b	5.1695e-41
20	0x824d3bd9	-1.5078197e-37
21	0x17656fdf	7.413509e-25
22	0x0f13a0b6	7.278611e-30
23	0xafbd1e02	-3.4400222e-10
24	0x80001731	-8.32e-42
25	0x0002e7ec	2.66869e-40
26	0x00001d52	1.0518e-41
27	0x83968dd8	-8.848773e-37
28	0xafb341f3	-3.260677e-10
29	0x00000052	1.15e-43
30	0xb04c272e	-7.4270445e-10
31	0x8000baf7	-6.707e-41
32	0x000021ca	1.2121e-41
33	0x0e2d46c2	2.1357965e-30
34	0x000027ac	1.4232e-41
35	0x00003fcd	2.2887e-41
36	0x8000254b	-1.3378e-41
37	0x000009bb	3.49e-42
38	0x9d08a7af	-1.808614e-21
39	0x00002e04	1.6507e-41
40	0x2d82f73d	1.4889085e-11
41	0x00006d41	3.9193e-41
42	0x800075de	-4.2283e-41
43	0x8000255c	-1.3402e-41
44	0x000026f1	1.397e-41
45	0x0ccfa49f	3.1992478e-31
46	0x00001d7d	1.0578e-41
47	0x0f8c1f4a	1.3817118e-29
48	0x95459ffd	-3.9910042e-26
49	0x80003165	-1.772e-41
50	0x27f2bf4f	6.737591e-15
51	0xb10c3544	-2.040296e-09
52	0xb514df18	-5.545894e-07
53	0x000026e2	1.3949e-41
54	0x00003d66	2.2026e-41
55	0x800013e5	-7.137e-42
56	0xac6305c0	-3.2261832e-12
57	0x00002a19	1.5102e-41
58	0x80003ce0	-2.1838e-41
59	0xb7219141	-9.630167e-06
60	0x00000a56	3.708e-42
61	0x19c7fef3	2.0679091e-23
62	0x11d5c904	3.372936e-28
63	0x002261d0	3.157495e-39
64	0x9f378aaf	-3.8866474e-20
65	0xa450351f	-4.5147806e-17
66	0x2675d1d2	8.528581e-16
67	0xb3fc3a3f	-1.1745259e-07
68	0x9e806dd5	-1.3597953e-20
69	0xa88b8c5e	-1.5492975e-14
70	0xa8ab78ec	-1.9037255e-14
71	0xb38d9400	-6.592745e-08
72	0xa4454159	-4.2772917e-17
73	0x23a3c2e2	1.7755031e-17
74	0x2380ba53	1.39567e-17
75	0xb75e42b3	-1.3247761e-05
76	0xae98df3c	-6.951814e-11
77	0x2a762370	2.1861484e-13
78	0xb1161a2f	-2.1842756e-09
79	0x27f74295	6.862846e-15
80	0xaefb55f6	-1.1429428e-10
81	0xb278a04f	-1.447195e-08
82	0x23046f17	7.1792585e-18
83	0x1c7edd05	8.432721e-22
84	0xa881b19a	-1.43989e-14
85	0xa474c132	-5.307271e-17
86	0xa60ee740	-4.957955e-16
87	0xaa8cc0a0	-2.5002656e-13
88	0x24fe69bb	1.10334055e-16
89	0x2519f56b	1.3353785e-16
90	0x1f917c85	6.161589e-20
91	0x247067f9	5.2129773e-17
92	0x299eedb8	7.057847e-14
93	0x22bac683	5.0625583e-18
94	0xa87f17de	-1.4160519e-14
95	0x245cbe94	4.786632e-17
96	0xa295209c	-4.0421057e-18
97	0x2699ed86	1.0680889e-15
98	0xa5129374	-1.271344e-16
99	0x9f428587	-4.119155e-20
100	0xadb80de1	-2.0924542e-11
101	0x2300a7af	6.974402e-18
102	0xaf95a5f1	-2.722085e-10
103	0x236b8785	1.2768073e-17
104	0xa3ef7e47	-2.5965912e-17
105	0xa4c5af28	-8.573186e-17
106	0xa50b5a88	-1.2087001e-16
107	0xad34bd31	-1.0273824e-11
108	0x249ee883	6.891547e-17
109	0xa816fe1a	-8.381772e-15
110	0xa6534efb	-7.331237e-16
111	0xa8a57ed7	-1.8373688e-14
112	0xaf7023a2	-2.1840532e-10
113	0x248f0d14	6.203852e-17
114	0xa5b9477f	-3.2140832e-16
115	0xb0946478	-1.0796972e-09
116	0xb318f34c	-3.5611535e-08
117	0x2a87f4bb	2.4150633e-13
118	0xa091ea72	-2.4719098e-19
119	0x26a2318d	1.1254439e-15
120	0x25fe5079	4.4116507e-16
121	0x2400048b	2.7759424e-17
122	0xa4592fa2	-4.709472e-17
123	0xb15a1f61	-3.1741012e-09
124	0x2513c94b	1.2818418e-16
125	0xaee1e5e7	-1.0272654e-10
126	0xa3acfb46	-1.8754696e-17
127	0xa305294b	-7.2186886e-18
128	0x18028712	1.68703e-24
129	0x9ae0dbde	-9.2999443e-23
130	0x20f66fd1	4.1748015e-19
131	0x25091628	1.1890363e-16
132	0x1795700f	9.657187e-25
133	0xaf6ec868	-2.1717173e-10
134	0xb1272a81	-2.432586e-09
135	0xb23abb34	-1.086919e-08
136	0x1efdb5bb	2.6862579e-20
137	0x99d41fbf	-2.1933108e-23
138	0x1b0ccc6a	1.1646578e-22
139	0xb92cee40	-0.00016491953
140	0xb3ca5035	-9.4209476e-08
141	0x9aa120f0	-6.664125e-23
142	0x1e11c9c2	7.717959e-21
143	0x194345b3	1.0095339e-23
144	0x9c76b4a4	-8.1628045e-22
145	0x213ce3e6	6.39985e-19
146	0x198c0939	1.4479386e-23
147	0x964ba256	-1.6449434e-25
148	0xb160c281	-3.2706853e-09
149	0x9d12dda7	-1.943753e-21
150	0x9b94090d	-2.4490395e-22
151	0x19114503	7.510261e-24
152	0x1abf810b	7.920423e-23
153	0x1a6936df	4.8227595e-23
154	0x93d88743	-5.4659444e-27
155	0x1a155c50	3.0887047e-23
156	0x9f1751a0	-3.2043012e-20
157	0x165dd209	1.7918513e-25
158	0x9f82080a	-5.507044e-20
159	0x1c41fed4	6.41877e-22
160	0x984a6e9c	-2.6163732e-24
161	0xac34059e	-2.5582657e-12
162	0xb4ba918b	-3.4751096e-07
163	0x13c78cfb	5.037368e-27
164	0xa9a9a0c8	-7.532999e-14
165	0x9d062432	-1.7753465e-21
166	0x259e7491	2.748762e-16
167	0x163989ab	1.4987621e-25
168	0x99cdfb9d	-2.1298129e-23
169	0x1e0841cd	7.213387e-21
170	0x1dbe13a1	5.0312877e-21
171	0x1b61fddc	1.869359e-22
172	0x9a34948a	-3.7343116e-23
173	0xafb9a919	-3.3771455e-10
174	0xa3310f3f	-9.598418e-18
175	0xaabe141b	-3.376473e-13
176	0x211cf073	5.317309e-19
177	0x99e6cecf	-2.3864972e-23
178	0x235aae51	1.1854717e-17
179	0xb40b8658	-1.2994258e-07
180	0xb18e4898	-4.140997e-09
181	0x1c4d3bf1	6.7906283e-22
182	0x18bd8610	4.8990723e-24
183	0x9ac393d3	-8.088893e-23
184	0x1adf0b1f	9.2248605e-23
185	0x1e14f85c	7.886414e-21
186	0x99de54d1	-2.2988519e-23
187	0x9bbb494c	-3.0983922e-22
188	0x1f97d178	6.4297524e-20
189	0xa350f364	-1.13272426e-17
190	0x9a151cd4	-3.0835765e-23
191	0x1b82efb1	2.1661593e-22
192	0x00005f9c	3.4298e-41
193	0x963ac9f5	-1.5088687e-25
194	0x1b18abff	1.262872e-22
195	0xb5e6e88e	-1.7204018e-06
196	0x8000b25c	-6.3983e-41
197	0xb5055d91	-4.968252e-07
198	0x800026bc	-1.3895e-41
199	0xb73b4273	-1.116154e-05
200	0x800029eb	-1.5037e-41
201	0x00002606	1.364e-41
202	0x000082c2	4.6907e-41
203	0xb91533c8	-0.00014229037
204	0x961aaba8	-1.2494186e-25
205	0x06c3a045	7.358634e-35
206	0x8745589c	-1.4846673e-34
207	0x0000282b	1.441e-41
208	0xa88b6668	-1.5476512e-14
209	0xa75f36bf	-3.0977145e-15
210	0x0000436f	2.419e-41
211	0x8000805d	-4.6048e-41
212	0xa9cd293f	-9.110984e-14
213	0xb17c247b	-3.6691563e-09
214	0x80001c9d	-1.0265e-41
215	0x00007184	4.0722e-41
216	0x00000170	5.16e-43
217	0xa607a524	-4.706134e-16
218	0x80009185	-5.2203e-41
219	0xaba5900d	-1.1763937e-12
220	0x00001548	7.634e-42
221	0x8000a5a6	-5.9423e-41
222	0x80000da3	-4.892e-42
223	0x800084fc	-4.7706e-41
224	0x16c92eb7	3.2502783e-25
225	0xb1279094	-2.4383882e-09
226	0x80002f22	-1.6908e-41
227	0x0000702e	4.0242e-41
228	0x80004b1a	-2.6941e-41
229	0x0000227f	1.2375e-41
230	0xb30fd2a0	-3.3486344e-08
231	0x80002380	-1.2735e-41
232	0xb3560e7f	-4.9838942e-08
233	0x000083dc	4.7302e-41
234	0x80002ce6	-1.6107e-41
235	0x8c820248	-2.0031044e-31
236	0x0000285f	1.4482e-41
237	0xae0b5ab8	-3.1685515e-11
238	0x884dc7fb	-6.192502e-34
239	0xaf0a82a3	-1.2597438e-10
240	0x00000741	2.602e-42
241	0x00002d3a	1.6224e-41
242	0x1157026e	1.6961258e-28
243	0xb700859f	-7.660506e-06
244	0xb607ddcb	-2.0245668e-06
245	0x03aa2d90	1.0002163e-36
246	0x000087e1	4.8744e-41
247	0x8021ee6c	-3.116101e-39
248	0x0188658a	5.010421e-38
249	0x0eb1b0a4	4.3803968e-30
250	0x00003634	1.9444e-41
251	0x91cb2f30	-3.2056834e-28
252	0x0548b6fc	9.437564e-36
253	0xa44abe18	-4.3962783e-17
254	0xac0c8182	-1.9967088e-12
255	0x88253b31	-4.972246e-34

cbam1.ChannelGate.mlp.1.bias f4 [4]
0	0x1420ae92	8.1123636e-27
1	0xad0b1094	-7.904916e-12
2	0xb4a5f21e	-3.0909808e-07
3	0xaef2c389	-1.103962e-10

cbam1.ChannelGate.mlp.3.weight f4 [64, 4]
0	0x80000303	-1.08e-42
1	0x9b044109	-1.0939798e-22
2	0x1681ee01	2.0991276e-25
3	0x80009d0f	-5.6342e-41
4	0x80004358	-2.4158e-41
5	0x22246be2	2.2283257e-18
6	0x9a5bffb0	-4.549468e-23
7	0x00007943	4.35e-41
8	0x000018eb	8.939e-42
9	0x23024f72	7.064137e-18
10	0x992be1a7	-8.886063e-24
11	0x00000e77	5.189e-42
12	0x9aa95381	-7.003167e-23
13	0xb57dc78d	-9.454023e-07
14	0x1b1cf1c3	1.2982135e-22
15	0x80001cec	-1.0375e-41
16	0x00005007	2.8708e-41
17	0x1d04abb0	1.7558815e-21
18	0x9297362f	-9.542797e-28
19	0x80002d26	-1.6196e-41
20	0x00002493	1.312e-41
21	0xa2846800	-3.5888786e-18
22	0x9849c0d9	-2.6076004e-24
23	0x00001257	6.579e-42
24	0x800019f0	-9.305e-42
25	0xa6a1edb2	-1.1236047e-15
26	0x333c58fc	4.3853092e-08
27	0x80002e49	-1.6604e-41
28	0xaff493ff	-4.44885e-10
29	0xa2893024	-3.7184895e-18
30	0x19381445	9.5166704e-24
31	0x00004d6f	2.7778e-41
32	0x800062a8	-3.5391e-41
33	0x24864ff9	5.8248715e-17
34	0x344223ff	1.8080753e-07
35	0x8000a8b9	-6.0526e-41
36	0x800025fc	-1.3626e-41
37	0x1f70c82a	5.098755e-20
38	0x15851450	5.375032e-26
39	0x80008f3f	-5.1387e-41
40	0x000030eb	1.7548e-41
41	0xa4b5efb1	-7.890229e-17
42	0x9b4e4b40	-1.7064235e-22
43	0x80019b6c	-1.4759e-40
44	0x367c0f78	3.755993e-06
45	0x39525933	0.0002006039
46	0xb68c5d52	-4.183189e-06
47	0x80000172	-5.18e-43
48	0x80001f40	-1.121e-41
49	0xa35e7d45	-1.2061171e-17
50	0x25cac1d8	3.5172768e-16
51	0x00001f78	1.1289e-41
52	0x0000106e	5.894e-42
53	0x25b1b946	3.0830152e-16
54	0x19dd84d2	2.290451e-23
55	0x000020cc	1.1765e-41
56	0xa88e252f	-1.5781293e-14
57	0xb4a3f627	-3.0540215e-07
58	0xb41726fc	-1.4077153e-07
59	0x00004c8c	2.746e-41
60	0x88d1d38f	-1.2628467e-33
61	0x363e0a20	2.83181e-06
62	0x973e0365	-6.1396596e-25
63	0x000091fb	5.2368e-41
64	0x00002b23	1.5475e-41
65	0x235f758d	1.21137466e-17
66	0x9bd6abee	-3.5514437e-22
67	0x800005b6	-2.049e-42
68	0x80006e89	-3.9653e-41
69	0xa2e33168	-6.1580784e-18
70	0x19ac4a54	1.7814404e-23
71	0x80002c63	-1.5923e-41
72	0x800023a7	-1.279e-41
73	0x1f0b1741	2.945363e-20
74	0x99409285	-9.955757e-24
75	0x80008cc8	-5.0503e-41
76	0x000061f8	3.5145e-41
77	0x1a1a7bae	3.194636e-23
78	0x126c0304	7.4472186e-28
79	0x0000364d	1.948e-41
80	0x80000dae	-4.907e-42
81	0x2ae3570d	4.0383704e-13
82	0xb3709dd6	-5.6022905e-08
83	0x00006771	3.7108e-41
84	0x800039d0	-2.0739e-41
85	0xa19aefc2	-1.0498909e-18
86	0x98d9015d	-5.609456e-24
87	0x80001659	-8.017e-42
88	0x8000025e	-8.49e-43
89	0xa517c50c	-1.3163924e-16
90	0xb1014f5e	-1.8817086e-09
91	0x80001a01	-9.328e-42
92	0x00002481	1.3095e-41
93	0x20b5acab	3.0776855e-19
94	0x1747cbbc	6.4557517e-25
95	0x800031c0	-1.7847e-41
96	0x00004b05	2.6912e-41
97	0xa4ba30d6	-8.074737e-17
98	0x9d0b137a	-1.8406566e-21
99	0x00001948	9.069e-42
100	0x00001e1b	1.08e-41
101	0xa3bd6347	-2.0533467e-17
102	0x9aa7bbe6	-6.937315e-23
103	0x0000024f	8.28e-43
104	0x8000d4c7	-7.633e-41
105	0x9c90b9a6	-9.57711e-22
106	0x10eb6072	9.2839754e-29
107	0x8000a104	-5.7762e-41
108	0x8000067e	-2.329e-42
109	0x226b53f4	3.1892883e-18
110	0x18327f98	2.307038e-24
111	0x80000c92	-4.51e-42
112	0x853465a7	-8.48223e-36
113	0x241f95dd	3.4604568e-17
114	0x1b1977fa	1.269463e-22
115	0x0000aeb8	6.2677e-41
116	0x80002fa3	-1.7089e-41
117	0x1ebfe74c	2.0318574e-20
118	0x95417910	-3.907154e-26
119	0x00004dd2	2.7917e-41
120	0x919b3481	-2.4487046e-28
121	0xa7d91941	-6.025698e-15
122	0x19a6f26c	1.7261911e-23
123	0x00005987	3.2116e-41
124	0x00003347	1.8395e-41
125	0x23ebbc68	2.5558544e-17
126	0x1a518d3d	4.3334278e-23
127	0x00002cf2	1.6123e-41
128	0x00000074	1.63e-43
129	0xa0b31b5b	-3.0341882e-19
130	0x97856f40	-8.623007e-25
131	0x80001241	-6.548e-42
132	0x00001f57	1.1243e-41
133	0x23ca2d82	2.1920157e-17
134	0x1a676ae4	4.7856026e-23
135	0x00005f33	3.4151e-41
136	0x0000043a	1.516e-42
137	0x23e72ba7	2.5063558e-17
138	0x391df4e6	0.00015063919
139	0x0000a192	5.796e-41
140	0x0000956e	5.3605e-41
141	0x1d35088b	2.3959567e-21
142	0x1341cbc8	2.4460497e-27
143	0x0000607e	3.4615e-41
144	0x00002ccf	1.6074e-41
145	0x2937b226	4.0788682e-14
146	0x3299c34f	1.790036e-08
147	0x80008c2a	-5.0281e-41
148	0x800008af	-3.115e-42
149	0xa4a78e73	-7.2666023e-17
150	0x1f35854a	3.8438495e-20
151	0x00005ad8	3.2589e-41
152	0x00002612	1.3657e-41
153	0xb5a79581	-1.2485981e-06
154	0x9af7b8fc	-1.02455664e-22
155	0x80003d16	-2.1914e-41
156	0x000067a6	3.7182e-41
157	0xa35f9002	-1.2119349e-17
158	0x99907482	-1.4936308e-23
159	0x0000835d	4.7124e-41
160	0x80000019	-3.5e-44
161	0x206c911d	2.0037992e-19
162	0x170cb862	4.5469164e-25
163	0x000055b4	3.0744e-41
164	0x000041a7	2.3552e-41
165	0xa44cb56e	-4.4389126e-17
166	0xa0ef03f6	-4.0490796e-19
167	0x80005e85	-3.3907e-41
168	0x00004220	2.3721e-41
169	0xa38bbc64	-1.5150197e-17
170	0x998d0d05	-1.4584317e-23
171	0x00004fa2	2.8567e-41
172	0x00002a80	1.5246e-41
173	0x2320a2b7	8.708074e-18
174	0xaac36285	-3.470732e-13
175	0x00004681	2.5292e-41
176	0x80000b6f	-4.102e-42
177	0x23b8150e	1.9958237e-17
178	0x978e66c3	-9.202476e-25
179	0x0000213f	1.1926e-41
180	0x000042c0	2.3945e-41
181	0xa388febe	-1.4853037e-17
182	0x96b61803	-2.941884e-25
183	0x80004ae5	-2.6867e-41
184	0x8000304d	-1.7327e-41
185	0xa571a9f7	-2.0961004e-16
186	0x2e9a250f	7.009692e-11
187	0x00002e36	1.6577e-41
188	0x80001c5f	-1.0178e-41
189	0x2a3300f2	1.5898722e-13
190	0x9f3d01a4	-4.0023664e-20
191	0x800045c1	-2.5023e-41
192	0x8000171f	-8.294e-42
193	0x32c37ff2	2.275917e-08
194	0xb2d57a86	-2.485218e-08
195	0x00006461	3.6009e-41
196	0x00004b81	2.7086e-41
197	0xa30fe0a6	-7.799617e-18
198	0x16f9defc	4.0368843e-25
199	0x80007147	-4.0636e-41
200	0x03f7ce1f	1.4564678e-36
201	0x27c7d79e	5.546737e-15
202	0x37f7a349	2.952073e-05
203	0x800034ef	-1.8989e-41
204	0x80001372	-6.976e-42
205	0xa1a168d3	-1.0937531e-18
206	0x1750ab8f	6.742496e-25
207	0x80003147	-1.7677e-41
208	0x8ae7a955	-2.2308186e-32
209	0x29afddd0	7.8100395e-14
210	0x26272f62	5.800398e-16
211	0x80003eec	-2.2572e-41
212	0x800005f5	-2.137e-42
213	0x25035a69	1.1393071e-16
214	0xad3c6921	-1.0709906e-11
215	0x80004c0a	-2.7278e-41
216	0x000041ce	2.3606e-41
217	0x202e9d68	1.4790455e-19
218	0x9709dc8e	-4.4545467e-25
219	0x00004cff	2.7621e-41
220	0x00003161	1.7714e-41
221	0xa26941e5	-3.1612273e-18
222	0x99bd3d99	-1.9567021e-23
223	0x800029fb	-1.506e-41
224	0x00001cbf	1.0312e-41
225	0xa7fcf29d	-7.0207092e-15
226	0x9a5bb4d5	-4.5434213e-23
227	0x00003e8c	2.2438e-41
228	0x00002bb5	1.5679e-41
229	0x240eabc9	3.093685e-17
230	0x28ac7af5	1.914916e-14
231	0x80001e1b	-1.08e-41
232	0x0000060e	2.172e-42
233	0x22b09829	4.7866e-18
234	0x9996a6ec	-1.5577056e-23
235	0x00004ebc	2.8245e-41
236	0x80002691	-1.3835e-41
237	0x3577c28d	9.229778e-07
238	0x99b2aa7a	-1.8473624e-23
239	0x800014f5	-7.518e-42
240	0x8000285a	-1.4475e-41
241	0xa5c32986	-3.3855245e-16
242	0x365adc77	3.2612859e-06
243	0x00003a97	2.1018e-41
244	0x06d0444d	7.8341263e-35
245	0xa47bfb8a	-5.464001e-17
246	0xb54e1957	-7.6777854e-07
247	0x00001999	9.183e-42
248	0x80000949	-3.331e-42
249	0xae3b1859	-4.2540502e-11
250	0x197710a9	1.2772965e-23
251	0x80001f70	-1.1278e-41
252	0x80003ace	-2.1095e-41
253	0xa495018d	-6.4621077e-17
254	0xad0798b4	-7.7077685e-12
255	0x80001c80	-1.0224e-41

cbam1.ChannelGate.mlp.3.bias f4 [64]
0	0xb617a22e	-2.2595154e-06
1	0xbd78390f	-0.06060129
2	0xbda54858	-0.08070439
3	0x3d2024ea	0.039097704
4	0xb7a1b832	-1.9278468e-05
5	0x3e283f56	0.1643041
6	0x3f204867	0.6261048
7	0xbc88dcdb	-0.016706875
8	0x3e7343ad	0.23756285
9	0xb98eb044	-0.0002721568
10	0x3f0396b5	0.51401836
11	0x3e88fbfe	0.26754755
12	0x3f2139bb	0.62978715
13	0x3d9cff0e	0.07665835
14	0x3f1de6c3	0.6168024
15	0xb95f8809	-0.00021317614
16	0x3ddb514b	0.10708865
17	0x3f0242c6	0.5088314
18	0x3eca0252	0.39454895
19	0xb7bf3542	-2.2793774e-05
20	0x3ec4788c	0.3837322
21	0x38dfcc6c	0.00010671545
22	0x3f234d75	0.63790065
23	0x3991ec86	0.0002783278
24	0xbbe7983b	-0.007067708
25	0x3e215826	0.15756282
26	0xb709096f	-8.168033e-06
27	0xbd4a308c	-0.049362704
28	0x3da5a347	0.08087783
29	0xb85544a0	-5.084707e-05
30	0x3f1a286c	0.6021793
31	0x3f4e0bf3	0.80486983
32	0xb9390f0d	-0.00017648582
33	0x3eadebf6	0.33969086
34	0x3ef3ecad	0.47641507
35	0x3b279d46	0.002557592
36	0x3efbe8de	0.492011
37	0x3ee181c1	0.44044307
38	0x3ed86ba8	0.42269635
39	0x3da86a6d	0.08223424
40	0x390c2797	0.00013366189
41	0x3f8273b1	1.0191556
42	0x3f78e9f9	0.97232014
43	0x3efaf32f	0.4901366
44	0x3e5b4f68	0.2141701
45	0x3e123384	0.14277464
46	0x3ea9e283	0.33180627
47	0x3ed95a63	0.42451772
48	0x3ef51134	0.47864687
49	0x3f0e5875	0.55603725
50	0x3f36f630	0.714694
51	0x3e6f041d	0.23341413
52	0x3cd95b1e	0.026532706
53	0x3e01c565	0.12672956
54	0xb4aba62a	-3.1972132e-07
55	0x3dc7d37f	0.097571366
56	0x3e09f2f6	0.13471588
57	0x3e7d8453	0.24757509
58	0x3db85174	0.08999911
59	0xbbbc6927	-0.00574984
60	0x3effd63b	0.49968132
61	0xbbaf1a06	-0.0053436784
62	0x3bdaa7e8	0.006672848
63	0x3ee31866	0.44354552

cbam1.SpatialGate.spatial.conv.weight f4 [1, 2, 7, 7]
0	0xa36cdbd0	-1.2840133e-17
1	0x00013e22	1.14125e-40
2	0x0000b402	6.4575e-41
3	0xbc9980cc	-0.018738173
4	0x80006e79	-3.963e-41
5	0x37e686e1	2.7480944e-05
6	0x0000b62d	6.5352e-41
7	0x00009c01	5.5964e-41
8	0x0000db27	7.8617e-41
9	0x000003fa	1.427e-42
10	0x3e55a441	0.20863439
11	0x00004830	2.5896e-41
12	0x00000e5b	5.15e-42
13	0x800053a3	-3.0003e-41
14	0x80011764	-1.00226e-40
15	0x30462a6d	7.209227e-10
16	0x0000b7ba	6.5909e-41
17	0xbea1b487	-0.31583044
18	0x800089fd	-4.9501e-41
19	0x8000ae2d	-6.2482e-41
20	0x0000acf6	6.2047e-41
21	0x00004e71	2.814e-41
22	0x0000b717	6.568e-41
23	0x8000830b	-4.701e-41
24	0xbd330141	-0.043702368
25	0x00007154	4.0654e-41
26	0x8000d3d5	-7.5991e-41
27	0x80005a52	-3.2401e-41
28	0xb1cfd479	-6.0486482e-09
29	0x8b2c5a30	-3.3193845e-32
30	0xa27bd306	-3.4128558e-18
31	0x3c45f394	0.012081999
32	0x8000f83c	-8.905e-41
33	0x0000bf58	6.8641e-41
34	0xad6f3bf9	-1.3598894e-11
35	0x8000369e	-1.9593e-41
36	0x00007f1d	4.56e-41
37	0x80004956	-2.6308e-41
38	0xbe7b1a98	-0.24521863
39	0x800018ba	-8.87e-42
40	0x000081dd	4.6586e-41
41	0x00002fa4	1.709e-41
42	0x0000cada	7.277e-41
43	0x000077ea	4.3017e-41
44	0x00007c11	4.4507e-41
45	0x3d211836	0.03932973
46	0x80013ecf	-1.14367e-40
47	0x80007ce6	-4.4805e-41
48	0x000057c1	3.148e-41
49	0x8000e4ea	-8.2119e-41
50	0x80004534	-2.4825e-41
51	0x0000f1d9	8.6759e-41
52	0x3e5af3cd	0.21382065
53	0x000140a2	1.15021e-40
54	0x0001c543	1.626e-40
55	0x80012ee5	-1.08658e-40
56	0x0002d9ee	2.6185e-40
57	0x800039c0	-2.0717e-41
58	0x0000eaaa	8.4182e-41
59	0x3d99b25f	0.07504725
60	0x8001666c	-1.28578e-40
61	0x8000a057	-5.7519e-41
62	0xa109982d	-4.661881e-19
63	0x00001559	7.658e-42
64	0x0000f668	8.8394e-41
65	0x000327ce	2.89786e-40
66	0x3e24e3f1	0.16102578
67	0x80009d4d	-5.6429e-41
68	0x80014eb8	-1.20074e-40
69	0x80008f4b	-5.1404e-41
70	0x800108f6	-9.505e-41
71	0x80012885	-1.06371e-40
72	0x0000ce89	7.4091e-41
73	0x3d916f7c	0.07101342
74	0x80010678	-9.4156e-41
75	0x000132a1	1.09998e-40
76	0x000112f7	9.8639e-41
77	0x8000d6d2	-7.7063e-41
78	0x0000a988	6.0816e-41
79	0x800106dd	-9.4298e-41
80	0xbe129b18	-0.14316976
81	0x8000200b	-1.1495e-41
82	0x80007cdc	-4.4791e-41
83	0x800132ac	-1.10013e-40
84	0x00034860	3.0147e-40
85	0x80029b20	-2.3932e-40
86	0x00005edb	3.4028e-41
87	0xbd2d9583	-0.042378914
88	0x8000d816	-7.7517e-41
89	0x00000f3b	5.464e-42
90	0x0000e4f6	8.2136e-41
91	0x80005f97	-3.4291e-41
92	0x80011676	-9.9893e-41
93	0x8000f316	-8.7203e-41
94	0xbd86d9f8	-0.06584543
95	0x800073f4	-4.1596e-41
96	0x800235de	-2.02995e-40
97	0xba2d0b7e	-0.0006601139

conv2Db.weight f4 [128, 64, 2, 1]
0	0x36057705	1.9887823e-06
1	0x34931dbb	2.7402515e-07
2	0xb980c460	-0.00024560373
3	0xb85b98a4	-5.2355826e-05
4	0xba51076c	-0.0007973823
5	0xba9b16b6	-0.001183233
6	0xba6aa540	-0.0008951016
7	0xba8da1af	-0.0010805632
8	0x3628eea5	2.517286e-06
9	0x34d05e48	3.8811618e-07
10	0xbacfa6b9	-0.0015842534
11	0xbb00d1be	-0.0019656266
12	0xbc151048	-0.00909812
13	0xbc2ca435	-0.010537197
14	0xba20031b	-0.00061039784
15	0xbadd482f	-0.0016882474
16	0x37910750	1.7288752e-05
17	0xba3224ce	-0.00067956455
18	0x3796a533	1.795832e-05
19	0xb851f679	-5.005903e-05
20	0x39e2cd4d	0.0004325904
21	0xbab1c947	-0.0013564014
22	0xbb1fc455	-0.0024378498
23	0xbbbd1593	-0.005770394
24	0xbb918120	-0.0044404417
25	0xbbd1f1f0	-0.006407015
26	0xba28ac1c	-0.00064343377
27	0xbb43748e	-0.002982411
28	0xbb3d0a90	-0.0028845407
29	0x39ea39eb	0.0004467511
30	0xb50eda56	-5.3216843e-07
31	0x36cff6a6	6.1977944e-06
32	0xba972181	-0.0011530371
33	0xbb90de35	-0.0044210204
34	0xba9e935a	-0.0012098358
35	0xba1eda7e	-0.00060597796
36	0xb9f7ecdc	-0.00047287985
37	0xb9fd90eb	-0.00048363893
38	0x371014fa	8.587953e-06
39	0xb6737e0f	-3.6283197e-06
40	0xbc0771de	-0.008266894
41	0xbaac090e	-0.0013125257
42	0x36a12e2a	4.803548e-06
43	0xb94fe72f	-0.00019827181
44	0xbb8834d1	-0.004156687
45	0xbbafd062	-0.0053654173
46	0xb68503fa	-3.964172e-06
47	0x363cd42f	2.813769e-06
48	0xba73caad	-0.00092999154
49	0xba60e9d3	-0.00085797644
50	0xbadce193	-0.0016851894
51	0xbb0cedfe	-0.002150416
52	0x35fbccc9	1.8760558e-06
53	0x3595a67d	1.114982e-06
54	0xba333aeb	-0.00068370876
55	0xba3c7536	-0.00071890967
56	0xbb0abc64	-0.0021169418
57	0xbb1b5f89	-0.0023708066
58	0x372e624d	1.0394096e-05
59	0x36467fa7	2.9578603e-06
60	0xbb4b1993	-0.0030990585
61	0xbbdbbc54	-0.0067058
62	0xbb614a2a	-0.003437648
63	0x3b71ae28	0.0036877487
64	0xb7f81390	-2.9573013e-05
65	0xb7a51bf5	-1.9682551e-05
66	0xbab0b71f	-0.0013482309
67	0xba53419c	-0.0008058788
68	0xbb1a1a16	-0.0023514084
69	0x3aabacfb	0.0013097817
70	0x390d69a1	0.00013486158
71	0x3871059f	5.7464113e-05
72	0xbb1cc2ea	-0.0023919889
73	0x3b1c7a7c	0.0023876717
74	0xba91ecb0	-0.001113316
75	0xbbb09dc5	-0.0053899013
76	0xbb4bcc0b	-0.003109696
77	0xbb5e3f7a	-0.0033912347
78	0xb810d21c	-3.4527955e-05
79	0x387bedc0	6.0064485e-05
80	0x372730b9	9.96532e-06
81	0xb87e8054	-6.0677834e-05
82	0x3a572b6a	0.00082080683
83	0xb9def8da	-0.00042528549
84	0xbb296746	-0.002584891
85	0x3b7d99c9	0.00386964
86	0xbb307b47	-0.0026928948
87	0xbaae4f9c	-0.0013298872
88	0xb9dfba5c	-0.00042672723
89	0xbaa0a781	-0.0012256951
90	0xba2c86cb	-0.0006581365
91	0xba16cd15	-0.00057526055
92	0xbacf5884	-0.0015819226
93	0xbc0f221a	-0.008736158
94	0xbbfd60ce	-0.0077324873
95	0xbbdbf643	-0.0067127063
96	0xbae43420	-0.0017410554
97	0x3a91a80d	0.0011112705
98	0xba301bc0	-0.0006718002
99	0xba140270	-0.0005646115
100	0xba457fcd	-0.00075339974
101	0xbc10768a	-0.008817324
102	0xba8aa746	-0.0010578416
103	0xbb03a5dd	-0.0020087876
104	0xbab6ac4d	-0.0013936848
105	0xbae4d4f5	-0.0017458486
106	0xbb06d95c	-0.0020576334
107	0xbb64efb1	-0.0034932906
108	0x34d91f3d	4.044213e-07
109	0x353ab4f5	6.9553727e-07
110	0xba2fa1ba	-0.00066998194
111	0xba01e19d	-0.00049545785
112	0x3a40dd5f	0.00073572056
113	0xba0d5b19	-0.0005392298
114	0xba54f728	-0.00081239874
115	0xbb623547	-0.003451662
116	0xba0f5862	-0.0005468187
117	0xba7c2409	-0.0009618407
118	0xb98effeb	-0.00027275024
119	0x3a4087d0	0.00073444564
120	0x39c21c24	0.0003702353
121	0xbb9e55b0	-0.004831992
122	0xbb0407ac	-0.0020146174
123	0x3a8d1d1e	0.0010766124
124	0xb89b066d	-7.392173e-05
125	0x35358391	6.761921e-07
126	0xbb187495	-0.0023262848
127	0x3b2c7680	0.0026315749
128	0x363b13c5	2.7876679e-06
129	0x36318b29	2.6456057e-06
130	0x3a66c08a	0.0008802494
131	0x3b0f48d4	0.0021863477
132	0x3c45b072	0.012065994
133	0xbc0497b3	-0.008092809
134	0xbb487115	-0.003058498
135	0x3b9a8212	0.0047152126
136	0x3797687b	1.8049255e-05
137	0x370df5e5	8.461507e-06
138	0x3cabca4c	0.020970486
139	0xbb72e9da	-0.0037065656
140	0xbdfefbfb	-0.12450405
141	0xbd5ba366	-0.053622626
142	0x3c2ff7ba	0.010740215
143	0xbbad77ea	-0.005293836
144	0x3c11d15f	0.008900016
145	0xbc9dce84	-0.019263513
146	0x3a28d1d8	0.00064399606
147	0xb7ef393c	-2.8517672e-05
148	0x3d0d06bb	0.034430247
149	0xbc499775	-0.012304177
150	0x3d50ee2d	0.051008392
151	0xba205395	-0.00061159703
152	0xbcd83774	-0.02639363
153	0x3c8a61df	0.016892372
154	0xb8fad499	-0.00011960528
155	0xbc9e1496	-0.019296926
156	0xbc808677	-0.015689118
157	0x3ce60f65	0.028083513
158	0xb926ef8a	-0.00015920229
159	0x3a4c8191	0.00078012893
160	0x3aad386c	0.0013215668
161	0xbca2ed25	-0.01988847
162	0xbc17270a	-0.009225616
163	0x3cf8e647	0.030383242
164	0xbc37c33e	-0.011215983
165	0xbbd9fc33	-0.006652379
166	0xb7237e6c	-9.744992e-06
167	0x38256a6c	3.943818e-05
168	0xbc46dc13	-0.012137431
169	0x3c976320	0.018479884
170	0x3b2ea0d1	0.0026646147
171	0xba0f31a5	-0.00054624147
172	0xbd347929	-0.04406086
173	0xbc8f2f2a	-0.017478544
174	0xb8bfef61	-9.1521775e-05
175	0x39586585	0.00020637184
176	0xbbcddf84	-0.0062827487
177	0xbb1e86b9	-0.0024189188
178	0xbc25b743	-0.010114494
179	0xb8e2a2fd	-0.00010806879
180	0x36a67e2f	4.961875e-06
181	0x381d976d	3.7572743e-05
182	0xbbf6dec0	-0.007533878
183	0xbb2c4ca6	-0.0026290803
184	0xbcdf8599	-0.027285384
185	0xbc568478	-0.013093106
186	0x38755fdf	5.850184e-05
187	0x3716c8be	8.987436e-06
188	0xbcbf7e72	-0.023375724
189	0xbd5525f8	-0.052038163
190	0xbcbcd99e	-0.023052987
191	0x3d47ff94	0.048827723
192	0xb7c4d5e2	-2.3464618e-05
193	0x3a7531b8	0.0009353417
194	0x3d21df5c	0.039519653
195	0xbb9b0b00	-0.004731536
196	0xbd1f7480	-0.038929462
197	0x3c839b61	0.016065301
198	0x3a1749c9	0.0005771188
199	0x3a61b5c7	0.0008610156
200	0x3cfa6c5c	0.030569248
201	0xbc19b338	-0.009381108
202	0xbc61233e	-0.013741313
203	0xbd282881	-0.041054253
204	0xbc0d5661	-0.008626551
205	0xba3897a6	-0.00070416403
206	0xbb1e20af	-0.0024128368
207	0x3a39d7e3	0.00070893596
208	0x3997833d	0.00028898744
209	0xb995ea46	-0.00028594042
210	0x3d707153	0.058701824
211	0xbca18e99	-0.019721316
212	0x3c0a1b9b	0.008429433
213	0x3d6e4b45	0.05817725
214	0x399bcd92	0.00029717066
215	0x3d1e3285	0.038622398
216	0xbc53561b	-0.012898947
217	0xbc54860b	-0.012971411
218	0x3c7319ad	0.014837665
219	0x3c8ee38b	0.017442485
220	0xb9375837	-0.00017485103
221	0xbd3b6f52	-0.04576046
222	0xbd61750f	-0.055043276
223	0xbcd67fd5	-0.026184002
224	0xbc3c3779	-0.011487835
225	0x3d1fad98	0.03898391
226	0x3c1caa7c	0.009562131
227	0x3d2bfc79	0.041988824
228	0x3cb9f23a	0.02269851
229	0xbd80043d	-0.062508084
230	0x3c1afebc	0.0094601475
231	0x3bd78952	0.006577649
232	0x3b61e5a8	0.0034469161
233	0x3b9b7603	0.0047442927
234	0xbc1fb3b1	-0.009747432
235	0xbc616e06	-0.013759142
236	0x371525eb	8.8899205e-06
237	0x36f67d2f	7.3459446e-06
238	0xb96caaf1	-0.00022570395
239	0x3b21850a	0.0024645948
240	0x3c960069	0.018310742
241	0xbb741918	-0.0037246402
242	0x3ce3c110	0.02780202
243	0xbc43ca9b	-0.01195016
244	0x3bcc3519	0.0062319157
245	0xbbfdb306	-0.0077422885
246	0x3b60abc5	0.003428207
247	0x3b7ff655	0.0039056737
248	0x3ca43bbc	0.020048015
249	0xbd2fd162	-0.042924292
250	0xba50b30b	-0.000796125
251	0xbb4e1e54	-0.0031451182
252	0xbb4ce8d4	-0.0031266706
253	0xb9258ef6	-0.00015788883
254	0xbc999bf3	-0.01875112
255	0x3cf0a56e	0.029375758

conv2Db.bias f4 [128]
0	0x3cb7e57f	0.0224483
1	0x3dc263cd	0.09491692
2	0x3c99dcbf	0.018782018
3	0x3de55b21	0.11199022
4	0xb6928c13	-4.367446e-06
5	0xbd2b49a1	-0.041818265
6	0xb8df5a90	-0.00010650337
7	0xb812f543	-3.503753e-05
8	0xbb02c7bf	-0.0019955484
9	0xbbb5f5f6	-0.0055530025
10	0x3e03bb14	0.12864333
11	0xba0a9c82	-0.00052876037
12	0x3dcc1812	0.099655285
13	0x3ad5bec1	0.001630746
14	0xbbb7a977	-0.0056049186
15	0x3cd16014	0.025558509
16	0xb7ba4c65	-2.2208502e-05
17	0x3d544473	0.05182309
18	0x3dd277f2	0.10276784
19	0xbdf87eeb	-0.12133583
20	0x3ab26e85	0.001361326
21	0xbb699f32	-0.0035647866
22	0x3ab8ae75	0.0014090078
23	0xbba7cfdd	-0.005121215
24	0xbbd80a4f	-0.0065930258
25	0xba0b27a2	-0.0005308335
26	0xb60a5619	-2.0613718e-06
27	0xbcbfceb2	-0.02341399
28	0xbc102795	-0.0087985
29	0x3d6d58dd	0.057946075
30	0xb91702fa	-0.00014401591
31	0x3e7b6d2e	0.24553367
32	0xbaa4be65	-0.0012568949
33	0xb8113454	-3.461943e-05
34	0x37d7bb9c	2.571736e-05
35	0x3dea6590	0.11445153
36	0xb9c4518f	-0.000374448
37	0xbc869278	-0.016427264
38	0x39b4010c	0.00034333055
39	0x3c3bde07	0.01146651
40	0x3e96a58f	0.29423186
41	0x3bd1680e	0.006390578
42	0xbc167d24	-0.009185109
43	0x3dd00777	0.10157674
44	0x3d98a767	0.074538045
45	0xba55110c	-0.00081278454
46	0x3e00a941	0.12564565
47	0x3d1784a5	0.036991734
48	0x3e6e2ecd	0.2326004
49	0xbae2ea52	-0.0017312265
50	0x3e4e611d	0.20154233
51	0x3c86da97	0.016461654
52	0x3b1bd2ca	0.0023776763
53	0xb8f325fb	-0.00011594217
54	0xbcbf168f	-0.023326186
55	0x3d6e3489	0.05815557
56	0xb8ab8dec	-8.1803504e-05
57	0x3d0c6f1f	0.03428566
58	0xb88fe3c3	-6.861195e-05
59	0x3d8f537a	0.06998344
60	0x3dc85eb9	0.09783692
61	0x3b780cd3	0.003784944
62	0xb87b4f64	-5.9917e-05
63	0xbb00f9d6	-0.0019680164
64	0xb9e51ad1	-0.00043698263
65	0xbba6d602	-0.0050914297
66	0x3dc6d737	0.09709018
67	0x3d8c3d92	0.06847681
68	0x3dcd19e8	0.10014707
69	0x3d114c0d	0.03547292
70	0x3ddfd31a	0.10928936
71	0x3d85ca48	0.06532723
72	0xbca78d1f	-0.020453034
73	0xbc1e5147	-0.009662933
74	0xb9e6e1cc	-0.0004403725
75	0x3dc0154d	0.09379063
76	0xb909d5d7	-0.00013145
77	0xb840d9bb	-4.5979144e-05
78	0xbb585a12	-0.003301267
79	0x3d3bf42f	0.04588717
80	0xba076d87	-0.0005166162
81	0xba0618c6	-0.0005115386
82	0xb8e1092f	-0.00010730547
83	0xba4610a3	-0.00075555797
84	0xbc10bd37	-0.008834175
85	0xbb410d7a	-0.0029457496
86	0xb820de99	-3.8354283e-05
87	0xb82d77d9	-4.135803e-05
88	0xb8f2e8a3	-0.00011582791
89	0x3da03966	0.07823448
90	0xbd4e9179	-0.050431702
91	0x3b986a4c	0.0046513434
92	0x3d512195	0.051057417
93	0x3b337ee4	0.0027388865
94	0xbca05169	-0.01957007
95	0xb890dccf	-6.907584e-05
96	0x3e01af41	0.1266451
97	0x3e2d75d3	0.16939478
98	0x3d87e08e	0.06634627
99	0xb8d37363	-0.000100827565
100	0x38adbf05	8.284863e-05
101	0xb9823bc7	-0.0002484007
102	0x3cdaadb6	0.02669416
103	0x3bd80cf1	0.0065933396
104	0xbe85d848	-0.26141572
105	0x39f7e342	0.00047280831
106	0x3e387015	0.18011506
107	0x3e214d3e	0.15752122
108	0x3d8faf51	0.07015861
109	0xb9c3f565	-0.00037376132
110	0xb80b4e51	-3.321312e-05
111	0x3e2bf672	0.1679323
112	0x3de71ee7	0.11285191
113	0x3cfed8d6	0.031109255
114	0xb8c93acf	-9.595381e-05
115	0xb79e349c	-1.8859566e-05
116	0xb837a095	-4.3780154e-05
117	0xbac1c29d	-0.0014782731
118	0xb90c3cd3	-0.00013374099
119	0x3d8d787a	0.06907745
120	0xba9cac3a	-0.0011953183
121	0xb8463319	-4.7254467e-05
122	0x3c0ea29b	0.00870576
123	0xbb254666	-0.0025218963
124	0xbc371e24	-0.01117662
125	0x3b971349	0.0046104533
126	0x3d0803aa	0.03320662
127	0xb97d281d	-0.00024142904

cbam2.ChannelGate.mlp.1.weight f4 [8, 128]
0	0xaa2e0b26	-1.5458172e-13
1	0x2b769632	8.7605194e-13
2	0xaa97d4ec	-2.6970733e-13
3	0x2bb0645a	1.2533405e-12
4	0xa705350a	-1.848621e-15
5	0xa5826dd6	-2.2625833e-16
6	0x2361ad35	1.22339525e-17
7	0x26d7d8b9	1.4977365e-15
8	0xaa5dde72	-1.9705919e-13
9	0xac93f59c	-4.2052594e-12
10	0xad9e4dac	-1.7997014e-11
11	0x2b2ca0b6	6.1329707e-13
12	0x2d25b1eb	9.41867e-12
13	0xa89630bc	-1.667448e-14
14	0xa832b8b0	-9.921033e-15
15	0xaa0398ee	-1.1688195e-13
16	0xa45b3138	-4.7529745e-17
17	0x2bd7159a	1.5282664e-12
18	0x2a5181e5	1.8607995e-13
19	0x291ba98d	3.4563976e-14
20	0x279499b2	4.124489e-15
21	0xa48df57e	-6.156488e-17
22	0xa8286ce7	-9.349488e-15
23	0xb4673e56	-2.1536229e-07
24	0x26e825a4	1.6108436e-15
25	0x2887d525	1.5080448e-14
26	0x273c005b	2.6090434e-15
27	0xa80c992f	-7.8047776e-15
28	0x25bdb02e	3.2905658e-16
29	0xabb0b698	-1.2556232e-12
30	0x23b30bfe	1.9412298e-17
31	0xb1119a45	-2.118797e-09
32	0xa61d018a	-5.4472403e-16
33	0x2a023f39	1.1568254e-13
34	0xa678d973	-8.6336983e-16
35	0xb1838e30	-3.8287666e-09
36	0xa3db5418	-2.3779643e-17
37	0x28d973f7	2.4142131e-14
38	0xa7885864	-3.7843416e-15
39	0x2b90642b	1.0259618e-12
40	0xadcfbe0b	-2.3617571e-11
41	0x28ed1e26	2.632536e-14
42	0x248e3dd1	6.1687404e-17
43	0x2e95cbc7	6.811934e-11
44	0x2a969cb0	2.6754076e-13
45	0x266ebf51	8.283212e-16
46	0xae4db98c	-4.6776402e-11
47	0x2b7d345e	8.995633e-13
48	0x2d912384	1.6500364e-11
49	0xa6f360e9	-1.688778e-15
50	0x2c5d8a34	3.1482707e-12
51	0x29f69581	1.09505294e-13
52	0x29f5d1fd	1.0916613e-13
53	0xa7b8fab0	-5.1342055e-15
54	0xa70bfb3b	-1.9426317e-15
55	0x2b21a574	5.74283e-13
56	0xa3baa3ec	-2.0235584e-17
57	0x2a9668cb	2.6718067e-13
58	0xa669ab16	-8.106998e-16
59	0x2be6c39f	1.6396779e-12
60	0x2b5b666f	7.7946585e-13
61	0x2c156b0d	2.1233599e-12
62	0xa3cb541b	-2.2044924e-17
63	0xa5caaac6	-3.5157135e-16
64	0x3301b9aa	3.0204014e-08
65	0xa512b0fd	-1.2723447e-16
66	0xae1a94d2	-3.5147725e-11
67	0x2adec28f	3.9570124e-13
68	0x2d02ffa8	7.4464115e-12
69	0xad9442ff	-1.6855404e-11
70	0x2c8ef42e	4.062992e-12
71	0xab4781cd	-7.0879137e-13
72	0x2a42ea74	1.7312004e-13
73	0xab9edf33	-1.1288525e-12
74	0xa5320dbf	-1.5443696e-16
75	0x2c4b1f90	2.8865556e-12
76	0xa3fd72ae	-2.7478884e-17
77	0xa5e51cfe	-3.9744813e-16
78	0xabc93216	-1.4295811e-12
79	0x2b0c1eaa	4.9780546e-13
80	0xa804bb92	-7.368145e-15
81	0xa863ffba	-1.2656483e-14
82	0x2492dfd8	6.369661e-17
83	0xa4bf961e	-8.3087354e-17
84	0xa701041a	-1.790457e-15
85	0xa4e3d28d	-9.8802244e-17
86	0x25dc5118	3.8218868e-16
87	0x2608dee3	4.7486546e-16
88	0x2940a56b	4.277604e-14
89	0xaa628d3a	-2.012183e-13
90	0x2943484b	4.3361402e-14
91	0xa8e4ab60	-2.5387407e-14
92	0x2b53f4be	7.5301907e-13
93	0x2946819e	4.4077257e-14
94	0x2886ba3a	1.4957751e-14
95	0x247e32af	5.51204e-17
96	0x2c10d2d5	2.0580666e-12
97	0x2c471c5c	2.8295343e-12
98	0xad78cb78	-1.4142347e-11
99	0xa67552c6	-8.511363e-16
100	0xa2f3c61d	-6.6075043e-18
101	0x2780d5aa	3.575879e-15
102	0xad551726	-1.2112788e-11
103	0xa91a0fc1	-3.4208533e-14
104	0x29560309	4.7520178e-14
105	0x28e76654	2.569053e-14
106	0x2d33d24f	1.022167e-11
107	0xabbf49e2	-1.3591873e-12
108	0xac597cc1	-3.0906807e-12
109	0xa56bc76e	-2.045057e-16
110	0xa44f5a2b	-4.4962345e-17
111	0x2c6a0fce	3.3262173e-12
112	0x2b2e4464	6.191213e-13
113	0xaa89dec7	-2.4490672e-13
114	0x3400a9e4	1.1982735e-07
115	0xa6456916	-6.8490523e-16
116	0xa58c438e	-2.4331906e-16
117	0xa9b488ff	-8.017371e-14
118	0x2682136d	9.025827e-16
119	0xac6a4dac	-3.3296517e-12
120	0xa7be2a31	-5.2781338e-15
121	0xa398314b	-1.650075e-17
122	0x29471152	4.42019e-14
123	0xaabfef1d	-3.4094334e-13
124	0xa7175668	-2.10023e-15
125	0xa946fc4c	-4.4183664e-14
126	0x2a178c74	1.3460224e-13
127	0x29ae7b2e	7.7485205e-14
128	0x081c5621	4.7045786e-34
129	0x0a7113bf	1.1607442e-32
130	0x086cb70d	7.123384e-34
131	0x1020b5dd	3.169454e-29
132	0x0384e677	7.811175e-37
133	0x0384ce06	7.805563e-37
134	0x8296d22d	-2.2161154e-37
135	0x85d7e02e	-2.0300853e-35
136	0x83b18877	-1.0434456e-36
137	0x9698737e	-2.462981e-25
138	0x883e38f8	-5.724301e-34
139	0x049304f8	3.4564097e-36
140	0x8bb18c71	-6.838923e-32
141	0x88c37420	-1.1763436e-33
142	0x8275dd45	-1.8063258e-37
143	0x8ab487b3	-1.7384414e-32
144	0x04574a0d	2.5307131e-36
145	0x943be48c	-9.48616e-27
146	0x88d2cc2e	-1.2686918e-33
147	0x03a458fd	9.659484e-37
148	0x88933b71	-8.861215e-34
149	0x0342ee5d	5.7285104e-37
150	0x08d23c61	1.265311e-33
151	0x038f6956	8.428969e-37
152	0x8330f355	-5.2001083e-37
153	0x85c2e7dc	-1.8328844e-35
154	0x8334510f	-5.2990296e-37
155	0x82336fe6	-1.3182956e-37
156	0x87814042	-1.944753e-34
157	0x894e6340	-2.4843015e-33
158	0x06fb09e9	9.443027e-35
159	0xab9bd135	-1.1071479e-12
160	0x03261ef7	4.881856e-37
161	0x816901b5	-4.2796566e-38
162	0x06e841fc	8.7365656e-35
163	0x149a3173	1.556953e-26
164	0x8390ebf2	-8.51773e-37
165	0x83ba31ac	-1.0943502e-36
166	0x08734173	7.320209e-34
167	0x886bc90a	-7.095406e-34
168	0x0ddccd8b	1.36080295e-30
169	0x87f42b9c	-3.673867e-34
170	0x814c2d9b	-3.7501603e-38
171	0x19fa2ba8	2.5867027e-23
172	0x199ae998	1.6017575e-23
173	0x83d9c106	-1.279843e-36
174	0x095cf02e	2.6594469e-33
175	0x89f9c675	-6.0131198e-33
176	0x0ae83cd4	2.2363668e-32
177	0x059b678e	1.461417e-35
178	0x12187bff	4.811558e-28
179	0x892afcc4	-2.0581855e-33
180	0x08f48658	1.47168e-33
181	0x041962d2	1.803044e-36
182	0x83f35dfe	-1.4303836e-36
183	0x884712d6	-5.9906526e-34
184	0x82572eef	-1.5809175e-37
185	0x87e887fb	-3.4987402e-34
186	0x8308bb96	-4.0182146e-37
187	0x8c96f44b	-2.3258188e-31
188	0x08cb973c	1.2253173e-33
189	0x09e2ec84	5.462994e-33
190	0x87a9f08c	-2.5569675e-34
191	0x05db59fe	2.0627719e-35
192	0x8242deb5	-1.4316783e-37
193	0x02a3e911	2.408447e-37
194	0x0a4edc7b	9.960007e-33
195	0x128fdea9	9.079459e-28
196	0x9cdf38d9	-1.4771597e-21
197	0x16198453	1.2400996e-25
198	0x97f264b3	-1.5664304e-24
199	0x099e0c8e	3.8048923e-33
200	0x0581cc41	1.2206133e-35
201	0x8b15867e	-2.8797537e-32
202	0x839bc334	-9.154898e-37
203	0x0f647ac5	1.12649125e-29
204	0x01a630ef	6.1048986e-38
205	0x0469a81f	2.7466216e-36
206	0x08f5e6e9	1.4799688e-33
207	0x096f1791	2.877966e-33
208	0x0539c9b5	8.735706e-36
209	0x8299055f	-2.2484412e-37
210	0x032c74bc	5.068026e-37
211	0x852980d5	-7.9700045e-36
212	0x847c8ce4	-2.9687151e-36
213	0x870363eb	-9.884708e-35
214	0x82e0b67e	-3.3018587e-37
215	0x839248fd	-8.597866e-37
216	0x824becf5	-1.4982088e-37
217	0x8a1fdefc	-7.69751e-33
218	0x83601ed1	-6.586306e-37
219	0x86c954b1	-7.573224e-35
220	0x8e373047	-2.2579736e-30
221	0x87e7cff4	-3.487924e-34
222	0x82ad6d14	-2.5482673e-37
223	0x03b9e0bb	1.0924918e-36
224	0x940ed386	-7.2108835e-27
225	0x9be5a40d	-3.7990887e-22
226	0x888364dc	-7.907988e-34
227	0x84137270	-1.7332314e-36
228	0x0885bddb	8.049281e-34
229	0x84538c64	-2.4867395e-36
230	0x8f012afd	-6.36847e-30
231	0x058bf1c3	1.3160306e-35
232	0x810aec56	-2.551616e-38
233	0x888801b2	-8.185601e-34
234	0x129381f1	9.309037e-28
235	0x0b0acb77	2.6730903e-32
236	0x88d14e8f	-1.2597199e-33
237	0x83479ad3	-5.8658573e-37
238	0x82eb9e7d	-3.4621114e-37
239	0x0c1b3f52	1.195982e-31
240	0x879b57cb	-2.3373408e-34
241	0x895e6713	-2.6770743e-33
242	0x03b29b92	1.0497617e-36
243	0x0225cc4a	1.2180914e-37
244	0x03edda70	1.3979759e-36
245	0x03fe7bfd	1.4957245e-36
246	0x02598835	1.5981732e-37
247	0x09622003	2.7218812e-33
248	0x02ecea5a	3.4811595e-37
249	0x8652a5a9	-3.9618318e-35
250	0x08eec6cf	1.4370844e-33
251	0x07a2567d	2.4425884e-34
252	0x8452f58b	-2.479813e-36
253	0x8932457d	-2.1458644e-33
254	0x89b7a4ed	-4.4210743e-33
255	0x80eb2d99	-2.1597699e-38

cbam2.ChannelGate.mlp.1.bias f4 [8]
0	0xaee59fd8	-1.0442108e-10
1	0x9332d2ac	-2.2570628e-27
2	0x1f619b59	4.7774104e-20
3	0xb38ba0ce	-6.501942e-08
4	0xbbee3805	-0.0072698616
5	0xbda55331	-0.08072508
6	0xb82d8bd9	-4.1376657e-05
7	0xba62954f	-0.00086434645
