models/ETH_UCY/zara1.pt (torch, 448466 bytes, 33 tensors)

conv2Da.weight f4 [64, 2, 2, 2]
00000000: a939 9ebe 3f74 fabc bbbf 2d3f 2f2b 5e3e
00000010: fa55 803d e9a5 d83b 3629 093e adf6 bdbd
00000020: 5c95 803d 520a cabe ce1e 29be 82a3 563f
00000030: 5d5e 613e ff99 b13d 4d4f 0e3e 05b6 813e
00000040: 9ea0 8cbc 9acf cc3b 7b5e 94bc 5632 313c
00000050: 4726 183c 8e7a 113c 56ce 693d 9e50 d3bc
00000060: 845f b538 f89c 4137 834d 0939 4377 9038
00000070: 5b13 7ab8 74ef 82bb 70eb cbba 44b0 02ba
00000080: ef0c 243e 9a45 9e3d 27d2 f3be f2a0 b8bf
00000090: 0bdb 4cbd 4f97 c33c 2f24 0e3e 3f01 95be
000000a0: 46e6 713d 0350 8d3d 67a0 313b bb1a 0d3f
000000b0: b49b 7cbe b14e 0ebe b138 a03d 9f3c 97bd
000000c0: 1caf 88bb 7ff6 0e3c 4d41 6abb 98c8 e33b
000000d0: 12c3 903c 28f0 2cbc 5868 32bc 4c49 9cba
000000e0: 2c7e 8cbd 3134 5f3d bc01 393d ba09 253e
000000f0: 5149 0f3e b89e c5be 2627 17bf 4f42 9a3e
00000100: 170f 983e af09 51bd 2f30 ff3c b737 c6bd
00000110: 515e c5bb 89d6 3d3e be45 7a3e 4097 793e
00000120: 1ab2 f43b b11e 81bb 0435 aaba fb74 c8bb
00000130: 2a89 ff3c c729 103e 6195 74bc 654f 8d3d
00000140: c1c2 473d ffe6 fcbd d9fd 633e 35b4 d5be
00000150: d574 25be a13a 2cbe a6b4 59be 3fa6 26be
00000160: 984e 10bd 2b15 153d 3735 76be 60be 223f
00000170: 35cc 03be 7264 6abd cf93 a53d 1d7c b2bd
00000180: ff0a 783e a1ab 2cbd 0c7b 02bf 0ed6 b4be
00000190: 07a6 68bd f4da 213b f1a9 da3d d1ee 8ebd
000001a0: 8fe8 d43b afda ffbb e150 df3a ba49 bcbc
000001b0: 4354 7b3c d552 923e 6fcc 483d 89c9 bf3a
000001c0: 1e5b 8abb 3254 263b 5541 a6bb 9dd4 403b
000001d0: d48d 103b 64c4 afbc 2096 84bb 08ad e83a
000001e0: 6237 8c3c 3dd4 12bc 058b a23b b159 0bbd
000001f0: 99e6 0dbd 82c0 c53e ac6b bf3d 44de 9abc
00000200: 7b34 3a3e 0a3f 853d 2798 8d3f 066f 163e
00000210: 902b 0b3d 84fa e63c ca73 3a3d ade8 9a3d
00000220: 7c60 0e38 5291 073a 4514 7839 a6e6 9339
00000230: dec1 03bb ab5c ddba a903 5dbb d684 a0ba
00000240: 82b1 e5bb 8e60 d7bb 033e 323a 071a cdbb
00000250: c0f0 973c 806f 5a3e 82f0 0c3d 870c 483e
00000260: 1760 4937 e756 99b8 e69b 8d38 411b 72b8
00000270: 7d3d 6638 53a4 5dbd 2bef f3b9 e545 34ba
00000280: f0fa a13e c458 06bd 4017 36bf ef11 e7be
00000290: b52d 86bd 32a9 333d 45af 003e b2a2 af3d
000002a0: 3624 0ebf 48e5 25be 1276 9fbf 7ace ff3d
000002b0: 73e7 15bf bb3e 173d 5886 9ebd a083 efbc
000002c0: c8fd 1ebd 5eaa f9bd 1380 ce3d 2ef6 c1be
000002d0: af23 08be 66e0 30be 73f0 76be 49c7 0ebe
000002e0: aed9 233c 7878 ad3b 1138 f3b9 0982 0dbd
000002f0: 9127 05bd 48ee d53e ab0d a03a a69a af3d
00000300: 3f4a a4be 40d9 4d3d 39f4 853f 3a95 72be
00000310: 56c2 81bd 6fd9 2f3e 5805 c63c 9fd4 10be
00000320: 2947 933d d0e2 193d 1013 323d 809f a93d
00000330: 60f3 e8bd 4998 b6bc f1e6 1abe 459d c03d
00000340: f5e8 433e 88fc bbbd d659 9bbe 2376 60be
00000350: c92c 6e3d ebe3 2d3e b6c3 a03d 3630 edbc
00000360: 3e63 4e3e 7606 20bd 3024 01bf 417a b6be
00000370: e761 70bd f063 88bd 6af6 103e e6e4 a4bd
00000380: 85dd 3b3e 8549 8abe 4164 04bf 4499 743f
00000390: db85 a7bc c6dd dbbd 7b43 9fbd 36ad 0b3e
000003a0: 2d7f 36bc 39ed 5a3b 6f78 16bb 83fb 8cbc
000003b0: ca42 adbc bb0a 853e 9b1e 81bd d036 e1b9
000003c0: add3 cabc d8a8 813c 2495 80bf f3ff fb3c
000003d0: 21f3 713e 7a9e e0bd d437 cdbd 987d 4cbd
000003e0: 2f76 a4bc bead 61be 6bea a0be 83aa 9b3f
000003f0: 7c8a 2f3e dc5b 0a3e 9cf7 523e ace3 8d3d
-0.30903366 -0.030573009 0.6787068 0.2169616 0.06266399 0.006611575 0.13394627 -0.09275565
0.06278488 -0.39461 -0.16515657 0.83843243 0.22008653 0.086719505 0.13897438 0.25334182
-0.017166432 0.006250334 -0.018111458 0.010815224 0.00928647 0.008879317 0.057081543 -0.025795277
8.648544e-05 1.1540244e-05 0.00013094214 6.888669e-05 -5.962267e-05 -0.00399583 -0.0015557837 -0.0004985372
0.16020559 0.07728119 -0.4762127 -1.4424117 -0.050013583 0.02387586 0.1388099 -0.29102513
0.059057496 0.06900027 0.0027103664 0.5511891 -0.24668771 -0.13897206 0.07823313 -0.073846094
-0.0041712653 0.008725761 -0.0035744489 0.006951403 0.017671142 -0.010555305 -0.010889135 -0.00119237
-0.06860003 0.054493133 0.04516767 0.16116992 0.13992812 -0.38597655 -0.5904411 0.30128714
0.29699013 -0.051034626 0.031150905 -0.096785955 -0.0060232063 0.1853887 0.24440667 0.24374104
0.0074675204 -0.0039404263 -0.0012985771 -0.006117461 0.031193335 0.14078437 -0.014928193 0.06899909
0.048769716 -0.123487465 0.22264804 -0.4173905 -0.16157849 -0.1681924 -0.21260318 -0.16274355
-0.035231203 0.03639714 -0.24043737 0.6357174 -0.12870868 -0.0572247 0.08084833 -0.08715079
0.24222945 -0.042155866 -0.50969005 -0.3531956 -0.05679896 0.0024697157 0.10676945 -0.06979144
0.0064974497 -0.0078080515 0.0017037654 -0.022984374 0.015339914 0.2857882 0.049023088 0.0014632206
-0.004222288 0.0025379774 -0.005073706 0.0029423602 0.0022057192 -0.021455951 -0.0040462166 0.0017751763
0.017116252 -0.008961734 0.00496042 -0.034021083 -0.034643743 0.38623434 0.09346709 -0.018904813
0.18184082 0.06506164 1.1062058 0.1469079 0.03397709 0.028195627 0.04552058 0.07563911
3.3945296e-05 0.0005171496 0.00023658674 0.0002820987 -0.0020104568 -0.0016888579 -0.0033724105 -0.001224662
-0.007009686 -0.0065727895 0.00067994016 -0.006259206 0.018547416 0.21331596 0.034409054 0.19536029
1.2002906e-05 -7.311795e-05 6.752442e-05 -5.772268e-05 5.489354e-05 -0.05411179 -0.00046526766 -0.000687687
0.31636763 -0.032799497 -0.71129227 -0.4513087 -0.06551687 0.04386253 0.1256686 0.085759535
-0.55524004 -0.16200745 -1.2457907 0.12490554 -0.5855629 0.03692506 -0.07740468 -0.029237568
-0.038816243 -0.12190698 0.10083022 -0.37883133 -0.13294862 -0.17273101 -0.24115162 -0.13943209
0.010000629 0.005293902 -0.00046390345 -0.03454784 -0.032508437 0.41783357 0.0012211105 0.08574419
-0.32087895 0.050256014 1.0465156 -0.23689738 -0.06335895 0.17172788 0.02417247 -0.14143609
0.07191307 0.03756982 0.04347521 0.08282375 -0.11374545 -0.022289412 -0.1512716 0.09404997
0.19131835 -0.09179026 -0.30341977 -0.21920066 0.05814818 0.16981475 0.07849829 -0.028953653
0.20155045 -0.03906866 -0.5044584 -0.35640147 -0.058687117 -0.066596866 0.141565 -0.080514714
0.18346222 -0.27009216 -0.51715475 0.95546365 -0.02044957 -0.10735659 -0.07776543 0.13640293
-0.0111387195 0.0033405556 -0.0022959968 -0.017209774 -0.021150012 0.2598475 -0.06304666 -0.00042956183
-0.024759138 0.015827581 -1.0045514 0.030761695 0.23627903 -0.10967727 -0.10020414 -0.049924463
-0.020075886 -0.22038934 -0.31428847 1.2161411 0.17142671 0.13511604 0.20602268 0.069281906

conv2Da.bias f4 [64]
00000000: 5fb8 a43c d2cc b33d c29b c7bc e84b cfba
00000010: 9263 6c3d e897 1f3e b672 1bbc 8744 3e3f
00000020: d39e edbe 6765 1abc 5b6a 713e ea7f 6c3e
00000030: 524d 5c3e c5c7 8f3d cf76 c7bb cc41 053e
00000040: 56ad c63d 3749 95ba 746d 593d 88c7 c2ba
00000050: 5dbe 8a3e fda1 1b3e 14ba 843e 3a19 b63d
00000060: e042 9f3e d7da af3d 0d31 c0bc 0594 713e
00000070: b175 aa3e 8d49 0cbd b53a 843e 9d68 943e
00000080: 8256 4fba 3d12 d2bc 8597 8a3e 573e a93e
00000090: ceab 373e 9c45 bc3d e5f3 aa3e 599d 043e
000000a0: 7bd2 8c3e 61f1 953e 4ce1 e03d d004 f43d
000000b0: f330 983e 1a55 ec3e 65f8 993c 9f79 6f3e
000000c0: a0aa a5bc ac39 a03e 94bf 303d fe0b b13e
000000d0: e19e 1c3e 6b17 5b3d 1ee1 1d3e 0cb8 a93e
000000e0: 8b2c d63e f56a 963e 9316 423d 5058 c03c
000000f0: a53c a33e 13e2 993d 9c8b bb3e 0372 513e
0.020107446 0.08779301 -0.024366263 -0.0015815469 0.057712145 0.15585291 -0.009487798 0.74323314
-0.46410236 -0.00942359 0.23575728 0.2309567 0.2151387 0.07020525 -0.006087161 0.13013381
0.0970103 -0.0011389618 0.0530829 -0.001486049 0.2709836 0.15198512 0.25923216 0.0889153
0.3110571 0.08586662 -0.02346089 0.23591621 0.33292916 -0.03424983 0.2582604 0.28986064
-0.0007909314 -0.025643462 0.27068725 0.33055374 0.17936632 0.091929644 0.33389202 0.12950648
0.27504334 0.2928572 0.10980472 0.119149804 0.29724845 0.46158677 0.018795202 0.23386239
-0.020222962 0.31294 0.043151453 0.34579462 0.15294982 0.05348913 0.15417907 0.3314823
0.4183086 0.29378477 0.04738481 0.02347961 0.31882206 0.07513823 0.3662995 0.20453648

cbam1.ChannelGate.mlp.1.weight f4 [4, 64]
00000000: 6c39 a40a f2e7 951f a207 d709 adbe 7a86
00000010: 1f72 4b08 cc80 790a e606 7186 4aa2 330e
00000020: b67f 9a0e 0cb8 4313 315f f209 48e5 390a
00000030: 6e28 d78a d6d4 8f1f 6908 da89 e555 6098
00000040: 6af8 e18e 9090 9003 d52b 3d8f 5a90 2488
00000050: 4913 af10 32ed 058a 4e12 ad08 cc7c f5a7
00000060: 5332 1daa 620f 6708 e635 8c20 7464 990a
00000070: 9ccd ad0b d385 369b 3e18 5f08 3d21 01a5
00000080: 8e4e bf09 0fa4 3298 0c61 0889 34b2 210a
00000090: ee2c bf91 c0ee c212 a557 5010 c813 aa8a
000000a0: 6159 389b a45b 500a ed5a 880a c582 e70c
000000b0: 961e 330a 8fc2 87b0 1b4e 5f8a 49bd 198a
000000c0: d0dd 398a b0b5 941a c65f a589 0ba4 988a
000000d0: 7f1c fd8c 1608 0120 ef94 8a8a 9a09 198a
000000e0: db2e 3e0f cc47 a50f 44d4 510a 060d 9a0a
000000f0: c064 7b8a d0e6 1589 10e7 9210 9e8b 1c0a
00000100: a7f3 9b3d 846b bb3e 33db 933d 01ca 26b8
00000110: 101f 023e 424e 733d 718c f93c 1a3f 7d3e
00000120: b28b 953e 4ed1 1d3e 6dc0 503d 2e4c dc3d
00000130: ec53 2f3e 2e85 6a3e 97a0 043c 9060 ad3e
00000140: ea9b 183e 0fe5 f038 2ca0 903e ab97 4bba
00000150: 8f6c 893e 3606 2a3e cfcd 053d 571c c33e
00000160: 5895 973e d3c8 633d 028c 213e 5152 253e
00000170: dc9b 263e 3d05 6f3e 3c32 3b3e 83cd b33e
00000180: eab5 1eba 41c2 093e bfbf 083e 7748 493e
00000190: 9098 453e b5d3 193e 25e3 5d3e 2ff2 c53d
000001a0: 721e bb3e 70a0 bd3d 8f80 aa3d 89ab 1c3e
000001b0: 1393 713d ecc6 1b3f 1260 f73c 46fa 153e
000001c0: 21c7 193e 1753 2a3e 6fbb 313e 4b86 413e
000001d0: c095 063e ca4e 743e 3ed7 f63d 8b7f 683e
000001e0: 8e3e 5b3e ff6f 0d3e 4f78 6b3d 8850 a63d
000001f0: 7b1d 363e bd4e 273e 2a77 2c3e e39b 013e
00000200: ff45 9c24 3cdb 6225 7fff 1224 98ad 39a0
00000210: b26d fe23 19b6 4523 c3a3 afa2 08f1 c0a4
00000220: aebc 6725 d023 a5a5 f851 20a4 248e 3ba4
00000230: 5e18 9724 0d43 29a5 1a23 8b23 8f47 8ea5
00000240: c477 c024 b460 6e9f 1f41 1f29 744c a31f
00000250: 3af0 0023 2e72 7924 095e 15a4 46d2 3ea8
00000260: 112a 87a5 4c99 22a4 d0b9 0aa6 a8fc eaa3
00000270: 7e31 a7a4 a4f5 6aa5 9347 b923 a5f9 74a5
00000280: 5746 f79e 6ae2 67a4 b2c2 5523 77d0 05a3
00000290: e9e8 aaa4 3eb3 f924 c83b 0125 cdbe 4b24
000002a0: 2a8a 6524 69b1 a922 3a7c 0a24 3bbd b0a4
000002b0: a2bd 6724 37ad 8aae b2b2 64a4 9327 6324
000002c0: 44c9 38a4 196e 9ba3 faba 3a24 245c f323
000002d0: d668 d724 a067 ff29 80ce 31a4 5894 c4a4
000002e0: 8bef ea23 d294 a3a4 57e1 3d24 c3fc 91a4
000002f0: 1820 5aa4 5b38 3d24 6e46 a724 3234 0da4
00000300: 9fce 08a8 1150 89a6 076f e323 4436 ada0
00000310: 3f96 cfa2 f9da 5fb0 e267 27ae c9d8 94a7
00000320: 440a 14b3 2085 3d35 9c91 3627 0a6e e724
00000330: b813 1eb6 18ff b225 419d 13af c502 eea5
00000340: 3b88 7da8 343b 28a1 be5e b6b5 e437 31a8
00000350: d58d 80ad f82c 6325 c6c7 1926 3c79 4db5
00000360: d680 1828 2a42 d5a5 fb4b 71b6 d914 5f23
00000370: 3f13 bfa9 b89c 5ea2 20cc 82ae a25c 0127
00000380: 8fc7 fa28 abc4 aaa1 bd9e 87b0 4c09 51a4
00000390: a151 3fb7 0c11 2aa7 9a84 282d ac14 05a6
000003a0: 243f 0fa4 7b4e 322b d307 a336 f614 9ba7
000003b0: c6f2 1c26 55ae bfad 5340 d7a5 cdaf 1123
000003c0: 8e14 d923 303c a227 11fa 1c27 8447 af24
000003d0: 4cbc 53a8 a066 09b7 daa1 1da7 599b 8b23
000003e0: 6872 b625 8304 a527 16ac 0fa3 599d c0a7
000003f0: 610b 69a2 e4e1 2624 50c5 7ca8 3fbd 8ba4
1.5814225e-32 6.3487676e-20 5.1766545e-33 -4.715986e-35 6.122224e-34 1.2013138e-32 -4.533213e-35 2.2141593e-30
3.8086912e-30 2.4703202e-27 5.83489e-33 8.950549e-33 -2.0718955e-32 6.0914963e-20 -5.24895e-33 -2.8994687e-24
-5.5705996e-30 8.496749e-37 -9.326861e-30 -4.952164e-34 6.905504e-29 -6.4483285e-33 1.0416362e-33 -6.8136465e-15
-1.3961861e-13 6.9532116e-34 2.375259e-19 1.477115e-32 6.694654e-32 -1.5097928e-22 6.713512e-34 -1.1200228e-16
4.605545e-33 -2.308879e-24 -1.6416036e-33 7.785384e-33 -3.0162177e-28 1.2301978e-27 4.1088286e-29 -1.6377845e-32
-1.5249003e-22 1.00320714e-32 1.3130526e-32 3.566989e-31 8.624289e-33 -9.87784e-10 -1.07517494e-32 -7.4022826e-33
-8.949144e-33 6.15049e-23 -3.981237e-33 -1.4698774e-32 -3.8997973e-31 1.09294e-19 -1.3344939e-32 -7.368488e-33
9.376747e-30 1.6297911e-29 1.0102907e-32 1.483456e-32 -1.21041594e-32 -1.804375e-33 5.7942854e-29 7.537386e-33
0.07614832 0.36605465 0.07219543 -3.9765615e-05 0.12707162 0.059400804 0.030462475 0.24731103
0.29208142 0.15411875 0.05096476 0.107567176 0.17121857 0.22902367 0.008094928 0.33862734
0.14903226 0.00011486757 0.282472 -0.0007766436 0.26840636 0.16603932 0.032666977 0.3810756
0.29606128 0.055611443 0.15776065 0.16144682 0.16270393 0.23341842 0.18280882 0.3511773
-0.0006054329 0.13453008 0.13354395 0.1965655 0.19296479 0.15022166 0.2166868 0.096653335
0.36546665 0.09259117 0.08325302 0.1529981 0.05897815 0.60850406 0.030197177 0.14646253
0.15017368 0.16633259 0.17356656 0.18898885 0.13143063 0.2385818 0.12052773 0.22704904
0.21410581 0.13812254 0.057487782 0.08120829 0.17784683 0.1633863 0.16842332 0.12657122
6.7772794e-17 1.9676655e-16 3.1875117e-17 -1.5727547e-19 2.7585193e-17 1.0717952e-17 -4.7607235e-18 -8.367505e-17
2.0099983e-16 -2.8647205e-16 -3.47639e-17 -4.066956e-17 6.552709e-17 -1.4681131e-16 1.5085276e-17 -2.4681563e-16
8.346962e-17 -5.047845e-20 3.5361576e-14 6.9159666e-20 6.989764e-18 5.4089982e-17 -3.2388876e-17 -1.05927145e-14
-2.3447272e-16 -3.5257998e-17 -4.813019e-16 -2.5477335e-17 -7.250855e-17 -2.0379491e-16 2.0088053e-17 -2.1248209e-16
-2.6181234e-20 -5.028192e-17 1.15879815e-17 -7.254089e-18 -7.412031e-17 1.08290184e-16 1.1209221e-16 4.4180223e-17
4.977349e-17 4.5995382e-18 3.0029204e-17 -7.66484e-17 5.0250766e-17 -6.3062826e-11 -4.959098e-17 4.92563e-17
-4.006912e-17 -1.6851762e-17 4.0490696e-17 2.6385136e-17 9.3418986e-17 1.1342251e-13 -3.855567e-17 -8.5252754e-17
2.5471781e-17 -7.094209e-17 4.1173712e-17 -6.331192e-17 -4.72984e-17 4.1030577e-17 7.254402e-17 -3.0618712e-17
-7.59432e-15 -9.527987e-16 2.4658411e-17 -2.934325e-19 -5.626654e-18 -8.1438106e-10 -3.806367e-11 -4.131329e-15
-3.4468272e-08 7.060171e-07 2.5336509e-15 1.00366694e-16 -2.3555313e-06 3.1050936e-16 -1.342544e-10 -4.1288295e-16
-1.40738615e-14 -5.699897e-19 -1.358763e-06 -9.837593e-15 -1.4614901e-11 1.9704347e-16 5.335328e-16 -7.654487e-07
8.465632e-15 -3.6994445e-16 -3.5956025e-06 1.2093269e-17 -8.4854426e-14 -3.0169577e-18 -5.9479754e-11 1.7952563e-15
2.784212e-14 -1.1571706e-18 -9.867659e-10 -4.5327526e-17 -1.1403493e-05 -2.360148e-15 9.579138e-12 -4.617166e-16
-3.1061664e-17 6.3347217e-13 4.8586894e-06 -4.304387e-15 5.445239e-16 -2.1791605e-11 -3.7340143e-16 7.897693e-18
2.3535892e-17 4.502929e-15 2.178491e-15 7.6015304e-17 -1.1753683e-14 -8.189731e-06 -2.1875867e-15 1.5136202e-17
3.1649492e-16 4.580159e-15 -7.788486e-18 -5.34613e-15 -3.1583412e-18 3.618685e-17 -1.40315954e-14 -6.0602236e-17

cbam1.ChannelGate.mlp.1.bias f4 [4]
00000000: 9375 66a9 4bb1 b63e 3c27 60a5 63d5 b327
-5.117224e-14 0.3568214 -1.9442196e-16 4.9913835e-15

cbam1.ChannelGate.mlp.3.weight f4 [64, 4]
00000000: 94be 3a0a ed57 723e 660b b423 b639 24ab
00000010: f895 348a adc5 693e 2993 f1a3 5621 67a8
00000020: ddad 8209 3d92 68bd a5ba 8521 8f09 af23
00000030: 5c66 7503 0ffa 17bb ca1f a01e 5607 98a0
00000040: ff27 3e89 9d09 ad3e c203 1da1 2c7f 4226
00000050: 31b7 1a8a be07 de3d a1c6 0324 b0df 3ca7
00000060: ad3e a585 97a7 0bba 0249 5d21 d597 0824
00000070: 322f 5c8a fe38 c73e 4f76 8822 ee86 52a7
00000080: 1d31 408b d907 2e3e 1e3d a723 216e 7228
00000090: 909e 390a 4218 02be 3925 3a22 5170 b8a7
000000a0: 697f c809 0b25 5a3e 67b0 0a24 59e9 582a
000000b0: e61c f889 ec27 313e 413a 3fa1 9848 8828
000000c0: 146d 5bb3 c955 a73d 1482 45a4 da55 0625
000000d0: 1a42 ae08 09b1 03be f238 79a3 386f 9e26
000000e0: b865 0389 ab34 04bc 04e1 4f1f 308b bf20
000000f0: 448c 7008 ae3c 0bbe 59a5 9ba4 789d b427
00000100: 4c71 f38c 1b58 8d3e 1f1b 57a4 2517 a429
00000110: 615e 1a02 c9b1 4cb9 780a 259d b4f1 e5a1
00000120: c9c7 a68a 57b5 1abe 648b f5a3 62c0 72a7
00000130: 5bc7 4406 bcf9 13bc fb20 981d 0ebd 9b9f
00000140: bcfd 9e8b 04a1 4b3e 6a26 1024 70f6 28a6
00000150: 0c0a dd87 017a a13e 38b7 a222 35e1 11a7
00000160: d4ad 1d09 1e27 4c3e 1d8f 5f23 b6b9 022a
00000170: cc7a fb8a dabc 13be 50f8 69a4 f2db 04a8
00000180: dcda 1c38 f413 813e 53c1 83a4 72b1 42a9
00000190: cc82 030b 8a1e 8e3d c2de 04a2 b842 0929
000001a0: 6c9d b59a 6977 9e3d daca 9ca4 3134 2225
000001b0: da48 1fac dff6 d13d 4a6f cfa2 f30a bca5
000001c0: 7f76 8f07 d60f 953e 9c1d 5e23 88c9 2f29
000001d0: 844d 8f89 c906 05be feea 2924 71cd d2a4
000001e0: f6b9 7c87 4ac0 7b3e fc89 8222 f122 3227
000001f0: ca34 0d92 0422 4a3e 0616 c824 f2b7 932a
00000200: 4aff bc87 623e ddba 96bd 121e 4715 c620
00000210: 97c3 c908 723b 00be 565c f0a3 5a4b 1d23
00000220: 6f79 7909 a78f b03e 8e7f 5521 4a9a 19a7
00000230: 6161 838a b12e 573e 1f6e 87a3 b61e 88a7
00000240: d013 6207 a881 673e 3459 c923 92cc c7a8
00000250: f9a7 6337 d1a0 493e a1dd b9a2 4168 4a2b
00000260: 5bf4 701f c3b6 783e f1ce 8824 f919 82aa
00000270: 8121 d70f 5354 183e fd80 7124 dca9 9daa
00000280: 31c4 8894 63cc 863e 15b3 caa3 6b95 c1a6
00000290: 458c 048a 3af2 273e 7e9d eb23 e5f0 c6a9
000002a0: 898a 2412 f147 bf3d c640 ce20 286e 6a28
000002b0: c786 9c09 2a54 ac3e 7afd 2ea4 57f9 1aab
000002c0: 5da2 050a 207d a73e a454 50a3 5e44 b0a9
000002d0: b36d d78c 2257 b23e a242 0e24 f108 1d29
000002e0: 98ce 2189 ac66 68bd 0e97 a121 dcd1 8826
000002f0: cb10 1489 0058 ab3e 6a9f 0722 70a1 8925
00000300: 31db d487 0aed e93d afb3 2ba1 c937 c2a6
00000310: 7768 d13a a6df 323e 56f5 ea24 0218 eea9
00000320: ba04 1909 de9e c33e 2bb4 1b23 ca68 04aa
00000330: 915f 4b19 3e0a 723e 825b 40a4 87e8 0426
00000340: c00b dc32 ce14 693e 3c73 12a4 354c a0aa
00000350: f6f4 e489 f1f3 0cbe f6d3 00a4 0242 c127
00000360: a741 0d09 e3df 5e3e cfdb da22 6f08 0ba9
00000370: 7866 c88d a5df 903e 6a65 e523 7937 f3a5
00000380: e14f 308a 11eb a03e 9a41 58a1 917d 06a8
00000390: a0c0 8439 6af9 d5bd 9f83 84a5 e066 432b
000003a0: 02ca a013 eaa5 8bbd 3495 0523 916d c1a2
000003b0: df21 1189 a834 223e cded 8da3 d74c b129
000003c0: 4d49 6a13 8213 793e b1c5 d5a3 a528 c1a6
000003d0: c4d0 be09 4eab 8c3e 3305 6123 df9d e4a4
000003e0: 4560 621d 45fb a43e b96f baa2 6ef3 5d29
000003f0: be3f fe94 6228 f33d ba31 3324 b055 b526
8.991418e-33 0.23666354 1.9520467e-17 -5.8344594e-13 -8.694891e-33 0.22829314 -2.6191597e-17 -1.28303045e-14
3.1459862e-33 -0.05678009 9.061835e-19 1.8977586e-17 7.211653e-37 -0.0023189818 1.6953807e-20 -2.5754656e-19
-2.2889224e-33 0.33796397 -5.319864e-19 6.747962e-16 -7.449285e-33 0.108413205 2.8574342e-17 -2.6211502e-15
-1.5539549e-35 -0.0005327402 7.497434e-19 2.9618906e-17 -1.0601491e-32 0.3891067 3.698814e-18 -2.92165e-15
-3.7014804e-32 0.16995181 1.813206e-17 1.3457579e-14 8.937248e-33 -0.12704566 2.5227406e-18 -5.1192033e-15
4.8268065e-33 0.21303193 3.00734e-17 1.9265613e-13 -5.9731004e-33 0.17300385 -6.4790416e-19 1.5130516e-14
-5.1089117e-08 0.08170659 -4.2827746e-17 1.1651735e-16 1.04877845e-33 -0.12860502 -1.3510376e-17 1.0993598e-15
-1.581638e-33 -0.008069198 4.4020084e-20 3.2448765e-19 7.2387254e-34 -0.13597366 -6.7500645e-17 5.0130764e-15
-3.7508266e-31 0.27606282 -4.6643666e-17 7.287078e-14 1.1341219e-37 -0.00019521186 -2.184298e-21 -1.5581622e-18
-1.606037e-32 -0.15108238 -2.6621987e-17 -3.3688537e-15 3.7009966e-35 -0.009031709 4.0268166e-21 -6.595782e-20
-6.1241163e-32 0.19885641 3.125756e-17 -5.8620694e-16 -3.325829e-34 0.31538394 4.410418e-18 -2.0244877e-15
1.8979921e-33 0.19936797 1.211916e-17 1.1610751e-13 -2.4216612e-32 -0.1442751 -5.073415e-17 -7.375165e-15
3.7397127e-05 0.25210536 -5.71397e-17 -4.3230563e-14 2.5328083e-32 0.069394186 -1.8007263e-18 3.047798e-14
-7.5114174e-23 0.077376194 -6.799786e-17 1.4068943e-16 -2.26357e-12 0.10252165 -5.6225294e-18 -3.262022e-16
2.1585894e-34 0.29113644 1.2040914e-17 3.9032606e-14 -3.4498893e-33 -0.1299087 3.684508e-17 -9.1421014e-17
-1.9013022e-34 0.24585071 3.5382667e-18 2.4721404e-15 -4.4556823e-28 0.19739538 8.677348e-17 2.6240083e-13
-2.8437141e-34 -0.0016879553 7.768381e-21 3.3556585e-19 1.214323e-33 -0.12522677 -2.6059958e-17 8.526943e-18
3.0029383e-33 0.34484598 7.2336024e-19 -2.1316656e-15 -1.2651471e-32 0.21013905 -1.4683367e-17 -3.778088e-15
1.7008173e-34 0.22608054 2.1830243e-17 -2.2182156e-14 1.3569364e-05 0.19690253 -5.037901e-18 7.19095e-13
5.1024103e-20 0.24288468 5.933117e-17 -2.311066e-13 2.1213542e-29 0.14875917 5.2367802e-17 -2.8006666e-13
-1.3809875e-26 0.2632781 -2.1976728e-17 -1.3432565e-15 -6.3819506e-33 0.16400996 2.5545452e-17 -8.834755e-14
5.1920033e-28 0.093398936 3.494062e-19 1.3013496e-14 3.7682378e-33 0.33657962 -3.794494e-17 -5.505782e-13
6.434254e-33 0.3271265 -1.1293626e-17 -7.82783e-14 -3.3192018e-31 0.34832102 3.0847782e-17 3.486876e-14
-1.947681e-33 -0.05673854 1.0949768e-18 9.493778e-16 -1.7822748e-33 0.33465576 1.8380305e-18 2.3875106e-16
-3.2027044e-34 0.11422165 -5.8174863e-19 -1.3476575e-15 0.0015976568 0.17468128 1.0189694e-16 -1.0573488e-13
1.8418928e-33 0.38207144 8.440719e-18 -1.1760311e-13 1.05141535e-23 0.2363672 -4.1710874e-17 4.6111833e-16
2.5616714e-08 0.22761843 -3.175631e-17 -2.847459e-13 -5.5119364e-33 -0.13764931 -2.7935114e-17 5.3639827e-15
1.7003127e-33 0.21765094 5.932175e-18 -3.0871515e-14 -1.235062e-30 0.28295627 2.487118e-17 -4.219137e-16
-8.489115e-33 0.3142934 -7.327047e-19 -7.465722e-15 0.0002532052 -0.104479626 -2.298754e-16 6.9420684e-13
4.0588873e-27 -0.06818755 7.2415394e-18 -5.2428763e-18 -1.7469666e-33 0.158404 -1.5387963e-17 7.8737086e-14
2.9571092e-27 0.24323848 -2.3177232e-17 -1.3403082e-15 4.593716e-33 0.27474445 1.21983754e-17 -9.914668e-17
2.9960621e-21 0.32222953 -5.053369e-18 4.9283e-14 -2.5672588e-26 0.11872937 3.8856558e-17 1.2582624e-15

cbam1.ChannelGate.mlp.3.bias f4 [64]
00000000: a24a dc3c f883 f63c bbae 07bb a1a2 9cb7
00000010: 10e3 c43d e38e d2bd 8592 11ba d442 a33d
00000020: 35ad 5cbc 07aa 53bb 19ee 303c cca9 65bc
00000030: 8c2e d0bd 89e2 1d3c 8816 deb8 9c13 cb3d
00000040: 3de0 a63d c201 f2b6 dd06 02bc f656 32ba
00000050: 4e78 ec3d cadd e83c fe7c ee3b 9aef 7c3d
00000060: a98f cb3e 9f3d c7bc 001f 29be cf1b fabc
00000070: 6243 993d 94ba e93c f592 1f3d f5e9 c9bd
00000080: bc0c a0b9 6545 bdba 878a b73d 0dbb 013d
00000090: 3a16 6a3d 4299 c73e 2446 603c a0c5 72be
000000a0: 49e3 b93d 1326 0abd b973 ed3c e222 063d
000000b0: 962b 8c3d 692f c93d 71e4 4bbb 60b6 ce3d
000000c0: f888 41bb c7c6 bf3e df72 a53d a648 1d3e
000000d0: 3b96 2b3e a170 fe3c 878c e63b ac2e 163e
000000e0: 0726 b83d 1916 4e3e a0d2 2e3a 33fd 8eba
000000f0: 4660 cb3d 5a33 873c a2c9 ca3d f14d b03d
0.026891056 0.030092224 -0.0020703513 -1.867238e-05 0.09613621 -0.1028116 -0.0005553144 0.07971731
-0.01346903 -0.003229739 0.010798954 -0.0140175335 -0.10165128 0.00963653 -0.00010589982 0.099158496
0.08148239 -7.2123667e-06 -0.007936207 -0.00068031193 0.11546384 0.02842607 0.007278084 0.06175194
0.39758042 -0.024321375 -0.16515732 -0.030530838 0.074835554 0.02853135 0.03895851 -0.09859077
-0.00030527066 -0.0014440237 0.08961969 0.031672526 0.057150103 0.38984114 0.013688598 -0.237082
0.09076554 -0.033727717 0.028985845 0.03274811 0.06844251 0.09823496 -0.0031111503 0.10093379
-0.0029531103 0.37456343 0.080785505 0.15359744 0.16756527 0.031059565 0.007035795 0.14666241
0.08991628 0.20125617 0.0006668959 -0.00109092 0.09930472 0.016503979 0.0990174 0.08608616

cbam1.SpatialGate.spatial.conv.weight f4 [1, 2, 7, 7]
00000000: 0e99 0000 ffce 0000 2e1a 0d25 cac1 3a3e
00000010: 945d 0180 b2cf e333 7a5e 0280 f253 0080
00000020: 3971 0000 360c 0080 7c3d 733d 4521 0000
00000030: 21e0 0080 57d5 0000 6411 0080 d0ba 0000
00000040: fa6e 0180 7dd8 eabe bdc7 0080 69cd 0080
00000050: fa33 0180 2b80 7cb8 9675 0000 739a 0000
00000060: 2282 5e39 2708 0100 e60c 0080 395b 0080
00000070: c6bb 0280 dad9 0000 8501 0180 38a5 f9bd
00000080: 8ea8 0000 732d 0000 9e62 0000 13a3 0000
00000090: 4d6d 0080 2ea9 0080 84c7 343e 1f16 0180
000000a0: b3f4 0080 6df1 0180 b34e 0000 faa4 04b9
000000b0: e95d 0180 8206 6ebe d479 0080 4ccd 0000
000000c0: 7ce0 0f3b 4d5a 0080 0b31 0100 749c 0000
000000d0: af0a e33e 8036 0080 aa3a 0000 17b7 0000
000000e0: 714b 0080 babe 0000 4057 0100 e6d2 b8bd
000000f0: c192 0000 e1b9 0080 7f9d 0080 f711 0180
00000100: 16a8 0000 c80a cc25 8358 b33e 0d09 0180
00000110: 65b2 0000 8a3b 0000 2daf 0080 3dec 0080
00000120: 5157 0000 3dec c13d f22e 0000 3bc8 0180
00000130: f24d 9aa4 06fd 0080 0d1f 0280 4b0e 0180
00000140: b58b 8ebe 7643 0080 078c 0000 2796 0080
00000150: 1d25 0080 a951 0280 e6c5 732a f257 1e3e
00000160: e539 0100 ac0c 0000 caed 0000 0bba 3caf
00000170: 7718 0080 5940 0000 29cb eebd 2671 0000
00000180: c948 0000 a40f 0180
5.4906e-41 7.4256e-41 1.223867e-16 0.18237987 -1.25405e-40 1.0608291e-07 -2.17563e-40 -3.0114e-41
4.0617e-41 -4.38e-42 0.059384808 1.1935e-41 -8.0402e-41 7.6532e-41 -6.239e-42 6.7016e-41
-1.31646e-40 -0.45868292 -7.1653e-41 -7.3687e-41 -1.10481e-40 -6.0200848e-05 4.2182e-41 5.5406e-41
0.00021220048 9.476e-41 -4.627e-42 -3.2725e-41 -2.51031e-40 7.815e-41 -9.238e-41 -0.12189716
6.0466e-41 1.6304e-41 3.5377e-41 5.85e-41 -3.921e-41 -6.069e-41 0.17654234 -9.9771e-41
-8.7782e-41 -1.78443e-40 2.8232e-41 -0.0001264996 -1.25524e-40 -0.2324467 -4.3704e-41 7.3647e-41
0.0021953871 -3.2394e-41 1.09429e-40 5.6125e-41 0.44344088 -1.9551e-41 2.1045e-41 6.568e-41
-2.7063e-41 6.842e-41 1.23135e-40 -0.09024601 5.2645e-41 -6.6681e-41 -5.6499e-41 -9.828e-41
6.0298e-41 3.5395665e-16 0.35028467 -9.5082e-41 6.3996e-41 2.1359e-41 -6.2841e-41 -8.4746e-41
3.1323e-41 0.09468887 1.6841e-41 -1.63665e-40 -6.69189e-17 -9.0768e-41 -1.9481e-40 -9.6963e-41
-0.27840963 -2.42e-41 5.0232e-41 -5.3865e-41 -1.3314e-41 -2.12965e-40 2.1651395e-13 0.15463236
1.12604e-40 4.546e-42 8.5303e-41 -1.7164596e-10 -8.776e-42 2.3084e-41 -0.116598435 4.059e-41
2.611e-41 -9.7446e-41

conv2Db.weight f4 [128, 64, 2, 1]
00000000: bf29 e239 b481 5836 9119 7739 d0cb 553a
00000010: 853b 5bb8 861f c937 9b3c 03b6 ed90 b7b4
00000020: 18e3 e439 6857 14b9 0f74 bc38 8162 2a3a
00000030: 10b6 24b7 d4c8 6735 bba1 83ba 0618 eab9
00000040: 837e 4d3b 19bb 38ba 3c3f fdb8 9a0e fb37
00000050: c654 7ab8 95dd 10b9 03b1 86b9 d4bd 953a
00000060: 5cfc 4eba dcbd 1bba 05b3 4738 0313 deb8
00000070: e4a0 afb4 2f5d 2e35 5ab7 b7b8 cc20 81b9
00000080: c7a9 d9ba d579 843a 0b0c dc32 c22f 93b5
00000090: deac 53b8 dae1 3ab8 4f1b 3c39 02a9 96b6
000000a0: baaa fbb9 9262 99bb 4dad c23a 4f3e 6bba
000000b0: 3568 1a39 b028 e438 c577 a938 35c9 eeb6
000000c0: 955d 0ebb c410 623a 8fc0 24b9 4326 08b9
000000d0: a396 5abc 39a8 6339 83b3 30b9 1cf2 2239
000000e0: 82dd e439 8941 04bb 6068 db38 17b1 8637
000000f0: d290 703a 0c9d ab3a 9147 6a3b 0c1e 083b
00000100: 04a1 c534 a414 b9b4 a927 5b37 d544 88b6
00000110: a9b8 99b9 0b50 58ba 0484 08bb 51aa 373a
00000120: 6f1c 40bb 60b1 03bb 4d28 4539 c79f ea3a
00000130: 2490 ec38 ad59 163b c353 a3b8 cc0a f537
00000140: 06ea 1d3b 8a14 adba 8025 fd38 cdca f2ba
00000150: 34f8 01b9 a199 26bb a108 0a3a f094 2239
00000160: 3022 fcb8 eb77 52b9 9402 21b9 4846 3fbc
00000170: 4cec 79b8 223d a7b8 1318 27ba 5d6a 593a
00000180: bfc1 21b9 ef89 d83a 6d45 303a 483c b538
00000190: ecf0 a039 a2e9 0cb9 e288 053a 5ee0 d9ba
000001a0: d195 bc39 c228 76b9 d81a fe37 f022 0538
000001b0: 40fd 8f3a 69ad 16ba d875 383a a184 7139
000001c0: 0dfd 35b9 36fe e2b7 f3ba cf39 bfa4 68b9
000001d0: ab19 2db8 abad 6fb9 32bc 8539 4ff3 613a
000001e0: e0a8 dfb9 c799 afba 9dc2 8dba f22b 96ba
000001f0: 3537 cab6 8c86 c939 5971 8ab7 aea9 8e3a
00000200: 1679 b538 99c8 43b9 121d 04ba 885e 10ba
00000210: 429e 98b7 98b1 bbb8 3b52 c632 4e70 c332
00000220: db72 94ba b937 e7ba 5993 8fba 7833 acba
00000230: db67 c738 1c93 d8b6 8165 69bb eff2 1abb
00000240: 0c15 47b9 5cf0 9db8 6e95 12b8 08a5 9c35
00000250: 5823 20ba c269 f3b9 6b62 9fbb 2e4e 1abb
00000260: 6f64 25ba c7dd 54ba 51b3 0cb9 1fb7 08b8
00000270: 7597 96b7 98e1 06b6 7ce0 ddb8 1503 bbb9
00000280: 2904 5f39 9b10 6639 32a3 3fb5 edc2 ba34
00000290: 4163 93b7 dca1 afb7 d9de 4d35 c462 c6b3
000002a0: db4f 35ba ef79 49ba 03ee e7bb 0f91 ccbb
000002b0: a76f d8ba 0922 bdba 8ca8 1ab8 90b6 87b8
000002c0: 18df 1c37 97e3 6338 78b4 4cb9 32b4 f7b9
000002d0: 38b0 45b9 bec6 1cb9 3918 34bb fe74 adba
000002e0: 71dc acbb 5d94 08bb fa36 a4b8 a2f7 32b8
000002f0: 4269 ddbb 5793 6bbb db63 81ba 29a9 a6ba
00000300: 9f62 22b6 f903 2534 812f c5b7 be6b 24b6
00000310: ca79 a9ba 9224 82ba 1679 04bc d382 98bb
00000320: 4a2a 4cba 4700 53ba 7b3b f739 4b7d c938
00000330: 18f4 a0bb ee48 d6ba 99d1 7eba ec22 85ba
00000340: 2fbb 89ba e831 16bb 62bd 72ba ef00 86ba
00000350: 7a5e 83b9 ab9c c5b9 cab1 b439 76e4 9c38
00000360: e8c4 a7ba 9551 0dbb d736 33ba 216f 17bb
00000370: 62cd 1f39 8e68 8ab8 1a02 41bb b9f8 3abb
00000380: e589 75b9 6807 35ba 303b 14b7 d58f 36b9
00000390: 6497 063a 4246 f139 516a 8abb 2d14 15bb
000003a0: 7a17 bd39 15c4 e838 ecd8 1eb8 74cc c1b8
000003b0: fa4e f2b8 b9cc b9b9 fc25 abba 21c7 dbba
000003c0: 7d07 f0bb edf0 0fbb f741 e137 0b05 f6b8
000003d0: cdf6 52b9 0ead b7b9 836f 80b8 b20d efb9
000003e0: 8f02 87bb a69c 0ebb 4103 a1bb 1386 8bbb
000003f0: 45e5 2bb9 045a ccb9 d49a fbba 005b b3ba
0.00043137182 3.2262005e-06 0.0002356528 0.00081556756 -5.22691e-05 2.3975746e-05 -1.9555798e-06 -3.4191854e-07
0.00043656747 -0.00014146941 8.986156e-05 0.00064996636 -9.8175515e-06 8.634645e-07 -0.0010042706 -0.00044649857
0.0031355924 -0.00070469227 -0.000120757584 2.9928331e-05 -5.9683596e-05 -0.00013815456 -0.00025690356 0.0011424371
-0.0007895881 -0.0005941072 4.7612022e-05 -0.00010589326 -3.2713353e-07 6.495565e-07 -8.760272e-05 -0.00024629233
-0.0016606384 0.001010711 2.5616847e-08 -1.0966253e-06 -5.0467315e-05 -4.4556196e-05 0.0001793925 -4.4900235e-06
-0.00048001652 -0.00468094 0.0014852673 -0.0008973823 0.00014725405 0.00010879466 8.080857e-05 -7.1163763e-06
-0.002172326 0.0008623714 -0.00015711992 -0.00012984224 -0.013341579 0.00021711075 -0.00016851541 0.00015539717
0.00043652585 -0.0020180664 0.00010462175 1.6056509e-05 0.00091768533 0.0013093068 0.0035748223 0.0020769862
3.6811264e-07 -3.4473953e-07 1.3062651e-05 -4.061129e-06 -0.00029320017 -0.00082516734 -0.002083064 0.0007006275
-0.0029313823 -0.0020094737 0.00018802397 0.00179004 0.00011280205 0.0022941635 -7.7880475e-05 2.9211304e-05
0.0024095788 -0.0013204974 0.00012070965 -0.0018523574 -0.00012394862 -0.002542116 0.0005265568 0.00015505007
-0.00012022664 -0.00020071834 -0.00015355117 -0.011674471 -5.9586295e-05 -7.9745674e-05 -0.0006374132 0.00082937424
-0.00015426333 0.00165206 0.00067242124 8.641981e-05 0.0003069708 -0.00013438475 0.00050939445 -0.0016622653
0.00035969776 -0.00023475572 3.029166e-05 3.174221e-05 0.0010985509 -0.0005747886 0.0007036603 0.00023032959
-0.00017355774 -2.7059676e-05 0.00039621405 -0.00022186617 -4.127032e-05 -0.00022857513 0.00025507953 0.00086193247
-0.00042659696 -0.001339727 -0.0010815446 -0.0011457189 -6.026496e-06 0.00038437953 -1.6503664e-05 0.0010884309
8.6533066e-05 -0.00018671378 -0.0005039732 -0.00055072503 -1.8193507e-05 -8.949934e-05 2.3087628e-08 2.2752058e-08
-0.0011325734 -0.0017640508 -0.0010953947 -0.0013137897 9.508404e-05 -6.4544274e-06 -0.003561348 -0.0023643335
-0.0001898596 -7.531114e-05 -3.494828e-05 1.1670936e-06 -0.0006108782 -0.00046427367 -0.0048640273 -0.0023545134
-0.0006309216 -0.00081202056 -0.00013418241 -3.259547e-05 -1.7951921e-05 -2.0098869e-06 -0.00010579915 -0.00035669716
0.00021268487 0.00021940695 -7.1390525e-07 3.4787027e-07 -1.7569984e-05 -2.0936997e-05 7.6692737e-07 -9.238059e-08
-0.00069165014 -0.0007685711 -0.0070779338 -0.0062428783 -0.0016512767 -0.0014429699 -3.6873433e-05 -6.4713066e-05
9.350268e-06 5.4332977e-05 -0.00019522186 -0.00047245767 -0.0001885303 -0.00014951357 -0.0027480258 -0.0013233719
-0.005275302 -0.0020840385 -7.8303696e-05 -4.2669133e-05 -0.0067569325 -0.0035945976 -0.0009871678 -0.0012715209
-2.4197286e-06 1.5368268e-07 -2.350635e-05 -2.4500619e-06 -0.0012929973 -0.0009929112 -0.00808551 -0.0046542673
-0.0007788284 -0.00080490526 0.00047155828 9.6077645e-05 -0.0049119107 -0.0016348639 -0.00097205635 -0.0010157502
-0.0010508056 -0.002291793 -0.00092597876 -0.0010223667 -0.00025056658 -0.00037691495 0.0003446474 7.481214e-05
-0.0012799772 -0.002156352 -0.000683648 -0.002310701 0.00015239933 -6.5998276e-05 -0.0029450716 -0.0028529598
-0.0002341639 -0.00069057057 -8.835268e-06 -0.00017410454 0.00051342533 0.00046019448 -0.0042240997 -0.0022747621
0.0003606638 0.00011099145 -3.787216e-05 -9.2410395e-05 -0.0001155417 -0.0003543848 -0.0013057585 -0.0016767719
-0.0073251114 -0.0021963671 2.6852807e-05 -0.000117311334 -0.00020119101 -0.00035033416 -6.124286e-05 -0.00045595836
-0.004120178 -0.002176085 -0.004913718 -0.0042579263 -0.0001639324 -0.0003897698 -0.0019195923 -0.0013683736

conv2Db.bias f4 [128]
00000000: af84 72bc 0f1b 34bb 03cf 8c3e 28ac c4bc
00000010: 08bd 89bb 3a4f 1bbd 35f4 db3d a5c0 bbbc
00000020: f185 27bc 2905 27bb 5380 91bd c553 903e
00000030: f0c6 4bbc 3a32 19bb 5a0b 543e b5b4 84bb
00000040: 6696 97bb 5738 65be f51f 2b3d 544b 513e
00000050: 8815 c4bc 8942 8abc fc83 51ba 6751 abbb
00000060: 8b46 a6ba 1ee6 9cba 5bcc adbc 9faa c4bc
00000070: 4d09 c2bc 2e58 1ebc e7c6 6a3d 132c c2bb
00000080: 4271 90bc 990a 8dbe 5c35 0cbd 204a 8f3d
00000090: 015c 53bd f9c3 1fbd 56fb 0d3e 3f1f 233d
000000a0: 190a 0dbb a0bc 9abd 0e4c 05bd 9a8b 80bc
000000b0: f96b f4ba 31fc 7dbb 32dd 81bd 01c6 3ebc
000000c0: 9b7d c9bc 7467 f43c 79c8 173e 6c2d 00bb
000000d0: 7a82 99ba 141c 28bb 009c 41bc 3e73 f4bc
000000e0: cd1e 90bd 2372 52bb 81da 9cbc b967 e9bc
000000f0: a036 e0ba e09b 963b fac1 4dbd 58b6 97bb
00000100: ee28 953c 0999 ebbc fbaa 82bb 956b 613d
00000110: d47e 4d3a 1597 13bb 8c2b 4dbd 9fd3 343e
00000120: 4858 e3bd 30c6 23bb 9d93 cc3d 5113 7a3e
00000130: 8d0e 28bb 9f30 d9bb eac0 16bb 37c8 653c
00000140: aad6 95bb 3666 60ba 4325 723e 1d8e 1a3d
00000150: 1bbc aabd 1f26 b1bd b5fc 033d 35f1 3e3b
00000160: 8da3 573d 9ac3 393e 9734 fb3d 2623 54ba
00000170: d8b7 64bb acc2 b53e 6113 f8ba 35e0 8abd
00000180: e287 983c cb4c 91bc 6fd4 1bbb 75e9 bf3e
00000190: f066 ed3d 7f5c 1c3d b284 0ebb f9d6 a53d
000001a0: 5c88 273e b791 39bc 443d 353e 1dc3 1ebb
000001b0: 8db7 b9bc 7e0c f43b 63f8 47ba 42b9 a43d
000001c0: c317 9ebc 63d3 a4bd de09 1abc d38c 2fbc
000001d0: 7860 6e3e bf40 80bc 7b8b 05bb b1e0 133c
000001e0: a595 0cbc 684e 54bb 32e0 7abd 0575 9cbd
000001f0: 9b2f 913e 0859 fa3c 0848 ddbb d171 14bd
-0.014802142 -0.0027481948 0.27501687 -0.024007872 -0.0042034425 -0.037917353 0.10739938 -0.022919009
-0.010224805 -0.0025485253 -0.07104554 0.2818891 -0.012437567 -0.0023375885 0.20707455 -0.0040498623
-0.004626083 -0.22384773 0.041778523 0.20438892 -0.023936048 -0.01687743 -0.00079923845 -0.00522821
-0.0012685818 -0.0011970436 -0.021215608 -0.02400714 -0.023686076 -0.009664578 0.057318594 -0.005925664
-0.01763213 -0.27547148 -0.034230575 0.0699656 -0.051601414 -0.039005253 0.13865408 0.03982472
-0.0021520911 -0.075555086 -0.032543235 -0.015691567 -0.0018647901 -0.0038755054 -0.06341018 -0.0116438875
-0.024596026 0.029834487 0.14822568 -0.0019558324 -0.0011711859 -0.0025651501 -0.011816978 -0.029840108
-0.07037125 -0.0032111488 -0.01914716 -0.028491842 -0.0017106123 0.0045962185 -0.05023382 -0.0046298914
0.018207993 -0.028759496 -0.0039876676 0.05503424 0.0007839028 -0.0022520472 -0.050090358 0.17658852
-0.11100823 -0.0024989955 0.099890925 0.24421431 -0.0025643439 -0.0066281105 -0.002300317 0.014024786
-0.004572709 -0.00085601525 0.23647027 0.037733186 -0.083366595 -0.08649849 0.032223422 0.002913547
0.05264621 0.18141022 0.1226589 -0.0008092396 -0.0034899618 0.35500085 -0.0018926674 -0.06781045
0.018619481 -0.017736813 -0.0023777743 0.374828 0.115918994 0.03817415 -0.0021746573 0.080976434
0.1636061 -0.011326245 0.17699152 -0.0024225183 -0.022670532 0.0074477782 -0.000762826 0.080431476
-0.01929844 -0.08048131 -0.009401767 -0.010714727 0.23278987 -0.015655873 -0.0020377326 0.009025739
-0.0085806 -0.0032395367 -0.061248966 -0.07639507 0.28356633 0.030560032 -0.0067529716 -0.036241356

cbam2.ChannelGate.mlp.1.weight f4 [8, 128]
00000000: 0167 81a2 ad18 8da0 e702 0e25 c3c0 58a2
00000010: c1b1 12a1 100b 3da1 668d 1c24 3414 8621
00000020: afb4 8aa1 5132 54a0 435e d122 d4de c125
00000030: b662 68a2 2dc5 0122 3329 9424 3157 8c20
00000040: 1d18 e2a1 ee04 52a4 ab8f 41a2 ca64 3ca4
00000050: 4a91 89a2 9400 1624 c00e 5f23 638b 4b21
00000060: 8430 bf9e d2f2 2ea1 5fc3 c124 952a 9a23
00000070: 53f3 f2a2 a3be 98a2 1839 e224 cf1f 3321
00000080: a476 52a2 fcc1 a225 39ef bda2 8e28 2824
00000090: 46ec 93a3 cc6b e222 e13c 0125 3d14 cd22
000000a0: 8841 aba1 122c 40a3 f63e 9da1 5faa f821
000000b0: d7e4 0b9f 5b78 11a0 9c80 f722 d770 1da2
000000c0: 6f9b c5a1 b797 91a2 5996 a025 e677 e4a1
000000d0: 70f1 9023 f512 b320 1ee8 9aa2 1aed 9821
000000e0: 61d4 57a4 7cf2 c021 1b9d 49a2 317d e722
000000f0: 7667 5aa0 f6c1 0923 baa6 a8a4 964b 7222
00000100: a299 a8a1 f361 2223 b14a 05a1 3ef3 c725
00000110: 0495 dc22 6cf9 8ea3 e527 b426 8cfd 2da3
00000120: 9681 cb24 98dd 04a0 a79a 2424 e3ce 9925
00000130: 879f 8ca0 f9ce eaa1 b0ab 1d9f 0130 e220
00000140: 30e2 01a2 c66b a41e 8804 7724 fece 1aa3
00000150: 537a 9ca3 0375 5626 4e86 14a3 d96d a8a3
00000160: 4ce0 c39e 45d1 4a23 72cc 81a3 6bb5 be1e
00000170: f5d4 f3a2 601f 7125 3c3a 149e 7a03 b123
00000180: a4f9 1323 d8dd c622 9b9d 289f 734f ae25
00000190: 98e9 3423 6829 e221 1685 8721 5c97 4524
000001a0: 866c 1125 e54e d020 3d98 f3a4 0877 93a0
000001b0: 865a 42a2 44ab 1621 39cd 1ca0 5042 a324
000001c0: 6f02 82a3 3891 2ba3 3581 42a0 624a b121
000001d0: 9886 8824 23e7 cba2 ecd4 5ba3 ef1a 2aa0
000001e0: 5456 c2a1 5d4f 871f e613 f020 96f6 8c23
000001f0: 0a05 3d24 b7ce 97a3 4ed1 cca1 f7d7 8e21
00000200: fcd6 7630 47af 2032 9485 1ab6 7dac ce33
00000210: 99a7 8cb1 987b d1b1 b1e5 69b4 1266 f4b4
00000220: f98b bc32 7766 7cb0 a4e9 e0b4 587e f034
00000230: ad3b ed34 4b08 26b2 7e5d 2ab4 dd64 bcb0
00000240: 8ce5 1bb1 f9cd ac35 5042 13b5 3645 d9b4
00000250: eaf4 e033 6942 4a35 cbc5 89b5 df02 f0af
00000260: 0307 70b0 bf83 ac31 61f2 5434 3021 efb4
00000270: d8b7 0d33 c12f 4db1 9d8e 6db6 c93a a032
00000280: 0142 66b3 0160 63b6 133b 1d33 3c92 cbb4
00000290: 9321 0d32 b98e 7cb3 829e e435 fcd6 0a31
000002a0: 2d2c e831 7f67 b534 5bfe 9031 c573 8833
000002b0: f3b9 3730 5190 2b33 71f4 b5b4 9310 0eb2
000002c0: 5311 1fb2 43e7 e7b4 c572 86b5 bda9 4a31
000002d0: 23fa 52b7 bbea 9e31 ff10 0bb4 0c94 56b4
000002e0: c632 93b5 bf7d 8ab5 58cf 10b1 2008 f734
000002f0: 0e5e 2cb0 b871 f8af 389b cdb7 49da 8a31
00000300: 69b2 8bb4 eae8 a8b3 f669 1f30 59bf 1636
00000310: f908 b5b0 679b c62e 70d8 5eb5 79bd a5b4
00000320: d2a4 beb5 5472 83b1 7376 8434 c56e 75b3
00000330: cea5 df35 c61f 6231 84a9 8db0 cf65 2631
00000340: 2115 7330 7cc3 922f e4ca 8a35 fbb5 13b4
00000350: 4b3b c5b1 eebc a636 7dfb d633 176c 1934
00000360: dd24 89b4 a5bf 8034 ad22 8534 b458 1132
00000370: 1fe5 e331 61c5 1736 0225 5eb1 35be 6434
00000380: 9efc 12b3 6685 a4b4 f128 0531 c3d0 33b5
00000390: 7b31 aeb5 5c2f b8b3 40ba 96b2 a819 cab4
000003a0: b426 7bb6 78ea 34b4 082d 5836 9166 19b2
000003b0: 2b2f e432 6dd0 bfb3 807f 3f32 f15f 9735
000003c0: 72b4 0734 7acd 0cb3 b1c9 d92f a462 1d38
000003d0: 3ebd ab33 a178 0e34 f3e0 d9b0 7d1a 342f
000003e0: 1941 41b2 d55e 782f 3714 9fb3 72ea 10b3
000003f0: 9212 a333 14d0 cd33 5fa0 4133 c53b e132
-3.507458e-18 -2.3902658e-19 1.231752e-16 -2.9375506e-18 -4.970198e-19 -6.405033e-19 3.3946877e-17 9.085541e-19
-9.39907e-19 -1.7973747e-19 5.6749367e-18 3.3631157e-16 -3.149412e-18 1.7587144e-18 6.425456e-17 2.377462e-19
-1.5320738e-18 -4.5540667e-17 -2.6232435e-18 -4.0851373e-17 -3.7287755e-18 3.2526555e-17 1.2091978e-17 6.896355e-19
-2.0242977e-20 -5.9274863e-19 8.403138e-17 1.6714748e-17 -6.585186e-18 -4.1401527e-18 9.81086e-17 6.0689657e-19
-2.8523115e-18 2.823397e-16 -5.148184e-18 3.6463544e-17 -1.6037838e-17 6.1371557e-18 1.1209593e-16 5.558679e-18
-1.1604757e-18 -1.0417673e-17 -1.0655399e-18 1.6850231e-18 -2.9623687e-20 -1.23218e-19 6.7085655e-18 -2.1337205e-18
-1.3390382e-18 -3.9462963e-18 2.7857455e-16 -1.5481618e-18 1.5714764e-17 3.0336324e-19 -4.1987547e-18 1.0362681e-18
-4.6800585e-17 1.3074611e-18 -2.732375e-18 6.2745227e-18 -1.849955e-19 7.467858e-18 -7.314083e-17 3.283713e-18
-1.1424789e-18 8.802779e-18 -4.5161006e-19 3.4685824e-16 5.9788896e-18 -1.5501305e-17 1.2500822e-15 -9.4320394e-18
8.8256744e-17 -1.1254154e-19 3.5692827e-17 2.668146e-16 -2.382249e-19 -1.5911242e-18 -3.338806e-20 3.8317656e-19
-1.7602503e-18 1.740875e-20 5.3563425e-17 -8.392189e-18 -1.696536e-17 7.4404745e-16 -8.051536e-18 -1.8261119e-17
-2.0739195e-20 1.09947565e-17 -1.4072794e-17 2.0192065e-20 -6.609076e-18 2.0914048e-16 -7.847097e-21 1.9191851e-17
8.0217494e-18 5.3902894e-18 -3.5705752e-20 3.0238025e-16 9.807285e-18 1.5325316e-18 9.183183e-19 4.2845772e-17
1.2613514e-16 3.5288779e-19 -1.0564235e-16 -2.4981537e-19 -2.6339825e-18 5.1048645e-19 -1.3281616e-19 7.080232e-17
-1.4095659e-17 -9.30068e-18 -1.647519e-19 1.2013675e-18 5.920861e-17 -5.5267986e-18 -1.1917102e-17 -1.4408472e-19
-1.3168802e-18 5.730602e-20 4.067075e-19 1.5283264e-17 4.098711e-17 -1.6459e-17 -1.387898e-18 9.67946e-19
8.979979e-10 9.353079e-09 -2.302554e-06 9.623998e-08 -4.09359e-09 -6.0967515e-09 -2.1783377e-07 -4.5522808e-07
2.1949733e-08 -9.182268e-10 -4.1893247e-07 4.479541e-07 4.418811e-07 -9.664357e-09 -1.5866496e-07 -1.3707467e-09
-2.268595e-09 1.2874945e-06 -5.4858265e-07 -4.0469757e-07 1.04753624e-07 7.5347504e-07 -1.0264861e-06 -4.3657786e-10
-8.7321456e-10 5.0208366e-09 1.9832216e-07 -4.4541366e-07 3.2996326e-08 -2.9858571e-09 -3.5398764e-06 1.8653184e-08
-5.361108e-08 -3.3881518e-06 3.660814e-08 -3.7918096e-07 8.214914e-09 -5.8803128e-08 1.7033456e-06 2.0203847e-09
6.757111e-09 3.378918e-07 4.2198685e-09 6.354052e-08 6.683926e-10 3.9945295e-08 -3.3891732e-07 -8.269256e-09
-9.258957e-09 -4.3195368e-07 -1.001718e-06 2.9491354e-09 -1.2575215e-05 4.625091e-09 -1.2951567e-07 -1.9984162e-07
-1.096713e-06 -1.0318398e-06 -2.107262e-09 4.6013247e-07 -6.2706895e-10 -4.519174e-10 -2.4510184e-05 4.0411448e-09
-2.6020578e-07 -7.8654764e-08 5.799444e-10 2.246312e-06 -1.3172033e-09 9.0316025e-11 -8.30164e-07 -3.0871504e-07
-1.4204072e-06 -3.8255994e-09 2.46731e-07 -5.7144252e-08 1.666305e-06 3.290539e-09 -1.030728e-09 2.421405e-09
8.843291e-10 2.6696145e-10 1.034085e-06 -1.3756646e-07 -5.7401954e-09 4.96918e-06 1.0010897e-07 1.4288558e-07
-2.554506e-07 2.3981298e-07 2.479841e-07 8.46028e-09 6.6326176e-09 2.2615643e-06 -3.2326288e-09 2.1303352e-07
-3.4223028e-08 -3.064444e-07 1.937732e-09 -6.6986485e-07 -1.2978411e-06 -8.576782e-08 -1.7546995e-08 -3.76441e-07
-3.7424443e-06 -1.6849106e-07 3.221272e-06 -8.929093e-09 2.6564143e-08 -8.932043e-08 1.1146653e-08 1.1278299e-06
1.26385e-07 -3.278317e-08 3.961538e-10 3.7523583e-05 7.997231e-08 1.3268665e-07 -1.5852762e-09 1.6380315e-10
-1.124888e-08 2.258916e-10 -7.4076915e-08 -3.374084e-08 7.593657e-08 9.5839056e-08 4.508217e-08 2.6220627e-08

cbam2.ChannelGate.mlp.1.bias f4 [8]
00000000: fd9c 2e25 ff60 7eb5 2660 0223 b970 58b5
00000010: e26a 3823 ed09 0ab6 6f5f 933e 01c8 8faf
1.5145284e-16 -9.476352e-07 7.067674e-18 -8.0630304e-07 9.997293e-18 -2.056938e-06 0.28783748 -2.615366e-10

cbam2.ChannelGate.mlp.3.weight f4 [128, 8]
00000000: d598 f421 9aac a432 20b3 851a 13cd ed31
00000010: 458e 0000 214f 0f34 321b 7bbd 76bd 352b
00000020: 8f08 7a9e ce46 8d30 3740 f41b 2c12 4cae
00000030: 3d1f 0000 716d d331 1c65 cbb9 bc88 ac29
00000040: cc67 84a4 3f47 f435 caff 931f a5e6 a535
00000050: 231e 0080 9fbe 91b7 8c62 753e a680 2faa
00000060: 8f94 c921 7edd 6631 9af8 e119 9045 8231
00000070: 5e64 0000 b6b1 7233 7e53 bdbd 1c96 8f2a
00000080: 2b19 c69e a586 8c30 5956 111a d5d0 e5ae
00000090: ea03 0000 be07 78b2 2571 a9b9 0d0a 90a9
000000a0: 6ac9 a8a1 8d80 e2b2 3469 c31b 2c5e 00b2
000000b0: 4b07 0000 7bc4 bcb4 5153 40be f577 ac2d
000000c0: 93b2 4f24 162d afb4 a104 ae9e 30b2 7733
000000d0: 7c19 0080 74f7 1236 0aef 873e 4230 00ae
000000e0: e77b 61a2 6eb0 c3b6 ac1c a99b e4c4 86b0
000000f0: f548 0080 f185 0cb6 d645 2dbd 6e15 d1ac
00000100: 7428 da1e 56ab 5f30 f450 7319 1645 32ae
00000110: 2c2d 0080 3208 3f31 360d a7ba 0d8e 59aa
00000120: c480 0ba0 2cf4 622f f5ef 189a 9d5d 242e
00000130: ac38 0080 8ea9 be31 7292 47bc cce8 81a9
00000140: 2b7a 1e20 7f40 8db4 ebff e118 f787 f031
00000150: fd7b 0080 a2c8 9d35 3829 1dbe 70d1 6f2c
00000160: 1f5a a9a3 c9c6 7336 5af4 7e1f b67c 65b6
00000170: b024 0100 6e44 57b9 5a5b 803e 8eab 632f
00000180: 550d 0322 fcff ceb2 5d3f 9099 3cda d0b0
00000190: f5b8 0000 c862 94b5 3c7b 13bc 1e96 4fa9
000001a0: 6406 871d 245f 6a30 e0d7 e59b d550 952f
000001b0: d135 0080 3132 0333 ac9d 07ba 38d0 2aa9
000001c0: 166e db24 389f 7436 f86e 1f9f 5cc3 0436
000001d0: d12c 0000 e94c ddbb 4ce1 323e dc73 a5af
000001e0: 3363 48a0 e2f0 1c31 0313 ea9a cbf8 63ae
000001f0: b031 0080 b8dc 073a c179 85bd 320a 8328
00000200: d2ff 0b21 3a33 b5b1 5694 f719 3f97 69b0
00000210: 0562 0000 d53f e231 0708 95b8 4129 bfaa
00000220: 0640 dea2 4d28 5834 26ff 0f9b 1dad 9a33
00000230: d520 0000 3ed7 d5b6 f35d 86be 7948 73ad
00000240: 7eb1 d9a2 b349 93b2 83d4 879c 2e84 1f35
00000250: cf2e 0080 5a53 0335 e232 a23e ef2b 10ab
00000260: 1624 d723 3761 82b6 d0f9 f19c 6f97 ab34
00000270: 2023 0080 786e a9bb 0929 753e 900e 1eae
00000280: e434 4221 243f 1a31 d3c8 3c99 045c 84b0
00000290: 72d0 0080 9842 3633 b702 29ba 5935 96aa
000002a0: 2d8a c422 6732 7231 5501 cb98 1dfb 1d30
000002b0: ce4f 0080 ca42 9bb7 e447 d2bb f7f1 e22b
000002c0: 3dc2 4ea4 9ae8 e3b3 ee54 109b b7ca d3ae
000002d0: 6f4b 0000 6a45 c7b5 9d2b 95ba 881c f529
000002e0: 12a7 0621 52ed baae 6384 6198 dea6 2c2f
000002f0: 003d 0000 177d 45b3 d97a a1ba 0589 cca8
00000300: 1e26 c49c d17d 70af 6d72 5c9a 2eea 1aaf
00000310: 1d0d 0000 f1fc 37b1 f0ca afbc caae 1ca9
00000320: 4d9d 0f20 645b 9daf 6d95 6999 6199 21ad
00000330: 6064 0000 aa39 98b1 dbae 91bd 0399 4aaa
00000340: 7212 f121 2cac 5036 6369 9199 9f1b 83ae
00000350: e015 0080 7fef d8b6 a173 ae3b 0060 21ab
00000360: b98e 78a3 9c3c 8eb3 badb 8219 98c5 5b30
00000370: bb52 0100 9015 18b4 ad2e eebb 9a4c 8bab
00000380: 0188 e821 ed12 fdb2 04ce 5a9d 4699 9c30
00000390: 35c8 8cb8 55c2 83b4 1152 83bd 032a 7b2a
000003a0: dffd 19a1 319d dfb2 f9f3 6299 03fb 96af
000003b0: 2919 0000 06f9 0f35 3f88 59bd 4738 8e2c
000003c0: e29d 16a4 1dba f1b4 8d53 84a0 ddf0 a6b5
000003d0: 905a 0100 70cd 3337 440c 613e cda7 5fac
000003e0: 63d5 08a1 8d7a e3ae f593 219a 0707 ca2e
000003f0: 0028 0180 84f3 1232 8310 b5b9 9a04 24aa
1.6574537e-18 1.9170603e-08 5.52969e-23 6.920922e-09 5.1037e-41 1.33467e-07 -0.061305232 6.456705e-13
-1.323666e-20 1.0279224e-09 4.0407912e-22 -4.640037e-11 1.1206e-41 6.1533503e-09 -0.0003879451 7.662054e-14
-5.7421713e-17 1.8200152e-06 6.268009e-20 1.2360584e-06 -1.0811e-41 -1.7374112e-05 0.23963374 -1.5587756e-13
1.3659613e-18 3.3595309e-09 2.3364864e-23 3.7914063e-09 3.6005e-41 5.6506643e-08 -0.092444405 2.5506062e-13
-2.0974475e-20 1.0224609e-09 3.0055048e-23 -1.04508104e-10 1.404e-42 -1.443726e-08 -0.0003231849 -6.396628e-14
-1.1437437e-18 -2.636832e-08 3.232803e-22 -7.471993e-09 2.616e-42 -3.5160687e-07 -0.18781783 1.9607408e-11
4.5037228e-17 -3.2629094e-07 -1.8424881e-20 5.767123e-08 -9.142e-42 2.1899732e-06 0.2654956 -2.9146692e-11
-3.055878e-18 -5.831992e-06 -2.7977233e-22 -9.805743e-10 -2.6172e-41 -2.093959e-06 -0.04230293 -5.9425164e-12
2.3098379e-20 8.137041e-10 1.2579154e-23 -4.0533875e-11 -1.6205e-41 2.7798817e-09 -0.0012745026 -1.9322755e-13
-1.1816363e-19 2.0641328e-10 -3.16267e-23 3.7372428e-11 -2.033e-41 5.549004e-09 -0.012180911 -5.7691346e-14
1.3423543e-19 -2.6310224e-07 5.8419548e-24 7.0003767e-09 -4.4479e-41 1.1755803e-06 -0.15347755 3.4080204e-12
-1.8361184e-17 3.632553e-06 5.3988715e-20 -3.419625e-06 1.04996e-40 -0.0002052949 0.25069696 2.0706478e-10
1.7760868e-18 -2.4097965e-08 -1.4914843e-23 -1.5196018e-09 6.635e-41 -1.1055608e-06 -0.009001549 -4.609344e-14
3.574081e-21 8.5263907e-10 -3.8024378e-22 2.7160377e-10 -1.9306e-41 3.0546463e-08 -0.0005173336 -3.7928184e-14
9.51626e-17 3.645151e-06 -3.376135e-20 1.9783247e-06 1.6077e-41 -0.006753553 0.17468756 -3.0095648e-10
-1.6973481e-19 2.2837914e-09 -9.6810847e-23 -5.1834797e-11 -1.7825e-41 0.0005182731 -0.06517363 1.4548343e-14
4.7433607e-19 -5.273617e-09 2.5599114e-23 -8.497984e-10 3.5163e-41 6.5847225e-09 -7.106369e-05 -3.395704e-13
-6.024101e-18 2.0131229e-07 -1.1911126e-22 7.202673e-08 1.1778e-41 -6.372952e-06 -0.26243553 -1.3829043e-11
-5.9005895e-18 -1.7146567e-08 -8.988484e-22 5.942446e-07 -1.6792e-41 4.8922595e-07 0.31679446 -5.1220047e-13
2.332563e-17 -3.885619e-06 -1.6012617e-21 3.1961414e-07 -1.26e-41 -0.0051706396 0.23941435 -3.5937975e-11
6.5799757e-19 2.244584e-09 -9.759928e-24 -9.630416e-10 -7.4776e-41 4.2435744e-08 -0.0006447243 -2.668237e-13
5.3272206e-18 3.5244285e-09 -5.2475615e-24 5.747312e-10 -2.8629e-41 -1.8508541e-05 -0.0064172614 1.6125425e-12
-4.4833656e-17 -1.0612821e-07 -1.1938843e-22 -9.6311785e-11 2.706e-41 -1.4846858e-06 -0.0011380796 1.0885135e-13
4.562208e-19 -8.500457e-11 -2.9147407e-24 1.5702592e-10 2.1883e-41 -4.5981405e-08 -0.0012319937 -2.2707972e-14
-1.2980045e-21 -2.1872572e-10 -4.5587366e-23 -1.4089416e-10 4.704e-42 -2.6773785e-09 -0.021459073 -3.4790564e-14
1.2164618e-19 -2.862307e-10 -1.2075994e-23 -9.185847e-12 3.6008e-41 -4.430338e-09 -0.07113429 -1.7994291e-13
1.6335678e-18 3.1094633e-06 -1.5035214e-23 -5.962097e-11 -7.847e-42 -6.4651827e-06 0.0053238426 -5.7331917e-13
-1.347433e-17 -6.623415e-08 1.3530432e-23 7.9952533e-10 1.21514e-40 -1.4163948e-07 -0.007268748 -9.897805e-13
1.5756931e-18 -2.9461683e-08 -2.8958567e-21 1.1394057e-09 -6.713012e-05 -2.4542047e-07 -0.06412137 2.2307854e-13
-5.217441e-19 -2.60321e-08 -1.1733196e-23 -2.7463196e-10 9.026e-42 5.363403e-07 -0.05310845 4.0421308e-12
-3.2659797e-17 -4.5025163e-07 -2.241696e-19 -1.2438064e-06 1.24323e-40 1.0717064e-05 0.21977335 -3.1783354e-12
-4.6361007e-19 -1.0344534e-10 -3.3413538e-23 9.187145e-11 -1.06185e-40 8.5536875e-09 -0.00034535312 -1.4567723e-13
