models/ngsim.pt (torch, 546527 bytes, 33 tensors)

conv2Da.weight f4 [64, 2, 2, 2]
0	0x3b828fbd	0.00398442
1	0xba8ee2e4	-0.0010901359
2	0x3bd0d4cd	0.006373024
3	0xbb4503bb	-0.0030062038
4	0x3a01c71f	0.0004950631
5	0x39a6b78e	0.00031798746
6	0xb8ffaf98	-0.000121920544
7	0xba28e7b5	-0.00064432184
8	0x3c0022da	0.007820809
9	0xbd406d92	-0.046979494
10	0x3bd9a03c	0.006641416
11	0xbd518373	-0.05115075
12	0xbc8804d4	-0.016603865
13	0xbd873aff	-0.066030495
14	0xbde81b34	-0.113333136
15	0xbdc983d6	-0.09839599
16	0xb9b754cb	-0.00034967656
17	0xbba7e958	-0.0051242523
18	0xba573ece	-0.0008210958
19	0xbbc11d96	-0.0058934195
20	0x3bdb5ab7	0.0066941637
21	0xbd4e571d	-0.050376046
22	0xbd42cce4	-0.04755868
23	0xbc3fc490	-0.011704579
24	0x3c91219a	0.017716218
25	0xbeb1b1c0	-0.34705925
26	0xbde90f0e	-0.113798246
27	0xbf1ad418	-0.6047988
28	0x3d27cd60	0.040967345
29	0x3e4147a1	0.1887498
30	0xbe0bead1	-0.13663794
31	0xbde687fd	-0.112564065
32	0x38251b7f	3.9364673e-05
33	0xbe0a48af	-0.13504289
34	0x3807b95f	3.235915e-05
35	0xbe0d7a05	-0.13816078
36	0x3ba6c510	0.0050894096
37	0x3a1c5584	0.00059636706
38	0x39838941	0.0002508853
39	0x393beee4	0.00017922703
40	0xbcd61250	-0.026131779
41	0xbbf293ca	-0.0074028717
42	0xbcc9d073	-0.02463553
43	0xbc26fcec	-0.010192137
44	0xbaa6caa4	-0.0012725187
45	0xb9feae07	-0.00048576316
46	0xbb1ace78	-0.00236216
47	0x3a8005ed	0.0009767391
48	0xbbeccd1d	-0.0072266
49	0xba9afc3d	-0.001182444
50	0xbb97e0e4	-0.0046349633
51	0xbb5400ca	-0.0032349103
52	0xb99250e8	-0.0002790757
53	0x3a04fcdb	0.0005073079
54	0xb972cacf	-0.0002315447
55	0xba25e509	-0.00063283794
56	0xbb040119	-0.0020142256
57	0xbce39b5c	-0.027784042
58	0xbb13f8d5	-0.0022578735
59	0xbcc5b721	-0.024135174
60	0xbb3bc39c	-0.0028650528
61	0xbb30e23b	-0.0026990313
62	0xbc730fcb	-0.014835308
63	0x394f8775	0.0001979152
64	0x3c19af9c	0.009380247
65	0xbc8cad3f	-0.017172454
66	0x3bb4f9bc	0.0055229347
67	0xbcdc73a9	-0.02691062
68	0xbdd16b5f	-0.102255575
69	0xbcfb2294	-0.030656137
70	0xbe02a5b7	-0.12758528
71	0xbdb1e3a7	-0.08685999
72	0xb94b4acd	-0.00019387454
73	0xbe31a0f4	-0.17346555
74	0xb98ac7b3	-0.000264702
75	0xbe2ef47c	-0.17085451
76	0xbb2c0a4c	-0.0026251255
77	0x3a43896c	0.0007459137
78	0x3c2835f7	0.0102667725
79	0x3c0974ac	0.008389633
80	0xbe0bb7f9	-0.13644399
81	0x3e9b81fb	0.30372605
82	0xbdca247a	-0.098702386
83	0x3ec1a48d	0.37820855
84	0xbe507f08	-0.20360959
85	0x3e05b004	0.13055426
86	0x3d7ac883	0.06122638
87	0xbcb2f7eb	-0.021846732
88	0xba526076	-0.0008025238
89	0xbe04a4fe	-0.12953565
90	0x377f82c1	1.5229628e-05
91	0x3d865595	0.06559292
92	0xbdffd51e	-0.12491821
93	0xbe0f49e1	-0.13993026
94	0xbde8fe2f	-0.11376607
95	0xbc85ab02	-0.016316894
96	0x3a4eede6	0.0007893726
97	0xbd9c1452	-0.07621063
98	0x3b66368b	0.0035127725
99	0xbda6d136	-0.081453726
100	0xbcd74fac	-0.026283108
101	0x3c1e041b	0.0096445335
102	0xbe875606	-0.26432818
103	0xbc3a5b2d	-0.011374277
104	0x39afb9f6	0.00033517153
105	0xbba30bf2	-0.004975789
106	0xb96db3ea	-0.00022669105
107	0xbbce871e	-0.0063027283
108	0x3b16a116	0.0022984198
109	0xbd2d9725	-0.04238047
110	0x3aa2d8a4	0.0012424183
111	0xbd08414e	-0.033265404
112	0xb9d948e6	-0.0004144378
113	0xbb095304	-0.0020954022
114	0x3aed76c9	0.0018117066
115	0xbb6bc1fe	-0.0035973783
116	0xb9032e91	-0.00012510481
117	0x39991094	0.00029194786
118	0x3906843f	0.00012828501
119	0xb9c1b1c5	-0.00036944277
120	0x3a84c765	0.0010130225
121	0xbc8fa171	-0.017533036
122	0x3aae85a8	0.0013314979
123	0xbc955f95	-0.018234054
124	0x3d115dd6	0.03548988
125	0x3c93cfac	0.018043362
126	0xbe36af74	-0.17840368
127	0x3e7eda1e	0.24887893
128	0x37f59f26	2.9280385e-05
129	0xbe105b64	-0.14097363
130	0xb892d31d	-7.0011454e-05
131	0xbe149557	-0.14510094
132	0x3ba0ed0e	0.0049110716
133	0xbe0bd84a	-0.13656726
134	0xbdf1a90e	-0.11799823
135	0xbe4a9fbd	-0.19787498
136	0x3ad8068d	0.0016481444
137	0x3f67ecaa	0.90595496
138	0x3b056878	0.0020356458
139	0xbf986ae9	-1.1907626
140	0xbe0c28fd	-0.13687511
141	0xbea5f458	-0.32412982
142	0xbe6a4d1e	-0.2288098
143	0xbdee8016	-0.11645524
144	0x3ad7d57c	0.0016466822
145	0x3cffe533	0.03123722
146	0xbb52b328	-0.0032150242
147	0x3d23823e	0.03991913
148	0xbdd80291	-0.105473645
149	0xb9fe6031	-0.00048518323
150	0xbd63c86b	-0.055611055
151	0xbd61f057	-0.055160847
152	0x3ac5ac22	0.0015081207
153	0xbdbac77d	-0.091200806
154	0x39dec007	0.0004248621
155	0xbdcd19f6	-0.10014717
156	0xbc7bf94a	-0.015379259
157	0xbdaa7791	-0.08323587
158	0xbd6835cd	-0.056691933
159	0xbe471bd4	-0.1944421
160	0x3d3c5da8	0.045987755
161	0x3e176ddb	0.14788
162	0x3d5c9407	0.053852107
163	0x3de40a38	0.111347616
164	0xbd38858b	-0.04504923
165	0xbceb69e1	-0.02873701
166	0xbdbc7f2d	-0.09203944
167	0xbd4bc4d4	-0.049748257
168	0xbe1a05b1	-0.15041234
169	0xbf967261	-1.1753656
170	0x3d6a4134	0.05719109
171	0x3ee7a996	0.4524657
172	0xbf0a6793	-0.5406429
173	0xbea58d1b	-0.32334217
174	0xbcb0e025	-0.021591255
175	0x3dc2d495	0.09513203
176	0xb945ebf1	-0.00018875279
177	0xbd12483a	-0.035713412
178	0xb99fe7dd	-0.00030499595
179	0xbd1eb12d	-0.038743187
180	0x3c02f802	0.0079937
181	0xbd8647fe	-0.065567
182	0xbe3d86be	-0.18508431
183	0xbdbac23f	-0.09119081
184	0x38b90743	8.82284e-05
185	0xbac0e69e	-0.0014717167
186	0x3b04bb67	0.0020253302
187	0xbb90eafe	-0.0044225445
188	0xb9bcb864	-0.00035995536
189	0xba124a6e	-0.0005580549
190	0xb9cb1518	-0.00038734893
191	0xbaa2dba5	-0.0012425078
192	0xbc3507fc	-0.011049267
193	0xbb3156bd	-0.0027059757
194	0xbb0c0e4a	-0.0021370822
195	0xbb8d2268	-0.00430708
196	0x381d82b1	3.7553433e-05
197	0x3a0e2982	0.0005423055
198	0x393a47de	0.00017765115
199	0x384f42e8	4.9414957e-05
200	0xb895c2a6	-7.14113e-05
201	0xb969bbff	-0.00022290646
202	0x396f7396	0.00022835875
203	0xbbed5383	-0.0072426214
204	0x3aa4232a	0.0012522687
205	0xbdfffbd9	-0.12499208
206	0x3d4d1ccc	0.05007629
207	0xb9bd8693	-0.00036149155
208	0x3b32bc8a	0.0027273023
209	0xbd04a669	-0.032385264
210	0x3c8f9303	0.017526155
211	0xbbc02112	-0.0058633173
212	0xba80d66d	-0.0009829529
213	0xbd11697a	-0.03550098
214	0xbe21f557	-0.15816246
215	0x3e144036	0.1447762
216	0xbe1b4c69	-0.15165867
217	0x3ee0f1b8	0.43934417
218	0xbe0a0757	-0.13479362
219	0x3eee717a	0.4657095
220	0xbe0e3778	-0.13888347
221	0x3e2f8aec	0.17142838
222	0x3d2fbe17	0.042905893
223	0x3cb9e5dc	0.022692613
224	0x399b191b	0.0002958261
225	0xbd3c7930	-0.04601401
226	0xb904e284	-0.00012672885
227	0xbd516a96	-0.05112704
228	0xbb405ed1	-0.002935339
229	0xbacbbcc2	-0.0015543925
230	0xbb511e3d	-0.0031908893
231	0xbb611ef6	-0.003435073
232	0xb8dff714	-0.000106794905
233	0xbd369ecb	-0.04458503
234	0x3ac449f3	0.0014975652
235	0x3d86b790	0.065779805
236	0x3ce9a4bb	0.028520932
237	0x3c1c8760	0.00955376
238	0xbdda5494	-0.10660663
239	0x3d993b91	0.074820645
240	0x37888187	1.627278e-05
241	0xbc5e050b	-0.013551007
242	0xba52ecb0	-0.00080461334
243	0xbc857124	-0.016289301
244	0xbcad9387	-0.02118851
245	0xbdda4a28	-0.106586754
246	0xbd9d5788	-0.07682711
247	0x3d517ce8	0.05114451
248	0xb889922b	-6.559895e-05
249	0xbe33b8ec	-0.17551011
250	0xb8bb5e6d	-8.934443e-05
251	0xbe362046	-0.17785749
252	0x3b6be1d2	0.0035992754
253	0x3a53051d	0.0008049773
254	0x3bcffa0b	0.006346946
255	0x3a14533c	0.0005658155

conv2Da.bias f4 [64]
0	0xbb875b07	-0.0041307244
1	0xbd72be80	-0.059263706
2	0xbc839e4f	-0.016066698
3	0x3faa5d35	1.3309695
4	0xbdfc7426	-0.12326841
5	0xbcbfa95e	-0.02339619
6	0xbb81071d	-0.0039376155
7	0xbd08133b	-0.033221465
8	0xbcecfb74	-0.028928496
9	0xbe1380e4	-0.14404637
10	0xbefb06da	-0.49028665
11	0xbe563f41	-0.20922567
12	0xbdf8afb0	-0.12142885
13	0xbc244325	-0.010025774
14	0xbb9b803d	-0.004745512
15	0xbd1ed897	-0.038780775
16	0xbe052c92	-0.13005283
17	0xbe407200	-0.18793488
18	0xbe4bab7c	-0.19889635
19	0xbd9666a3	-0.07343795
20	0x3e975891	0.29559758
21	0x3f95dfa9	1.1708881
22	0xbd8c8ca9	-0.06862766
23	0xba5aabe3	-0.0008341653
24	0xbb4d7bf2	-0.0031354395
25	0xbcbecec5	-0.023291955
26	0x3c83a2f2	0.01606891
27	0xbf2dab40	-0.6783943
28	0xbce0aa61	-0.027424993
29	0xbdd3a3a0	-0.10333943
30	0xbcc1b3ab	-0.023645243
31	0xbe38cc6d	-0.18046732
32	0xbb52209a	-0.003206289
33	0xbc749a3d	-0.014929351
34	0xbedc098c	-0.42976034
35	0xbaba2dcd	-0.0014204324
36	0xbc80f8e7	-0.015743686
37	0x3f8ca89e	1.0988958
38	0xbc7171ed	-0.014736635
39	0xbd2c62a7	-0.04208627
40	0xbd3f6e34	-0.046735957
41	0xbc18b0a7	-0.009319461
42	0x3fbcf569	1.4762393
43	0x382aaccb	4.0692084e-05
44	0x3f929670	1.145216
45	0x3e1d6f75	0.15374549
46	0xbb3baf2c	-0.0028638346
47	0xba3bdc5e	-0.0007166321
48	0x3ca03d38	0.019560441
49	0x3cd8769c	0.026423745
50	0x3f9208da	1.1408951
51	0x3cb8e0b0	0.022568077
52	0x3e9c1dce	0.3049149
53	0xbda4f158	-0.08053845
54	0xbc1f4dcc	-0.009723138
55	0xbf070909	-0.5274816
56	0xbdc54093	-0.09631457
57	0x3ba237f8	0.0049505197
58	0xbb58ce11	-0.003308181
59	0xbd47ab80	-0.04874754
60	0x3cc16929	0.023609715
61	0xbbc59e32	-0.0060308212
62	0xbcfba542	-0.03071845
63	0xbb047309	-0.0020210168

cbam1.ChannelGate.mlp.1.weight f4 [4, 64]
0	0x36b9c205	5.5360165e-06
1	0x3a14e09e	0.00056792225
2	0x38dcde1c	0.000105317886
3	0xbc56d59c	-0.013112452
4	0x3b1bf326	0.002379605
5	0xb7291b06	-1.0079477e-05
6	0xb6c47e6b	-5.855972e-06
7	0x3a2502d4	0.0006294672
8	0xb94d2d5d	-0.00019567223
9	0xba303abb	-0.0006722619
10	0xbcdf9e5a	-0.027297188
11	0xba2f7de1	-0.00066944776
12	0x3a8166f4	0.0009872601
13	0x3882f752	6.24495e-05
14	0x36fc0960	7.5112766e-06
15	0xb9d6c2ce	-0.00040962402
16	0x3b5ad52c	0.003339122
17	0x3b0d4605	0.0021556627
18	0x38117906	3.4683406e-05
19	0x3a70709a	0.00091720524
20	0xbd8381d4	-0.06421247
21	0xbd76ad92	-0.060224123
22	0xb9c139de	-0.00036854943
23	0x37c2b380	2.3210188e-05
24	0xb822bceb	-3.8799753e-05
25	0x39e83c53	0.00044295433
26	0x38cea3fc	9.85339e-05
27	0xbc83ffb6	-0.016113143
28	0xba24b0bd	-0.00062824396
29	0xba49074c	-0.0007668629
30	0x38393afd	4.4162374e-05
31	0xbb121375	-0.002228943
32	0x373eb3d4	1.1366752e-05
33	0xb85e8fdb	-5.30629e-05
34	0x3c1aae11	0.009440915
35	0x367d9dfb	3.7791895e-06
36	0xb8efb855	-0.000114307426
37	0x38598c04	5.186723e-05
38	0x3689eb84	4.110336e-06
39	0xb98d54c5	-0.00026956774
40	0x395d803d	0.00021123975
41	0xb9422e10	-0.00018518441
42	0xbd0f4390	-0.034976542
43	0xb6c4443b	-5.8491983e-06
44	0xbca3b1fe	-0.019982334
45	0xbaca2693	-0.0015422873
46	0x3886a90f	6.4211075e-05
47	0x38cfbe98	9.90603e-05
48	0x39c0f69e	0.00036804838
49	0xbc452d3f	-0.012034713
50	0xbb499c34	-0.003076327
51	0x3afd50da	0.0019326464
52	0xbb1aa547	-0.0023597048
53	0x39d4b048	0.0004056713
54	0x389f93d1	7.609244e-05
55	0xbc35dfe3	-0.011100742
56	0x394c8c77	0.00019507283
57	0x37407fd5	1.1473855e-05
58	0xb7c702ae	-2.3723896e-05
59	0x390c4e39	0.0001338058
60	0xb934fd76	-0.00017260559
61	0x3809555b	3.274284e-05
62	0x3a4a8862	0.0007726011
63	0xb7ef714b	-2.8543776e-05
64	0x392b83e6	0.00016356967
65	0x3ac7e2f2	0.001525013
66	0x3922a141	0.00015509596
67	0x3f6d29c4	0.92641854
68	0xbc9ca1e7	-0.01912017
69	0x3b99679d	0.004681541
70	0x3986ce06	0.0002571197
71	0x3b1cbb67	0.0023915411
72	0x399fa9f7	0.00030453477
73	0x3bb44e29	0.0055024815
74	0xbe4d4f48	-0.20049775
75	0xbb8a67e3	-0.00422381
76	0x3c2c7c19	0.010527634
77	0x3996cbed	0.00028762166
78	0x3944aabb	0.00018755619
79	0x38fd3a48	0.00012074836
80	0x3b37cca0	0.002804555
81	0xbd435f77	-0.047698464
82	0x3c84a5bc	0.01619231
83	0x3b9e097e	0.004822909
84	0x3ea2385d	0.31683627
85	0x3eac68e9	0.3367379
86	0x3b10de16	0.002210503
87	0x37b1e956	2.12087e-05
88	0x3934af2a	0.00017231391
89	0x3ccdb1e4	0.025109239
90	0x3b859942	0.0040771076
91	0xbe86c335	-0.26320806
92	0x3b9bb0b7	0.0047512907
93	0xbdaad8e6	-0.08342151
94	0x3a9f8898	0.0012171445
95	0x3a025c59	0.00049728673
96	0x39f81317	0.0004731647
97	0x39bbe396	0.00035836984
98	0xbda39d9b	-0.07989045
99	0x3a9794f1	0.0011564774
100	0x39eaf6d5	0.00044815862
101	0x3e692917	0.22769581
102	0x3a985c6f	0.0011624227
103	0x3b00d516	0.001965826
104	0xbc55f571	-0.013059006
105	0x3c012099	0.007881307
106	0x3fa8f260	1.3198967
107	0x3c33b96a	0.010969499
108	0x3f811c0b	1.0086683
109	0x3e8698d4	0.26288474
110	0x39fd3be1	0.00048300534
111	0x398796e2	0.00025861623
112	0x3e370fb6	0.17877087
113	0x3df86372	0.12128343
114	0x3defd9f0	0.1171149
115	0xbdfc8002	-0.12329103
116	0x3cc64788	0.02420403
117	0x3bc3c3b1	0.005974256
118	0x39eaca36	0.00044782617
119	0xbe2c22fd	-0.16810222
120	0x3b31a22d	0.002710472
121	0x3904df8b	0.00012671777
122	0x3a28c638	0.00064382283
123	0x3aa73948	0.001275816
124	0x3d043bc5	0.032283563
125	0x39e78c8a	0.00044164463
126	0x3b07c2d1	0.0020715485
127	0x389f976f	7.6099175e-05
128	0xb5268026	-6.20263e-07
129	0x00002566	1.3416e-41
130	0x80001b3e	-9.773e-42
131	0x897fefa9	-3.0807196e-33
132	0x00001cfb	1.0396e-41
133	0xa3c51a08	-2.1369807e-17
134	0x0000a87a	6.0438e-41
135	0x000023b5	1.2809e-41
136	0x80002393	-1.2762e-41
137	0x000004ce	1.724e-42
138	0xb3a4d26c	-7.6751206e-08
139	0x000021c3	1.2111e-41
140	0x80005214	-2.9444e-41
141	0x000025aa	1.3511e-41
142	0xb4faa5e4	-4.668683e-07
143	0x000044b5	2.4647e-41
144	0x800012fb	-6.809e-42
145	0x00001cdc	1.0353e-41
146	0x80004f0c	-2.8357e-41
147	0x80001149	-6.201e-42
148	0x800009bf	-3.496e-42
149	0xb090e6d3	-1.0542983e-09
150	0x80001332	-6.886e-42
151	0x8af45512	-2.3528345e-32
152	0x000014db	7.482e-42
153	0x0000431a	2.4072e-41
154	0x8000110a	-6.112e-42
155	0xb98bb8eb	-0.0002664992
156	0x8000382b	-2.0149e-41
157	0x00006eb9	3.972e-41
158	0x0000112e	6.163e-42
159	0x80000777	-2.678e-42
160	0xac6d0832	-3.3684275e-12
161	0x0d09f506	4.251132e-31
162	0x0000ec24	8.4711e-41
163	0xb063b93e	-8.2845364e-10
164	0x00000aa3	3.816e-42
165	0x80001e2a	-1.0821e-41
166	0x80004119	-2.3353e-41
167	0x80003fe0	-2.2914e-41
168	0x80002427	-1.2969e-41
169	0x0000984a	5.4631e-41
170	0x9b49f1e1	-1.6704486e-22
171	0x00002596	1.3483e-41
172	0xa183c997	-8.930266e-19
173	0x00000c3b	4.387e-42
174	0x00000c58	4.428e-42
175	0x00009f87	5.7228e-41
176	0xb3e166e0	-1.0496092e-07
177	0x0000504e	2.8808e-41
178	0x80002f8b	-1.7055e-41
179	0x80002a0b	-1.5082e-41
180	0x80006170	-3.4954e-41
181	0x8000176b	-8.401e-42
182	0x8000430d	-2.4053e-41
183	0xb68a9db3	-4.131079e-06
184	0x800025e1	-1.3588e-41
185	0xae4ade1b	-4.612675e-11
186	0x00004db2	2.7872e-41
187	0x9ab3fd9a	-7.444238e-23
188	0x0000060b	2.168e-42
189	0x89b26e0e	-4.2955436e-33
190	0x0000bdb0	6.8047e-41
191	0x9245507e	-6.2261454e-28
192	0x3a2e2f78	0.00066446466
193	0x3c2197be	0.009862838
194	0x3a877a8b	0.0010336203
195	0xbe35acec	-0.17741746
196	0x3c575429	0.013142624
197	0x3b1faeab	0.0024365585
198	0x392acbc7	0.00016288376
199	0xbcbb1bf3	-0.022840476
200	0x3b007961	0.0019603597
201	0x3cdb6cce	0.02678528
202	0xbde0194f	-0.10942327
203	0x3c0579df	0.008146732
204	0x3c81c4cf	0.015840916
205	0x38c4b7b0	9.380223e-05
206	0xbaebd5c2	-0.0017992782
207	0xbb6039fe	-0.0034214254
208	0x3cd03ddb	0.02542012
209	0x3cccb705	0.024989614
210	0x3bceeed6	0.0063150926
211	0x3c2c3c1c	0.010512378
212	0xbd751e34	-0.059843257
213	0xbe1e2db5	-0.15447123
214	0x3b6e7b04	0.003638924
215	0x39d6bee0	0.00040959474
216	0x3a09a5cf	0.00052508427
217	0x3aae9760	0.001332026
218	0xb9fae100	-0.00047851354
219	0xbd9fedb4	-0.0780901
220	0x3beb5754	0.007182041
221	0xbd1d28b9	-0.038368914
222	0x3b6da064	0.003625893
223	0x3cc7b8f4	0.024380185
224	0x39df7554	0.0004262129
225	0x397df5ab	0.00024219479
226	0x3cd03190	0.025414258
227	0x3999476c	0.00029235648
228	0x3ad0feb1	0.0015945045
229	0x3c5c484b	0.01344497
230	0xba8808b2	-0.0010378568
231	0xbc5d8a94	-0.013521809
232	0x3b20f6e2	0.0024561216
233	0x3a792414	0.0009503972
234	0xbe6ddb5c	-0.2322821
235	0x39c96fdc	0.0003842105
236	0xbe506900	-0.20352554
237	0xbd118351	-0.035525624
238	0xbb1d6dac	-0.0024021668
239	0x3a10cf0b	0.0005524016
240	0x3b560603	0.0032657392
241	0xbc4a2b10	-0.012339368
242	0x3decac5b	0.11556312
243	0xbe11bd65	-0.14232405
244	0x3c24625e	0.010033218
245	0x3cdd06c2	0.026980761
246	0x3aeb8c04	0.0017970805
247	0xbd6f69fa	-0.058450677
248	0x3bab17e2	0.005221353
249	0x3a284501	0.0006418974
250	0xba6aba4f	-0.0008954154
251	0x3be4207f	0.0069618816
252	0x3a4e913e	0.0007879919
253	0xbaf87b54	-0.0018957653
254	0xbc9d141e	-0.019174632
255	0xb99b9107	-0.00029671958

cbam1.ChannelGate.mlp.1.bias f4 [4]
0	0xbce20764	-0.027591415
1	0x3f2d1d7d	0.6762312
2	0xb76df1d7	-1.41826085e-05
3	0xbe20b451	-0.15693785

cbam1.ChannelGate.mlp.3.weight f4 [64, 4]
0	0xb01b7f3b	-5.6569477e-10
1	0xbaaef49f	-0.0013348049
2	0xb384c4d2	-6.1825304e-08
3	0x38d563d5	0.000101752266
4	0x33e6d0a9	1.0748165e-07
5	0x3e7f4c73	0.24931507
6	0x80002251	-1.231e-41
7	0xba846cd5	-0.0010103235
8	0x30f0ae45	1.7511829e-09
9	0xba378109	-0.0007000124
10	0x00005306	2.9783e-41
11	0xb96cb498	-0.0002257399
12	0x35f1b19f	1.8007594e-06
13	0x3f1012a3	0.5627844
14	0x00001222	6.505e-42
15	0x3e060dee	0.13091251
16	0x339405b6	6.892826e-08
17	0xbe87b0cc	-0.26502073
18	0x8000163a	-7.973e-42
19	0x3b028543	0.0019915856
20	0x2fd7ce63	3.925492e-10
21	0xbb1fb6c5	-0.0024370414
22	0x8248241e	-1.4704045e-37
23	0xba10056c	-0.0005493972
24	0xb278c425	-1.4480098e-08
25	0xba0c2141	-0.00053455314
26	0x80001519	-7.568e-42
27	0xb7f06e6e	-2.8661652e-05
28	0xb2fe0364	-2.9571034e-08
29	0xbe7060e4	-0.23474461
30	0x0000a4a0	5.9056e-41
31	0xba82f53b	-0.0009991297
32	0xb2d70328	-2.503073e-08
33	0x3ca196cc	0.019725226
34	0x8000055e	-1.925e-42
35	0x3b03f801	0.0020136836
36	0x3563b85b	8.483236e-07
37	0xbdf26db2	-0.11837329
38	0x80002a4c	-1.5173e-41
39	0x39f20669	0.00046162613
40	0x37dcda76	2.6327773e-05
41	0xbec70532	-0.3887115
42	0x2d8a6410	1.573322e-11
43	0x3d0ff22e	0.03514307
44	0x3430287f	1.640601e-07
45	0x3e298654	0.16555148
46	0x80002743	-1.4084e-41
47	0x3b1ea221	0.0024205523
48	0xb35c2435	-5.125567e-08
49	0x3d1aa640	0.037756205
50	0x00008ebe	5.1206e-41
51	0x3c11593f	0.008871376
52	0x3124a965	2.396143e-09
53	0xba43f0ba	-0.0007474531
54	0x00001f81	1.1301e-41
55	0x3679de36	3.7233235e-06
56	0xb0802607	-9.324034e-10
57	0xb922425a	-0.00015474242
58	0xaf8656d7	-2.4436161e-10
59	0xb75050aa	-1.2416547e-05
60	0x3437b657	1.7109538e-07
61	0x3d7d3586	0.061818622
62	0x000001dc	6.67e-43
63	0x3bb16780	0.0054139495
64	0xb451b274	-1.9529563e-07
65	0xbd258e67	-0.04041901
66	0x00009a55	5.5364e-41
67	0x3c8d91d0	0.017281443
68	0x351f3318	5.9306467e-07
69	0xbc1f3a4c	-0.009718489
70	0x00003293	1.8143e-41
71	0x3b6a115f	0.003571592
72	0x31b98636	5.3994667e-09
73	0x3ae929f4	0.0017788992
74	0x80006bf4	-3.8726e-41
75	0xb8e35e25	-0.00010841739
76	0x34bede2f	3.5551918e-07
77	0xbd1ce8ad	-0.038307834
78	0x00005c81	3.3184e-41
79	0x3cddc3a0	0.02707082
80	0x390f8e6c	0.00013690599
81	0xbf3c8358	-0.73637915
82	0x0000dc65	7.9063e-41
83	0x3c3abae9	0.011397102
84	0x34f8f950	4.6374998e-07
85	0x3f4e2002	0.8051759
86	0x24b96416	8.040051e-17
87	0x3da10099	0.07861442
88	0x340bf5da	1.3034824e-07
89	0xbc828f2e	-0.015937414
90	0x80006b92	-3.8589e-41
91	0xb8a1e075	-7.7188866e-05
92	0xb0d1bd60	-1.5260575e-09
93	0xbb585928	-0.0033012126
94	0x00000ebd	5.287e-42
95	0xb671907a	-3.5995895e-06
96	0xb0bcfb74	-1.3750268e-09
97	0xbca3022d	-0.019898498
98	0x80002c5f	-1.5917e-41
99	0xb84ad8aa	-4.8362337e-05
100	0xb3f22c79	-1.1277093e-07
101	0xbc337d15	-0.010955115
102	0x00016145	1.26729e-40
103	0x3a4e32a3	0.0007865822
104	0x3214a4fd	8.652248e-09
105	0xbe2c675f	-0.16836308
106	0x00000a37	3.664e-42
107	0xb97b84fa	-0.00023986763
108	0xbc3dcc27	-0.011584318
109	0xbe4e6190	-0.20154405
110	0xbc84d28b	-0.016213676
111	0xbd3d50c6	-0.04621961
112	0xb2ff8b1b	-2.9749165e-08
113	0xbd378beb	-0.04481117
114	0x0000703f	4.0266e-41
115	0x3c560383	0.013062361
116	0xb40cda56	-1.3117946e-07
117	0xbe2d3751	-0.16915633
118	0x8000cf7d	-7.4433e-41
119	0x3933dcee	0.00017153073
120	0x2df86f40	2.824374e-11
121	0xbac86919	-0.0015290111
122	0x000071b2	4.0786e-41
123	0xb8d40fae	-0.00010111868
124	0xb599deb8	-1.1464208e-06
125	0xbe3f9d6a	-0.18712392
126	0x000034a2	1.8881e-41
127	0x3c267b9d	0.010161308
128	0xb09d8a88	-1.1462626e-09
129	0xb844432c	-4.67926e-05
130	0xa0a5f74f	-2.8115742e-19
131	0xb5c423c5	-1.4613548e-06
132	0x322a414f	9.910152e-09
133	0xbb1a241f	-0.0023520065
134	0x80004da0	-2.7847e-41
135	0x3a2d35e7	0.00066074583
136	0x32aa116f	1.9798533e-08
137	0x3e11730b	0.14204042
138	0x80003882	-2.0271e-41
139	0x3d0e80ee	0.034790926
140	0xafdae49c	-3.9816406e-10
141	0xbc386644	-0.011254851
142	0xaeddf2fc	-1.0093079e-10
143	0x37093c0a	8.179815e-06
144	0x31b5baf6	5.2890483e-09
145	0xbda6ae9d	-0.081387736
146	0x80007602	-4.2333e-41
147	0xb8523b32	-5.012303e-05
148	0xb52da3c3	-6.4685827e-07
149	0x3f0aad1d	0.541704
150	0x80000a3a	-3.669e-42
151	0xbd305c9f	-0.04305708
152	0x31cfd26f	6.0484164e-09
153	0x37418468	1.1534525e-05
154	0x00002575	1.3437e-41
155	0xb8f11267	-0.00011495203
156	0x3302e63b	3.0477377e-08
157	0xbd10055e	-0.03516137
158	0x80002017	-1.1512e-41
159	0x3b3ff4a4	0.0029290104
160	0x2e4311fc	4.435384e-11
161	0xbba496e5	-0.005022871
162	0x32a7ea9a	1.9548043e-08
163	0xba799859	-0.0009521298
164	0x324122a7	1.1241958e-08
165	0xb9d97c9e	-0.00041482312
166	0x0000cf5c	7.4387e-41
167	0x3a147b42	0.0005664119
168	0xb6c6481e	-5.9092554e-06
169	0x3f8026b8	1.0011816
170	0xacb5d725	-5.1682152e-12
171	0x3d9eb361	0.077490576
172	0x30c1a989	1.4090783e-09
173	0xbe855275	-0.26039472
174	0x80003e8b	-2.2436e-41
175	0x35224946	6.045633e-07
176	0xb71d9eda	-9.394915e-06
177	0x3f4f9853	0.81091803
178	0x918251a0	-2.056069e-28
179	0x3e133167	0.14374314
180	0xb5bd1ef4	-1.4090606e-06
181	0x3edbee69	0.4295533
182	0x000018f2	8.949e-42
183	0x3d73a6bc	0.059485182
184	0xb0087227	-4.963873e-10
185	0xbabd0176	-0.0014419991
186	0x00011bc1	1.01792e-40
187	0xb8053007	-3.17544e-05
188	0x31c01796	5.590617e-09
189	0xb9548ee3	-0.00020271125
190	0xba89d852	-0.0010516739
191	0x3655b5a8	3.1845211e-06
192	0xb293310f	-1.7135362e-08
193	0xbd80a427	-0.062813096
194	0x00000b8a	4.14e-42
195	0xbb218b30	-0.0024649613
196	0x36ac8af8	5.1421775e-06
197	0xbed1e17d	-0.40992346
198	0x000037c1	2.0001e-41
199	0xba01dd8a	-0.00049539714
200	0x36af4b23	5.2241535e-06
201	0x3ef5a3d7	0.47976562
202	0x0000050a	1.808e-42
203	0xbdd15002	-0.102203384
204	0xb6a78ee2	-4.9936216e-06
205	0x3edd5113	0.43225917
206	0x80003884	-2.0274e-41
207	0x3e488ae2	0.1958423
208	0xb42e6835	-1.6242923e-07
209	0x3eac26a1	0.33623222
210	0x80005aee	-3.262e-41
211	0xbdc738af	-0.097276084
212	0xb30b7fd3	-3.2479715e-08
213	0xbe078cbd	-0.13237281
214	0x000031a3	1.7806e-41
215	0x3ac30d2f	0.0014881248
216	0xb1cbf756	-5.9361964e-09
217	0xbb7abf5c	-0.0038261032
218	0x00005337	2.9852e-41
219	0x3868e2aa	5.5524208e-05
220	0x37036255	7.831103e-06
221	0x3cb0899f	0.021549998
222	0xb69b3f1a	-4.626706e-06
223	0x3c875fd1	0.016525181
224	0xb31d4034	-3.6612803e-08
225	0xbc0d5555	-0.008626302
226	0x00007a48	4.3866e-41
227	0xb97ad214	-0.00023920118
228	0x31b9d1bb	5.4080522e-09
229	0xba885c2e	-0.0010403448
230	0xa08d15d1	-2.3900766e-19
231	0x399047ee	0.00027519412
232	0xae9c39da	-7.104335e-11
233	0xba784213	-0.0009470295
234	0x0000417e	2.3494e-41
235	0x370fcfff	8.571892e-06
236	0xb1aa717b	-4.9605524e-09
237	0xbd06598d	-0.032800246
238	0x80002dfe	-1.6499e-41
239	0x3aea3ea3	0.001787145
240	0xb2feee3a	-2.9677825e-08
241	0xbe9e6d8f	-0.30942962
242	0x0000522e	2.948e-41
243	0xb9836470	-0.000250611
244	0x31d1123d	6.084774e-09
245	0xbd83c2b3	-0.0643362
246	0x800043f6	-2.438e-41
247	0xb6e2ac88	-6.75541e-06
248	0x348e74c5	2.6534522e-07
249	0x3c4fbe1e	0.012679605
250	0x0000934d	5.2842e-41
251	0x399a6c80	0.00029454008
252	0xb014e8c8	-5.417289e-10
253	0xb8a4c1ae	-7.856205e-05
254	0x0000288f	1.455e-41
255	0x3874b63d	5.8343856e-05

cbam1.ChannelGate.mlp.3.bias f4 [64]
0	0xb8119169	-3.4706118e-05
1	0xba88a9b0	-0.0010426547
2	0xb6b9c043	-5.535812e-06
3	0x3e4bb2bf	0.19892405
4	0xbd9c1e09	-0.07622916
5	0xb9e45509	-0.00043550905
6	0xb80aa87d	-3.305868e-05
7	0xba793507	-0.0009506498
8	0x3a365ad1	0.0006956282
9	0xbce3c366	-0.027803134
10	0x3e88397f	0.26606366
11	0xbb17cad2	-0.0023161662
12	0xbc48e532	-0.012261676
13	0xb7c56dbd	-2.3535331e-05
14	0xb841403f	-4.607462e-05
15	0xb8fca87a	-0.000120476776
16	0xbbbcb437	-0.005758788
17	0x3bbab4b8	0.005697813
18	0xbb0d1b31	-0.00215311
19	0xbb87dc5b	-0.0041461415
20	0xbcd1a5c0	-0.025591731
21	0x3f156b01	0.583664
22	0xbafacaf8	-0.0019133976
23	0xb994d6db	-0.0002838884
24	0xb7a060b1	-1.9118512e-05
25	0xba8836de	-0.0010392328
26	0xbb53401a	-0.0032234252
27	0xbe4cd5a7	-0.20003377
28	0xbc056919	-0.008142733
29	0xbb0fa41d	-0.0021917887
30	0xb8d28557	-0.00010038417
31	0xbd4e29c0	-0.050332785
32	0xb87a7dba	-5.9721737e-05
33	0xb98f73a5	-0.00027361247
34	0x3d25aef1	0.04045004
35	0xb7c227d1	-2.3145143e-05
36	0xbb1549d3	-0.0022779598
37	0x3e1b348e	0.15156767
38	0x395314c3	0.00020130262
39	0xbbc284ae	-0.005936227
40	0xbaf6cc0e	-0.0018829124
41	0xb93d8e38	-0.00018077425
42	0x3f0d8d63	0.55293864
43	0xbc4978dd	-0.012296882
44	0x3ec92834	0.39288485
45	0x3de9f03b	0.114227735
46	0xb89888e6	-7.273424e-05
47	0xb8991424	-7.29936e-05
48	0x3d54d6b8	0.051962584
49	0xbd88da22	-0.066822305
50	0x3dfbdd03	0.12298014
51	0x3d1701f2	0.03686709
52	0x3daa8c16	0.083275005
53	0xbce87679	-0.028376805
54	0xb9b7477d	-0.00034957743
55	0x3db729ca	0.089435175
56	0xbb1e6217	-0.0024167353
57	0xb9d68453	-0.0004091585
58	0xb90290c6	-0.00012451698
59	0xba7500aa	-0.0009346107
60	0xbd15a6fc	-0.0365362
61	0xb937a924	-0.0001751525
62	0x3bc50239	0.006012228
63	0xb846eb14	-4.7425812e-05

cbam1.SpatialGate.spatial.conv.weight f4 [1, 2, 7, 7]
0	0xae78439f	-5.644873e-11
1	0xb3d8bbc6	-1.00924396e-07
2	0xb0eaa3fd	-1.7072349e-09
3	0x3e9138cd	0.28363648
4	0x3008d5fd	4.978061e-10
5	0xb1c3799e	-5.689073e-09
6	0xae2a6f68	-3.8752473e-11
7	0xb4832750	-2.4429255e-07
8	0x358a584d	1.03075e-06
9	0x37e5d934	2.740007e-05
10	0xbed01df8	-0.40647864
11	0xab78bd05	-8.8369617e-13
12	0xba3e66e9	-0.00072632596
13	0x3214f42e	8.670254e-09
14	0x2d91c552	1.657222e-11
15	0x30e693f7	1.6776757e-09
16	0x2e0e4cd4	3.23553e-11
17	0x3e8da25f	0.27662942
18	0x318fd9f1	4.186625e-09
19	0x33b86866	8.587158e-08
20	0xb5af91d7	-1.3080961e-06
21	0xae7310dc	-5.5266777e-11
22	0xadb683cd	-2.0749536e-11
23	0xba192bd1	-0.0005843016
24	0xbfd54b46	-1.6663597
25	0x33b301dc	8.335675e-08
26	0x2d5d98e5	1.2596345e-11
27	0x355b5c2b	8.171798e-07
28	0x37f06a0e	2.8659615e-05
29	0x31516872	3.0472873e-09
30	0xaeb8c883	-8.402969e-11
31	0x3ffef1f3	1.9917587
32	0x2c8313d0	3.7254436e-12
33	0x2e414498	4.3944043e-11
34	0xad98a7fb	-1.7354998e-11
35	0xad493e32	-1.1439337e-11
36	0x2d8ce4ac	1.6017708e-11
37	0x38211c7d	3.8411923e-05
38	0x3da1eaa1	0.0790608
39	0x3083dbc7	9.593969e-10
40	0x37174392	9.016034e-06
41	0xb7530f54	-1.2580149e-05
42	0x2bc806c8	1.4212737e-12
43	0x32b40458	2.0956733e-08
44	0xb60caf89	-2.09638e-06
45	0xbdd78dad	-0.105250694
46	0x30a586ef	1.204368e-09
47	0x36c3c1d2	5.8340165e-06
48	0xb9adf481	-0.000331793
49	0x301a1a70	5.6062444e-10
50	0x340bb3e0	1.3010822e-07
51	0x2ebfe2ee	8.725985e-11
52	0xbf549ff2	-0.8305656
53	0x2f5ab089	1.9889702e-10
54	0x32eec2ab	2.7795371e-08
55	0x376a3071	1.39587655e-05
56	0xb4cf1b58	-3.857665e-07
57	0xb6c1ecd8	-5.7794205e-06
58	0x2a8b8c57	2.478874e-13
59	0xbd323620	-0.04350865
60	0xae8af37c	-6.318765e-11
61	0x2d125130	8.317166e-12
62	0x2bbf00e9	1.3571619e-12
63	0xb6e622f7	-6.8586046e-06
64	0xafa58a94	-3.011179e-10
65	0x2e043fcb	3.0069985e-11
66	0x3e0c9ba7	0.13731252
67	0xad22fb72	-9.264466e-12
68	0xb1e7743c	-6.736199e-09
69	0xb3288bdf	-3.924276e-08
70	0x378c34e0	1.6713922e-05
71	0x365faeb7	3.3331287e-06
72	0xaf6d80f5	-2.1600839e-10
73	0x3e972a12	0.29524285
74	0x2da9203c	1.922739e-11
75	0x2ab7fc31	3.2682323e-13
76	0x32b510ae	2.1078758e-08
77	0xb53e3ce2	-7.086911e-07
78	0x2f81e2e6	2.3626184e-10
79	0xb30c41fb	-3.26563e-08
80	0x3f08ea08	0.53482103
81	0x2e5bd88b	4.9987164e-11
82	0xad2013b6	-9.099324e-12
83	0xae3d9cdd	-4.3112947e-11
84	0x2fa57fcc	3.010413e-10
85	0x35b5ca7d	1.3544483e-06
86	0x31514d6f	3.0457519e-09
87	0x3e47e4b2	0.19520834
88	0x35f37b59	1.814081e-06
89	0x396c84a7	0.0002255613
90	0xae517ec8	-4.7633703e-11
91	0xb97d51e0	-0.00024158461
92	0xb51af918	-5.773195e-07
93	0xada45437	-1.868204e-11
94	0xbd01d5e5	-0.031698126
95	0xb61ce50f	-2.337914e-06
96	0x353fabd8	7.140311e-07
97	0xac105d0f	-2.0515289e-12

conv2Db.weight f4 [128, 64, 2, 1]
0	0x36ec40b3	7.04088e-06
1	0x37857562	1.5909496e-05
2	0xb5baa45f	-1.3905918e-06
3	0xb615b8b6	-2.2310246e-06
4	0xb4755716	-2.2849085e-07
5	0xb881dbf8	-6.192172e-05
6	0x3983bb87	0.00025125986
7	0x3a6503b8	0.0008736211
8	0x37bc198d	2.2423244e-05
9	0x3972d661	0.00023158781
10	0x37c57747	2.3539773e-05
11	0x37fc3739	3.0066456e-05
12	0x37c97761	2.4016657e-05
13	0x38554a78	5.085251e-05
14	0x3892d584	7.001593e-05
15	0x38bd25cd	9.019263e-05
16	0xb4dd9a70	-4.1276826e-07
17	0xb610d094	-2.157908e-06
18	0xb62cda48	-2.5757054e-06
19	0xb56f15a8	-8.906595e-07
20	0x36265b3d	2.4789035e-06
21	0x390c5b2e	0.00013385408
22	0xb3ebafaf	-1.0974997e-07
23	0xb672bfcb	-3.6172448e-06
24	0xb605a64d	-1.9915344e-06
25	0xb6bd4a8c	-5.6413173e-06
26	0xb415da64	-1.3956156e-07
27	0x3515b2be	5.576693e-07
28	0x3602e0fb	1.9502465e-06
29	0xb7d688e6	-2.5574536e-05
30	0xb568c8f9	-8.671919e-07
31	0xb5d8e247	-1.615911e-06
32	0xb5cccf53	-1.5259524e-06
33	0x35e19760	1.6807862e-06
34	0xb50d4ace	-5.263545e-07
35	0xbcb329ef	-0.021870581
36	0xb5848ccb	-9.875743e-07
37	0x365c5224	3.2830367e-06
38	0xb61e3fee	-2.3581047e-06
39	0xb53a3f12	-6.938218e-07
40	0xba2aa0e9	-0.0006508963
41	0x397f2935	0.00024334046
42	0x38ef3d4f	0.00011407828
43	0x3aa8e38f	0.00128852
44	0xb56fd4b1	-8.9343945e-07
45	0xb4aa4ef6	-3.172242e-07
46	0xb7320861	-1.0611578e-05
47	0xb65be9e4	-3.2769685e-06
48	0x35ba6486	1.3887336e-06
49	0xb79fad0e	-1.9034862e-05
50	0x36a46295	4.8990573e-06
51	0x380eb37e	3.4022603e-05
52	0xb5147861	-5.530947e-07
53	0x3414b399	1.3848911e-07
54	0x38ff9f85	0.0001218906
55	0x3920f826	0.00015351232
56	0x38a298fa	7.753256e-05
57	0xb98afd12	-0.00026509963
58	0xb4bf3040	-3.561163e-07
59	0xb438f30c	-1.7224755e-07
60	0xb4b560f4	-3.378442e-07
61	0xb4e108fe	-4.1916059e-07
62	0xb5e9f540	-1.743123e-06
63	0xb51ba690	-5.798438e-07
64	0x3783098a	1.5620859e-05
65	0x369578a4	4.4545905e-06
66	0xba0707e4	-0.0005151017
67	0xb52238dd	-6.043245e-07
68	0xb70176eb	-7.716687e-06
69	0xb7a2b423	-1.9395788e-05
70	0x340c19cf	1.3047905e-07
71	0x36b3c01e	5.356981e-06
72	0x3929cd56	0.0001619359
73	0x3872812e	5.7817604e-05
74	0x3862496f	5.395099e-05
75	0x39a5147c	0.00031486514
76	0xb33c6d4f	-4.3871577e-08
77	0x36360206	2.7121291e-06
78	0xb9069a08	-0.00012836617
79	0x3806bac3	3.2122025e-05
80	0x385abf5d	5.215347e-05
81	0x38b0f133	8.437261e-05
82	0x37c1dd35	2.31104e-05
83	0x372f38f0	1.044407e-05
84	0x39d0cfbc	0.00039827626
85	0xbb9f28a7	-0.004857141
86	0xb6f298a0	-7.22993e-06
87	0x37f23d93	2.887732e-05
88	0x39c1ad0d	0.00036940761
89	0xba343835	-0.00068748306
90	0x3933d7e6	0.00017151199
91	0x38ae569a	8.313097e-05
92	0x372b25ed	1.02012245e-05
93	0x37ad9516	2.069263e-05
94	0x372a9079	1.0166427e-05
95	0x34cac39d	3.776776e-07
96	0x381daafe	3.7590966e-05
97	0x39810636	0.00024609425
98	0xb8eda76c	-0.000113322254
99	0x3852f5d7	5.0296858e-05
100	0x3a5651ec	0.00081756595
101	0x3a2620e2	0.00063372974
102	0x38ef822d	0.00011420655
103	0xb825cb9f	-3.9528702e-05
104	0x38c5e6d1	9.436685e-05
105	0x390c902d	0.0001340515
106	0x39d66cdf	0.00040898376
107	0xb95916dd	-0.0002070325
108	0xb781ee06	-1.5488837e-05
109	0x38696af5	5.565114e-05
110	0x3968eece	0.00022214206
111	0x397093ff	0.00022943316
112	0xb5975883	-1.1276137e-06
113	0xb5a3a81e	-1.2193375e-06
114	0xb9805fc2	-0.00024485408
115	0xb7c3f628	-2.3360437e-05
116	0xb6803ba7	-3.8216417e-06
117	0xb68680e7	-4.0085174e-06
118	0xb3c9d79f	-9.399013e-08
119	0xb53f05c3	-7.116143e-07
120	0x350a6c64	5.1566735e-07
121	0x38e502da	0.00010920102
122	0x33e5168d	1.06677454e-07
123	0xb416ad70	-1.4032935e-07
124	0xb53d8713	-7.0604545e-07
125	0x35ba9c24	1.3903523e-06
126	0x3584500b	9.858062e-07
127	0x372405ef	9.776543e-06
128	0x375064bb	1.2421219e-05
129	0x386bc4d2	5.621167e-05
130	0x35958354	1.1139587e-06
131	0x36c5a51d	5.890279e-06
132	0x3a3c0236	0.00071719603
133	0xba97a827	-0.0011570499
134	0xba2bf42d	-0.00065595174
135	0xba3be27d	-0.0007167233
136	0x391533e5	0.0001422908
137	0x38b64ae7	8.692388e-05
138	0x3838137b	4.388716e-05
139	0x382410ea	3.91164e-05
140	0x36cbe751	6.0768e-06
141	0x369074ca	4.3051305e-06
142	0x34d22bf1	3.914752e-07
143	0x38121631	3.482978e-05
144	0x36088e24	2.0348316e-06
145	0x35cb0cc4	1.5128394e-06
146	0xba47af0e	-0.0007617333
147	0xbaaf7f55	-0.0013389388
148	0x3987edb8	0.0002592632
149	0xb9ee228f	-0.00045420646
150	0x398b1e99	0.00026534943
151	0x36c81bc5	5.9636973e-06
152	0x3c05b4ab	0.00816075
153	0x3a369df7	0.00069662876
154	0x348e102a	2.6461322e-07
155	0x378ebe4e	1.7016337e-05
156	0x36b62d94	5.4293287e-06
157	0x38f94a08	0.000118870346
158	0x3a896e62	0.0010485167
159	0x38fe4573	0.000121246
160	0xb8b7cb1a	-8.7639506e-05
161	0x36df358f	6.652153e-06
162	0x3b6aa618	0.0035804566
163	0x38fb3c30	0.000119798235
164	0x3b4cb1c0	0.0031233877
165	0x3a11e5dd	0.00055655633
166	0xb669faf7	-3.4865786e-06
167	0x35964f24	1.1198904e-06
168	0x39270ca7	0.00015931074
169	0x392e1e11	0.00016605134
170	0xba7fe0eb	-0.00097609934
171	0xba3cf5af	-0.00072082406
172	0x3728a3d7	1.0051727e-05
173	0x39f6ba82	0.00047059736
174	0xb76fb3a8	-1.428734e-05
175	0x38000fc6	3.053227e-05
176	0x34094789	1.2785144e-07
177	0x37d360c0	2.5198213e-05
178	0x373888d5	1.0999113e-05
179	0x38c77331	9.5105155e-05
180	0xb881aba4	-6.18317e-05
181	0xb6781c87	-3.6971485e-06
182	0x38e4b60e	0.000109057975
183	0xb9d594b7	-0.00040737327
184	0x38c3b925	9.3328104e-05
185	0x38974630	7.2133145e-05
186	0x35f482d6	1.8217495e-06
187	0x357232f4	9.022617e-07
188	0xb7dfaad8	-2.6663227e-05
189	0x37b6b117	2.1778555e-05
190	0xb94cfac2	-0.0001954837
191	0x3914f0a9	0.00014204033
192	0x351e45bb	5.896106e-07
193	0x37ac327f	2.0527512e-05
194	0x39826305	0.00024869308
195	0x34b22c08	3.318712e-07
196	0x3b0be044	0.002134339
197	0xb93524da	-0.00017275233
198	0xb41974d6	-1.429174e-07
199	0x3663407c	3.386317e-06
200	0x3834d2a0	4.3111504e-05
201	0x38eaf241	0.00011203113
202	0xb9c3cbae	-0.00037345052
203	0xba19d341	-0.0005867966
204	0xb882d92b	-6.239334e-05
205	0x3588bd50	1.0187887e-06
206	0x3a166883	0.00057376194
207	0xba101d78	-0.0005497555
208	0xb91f3a0e	-0.00015185049
209	0x390162fc	0.00012339273
210	0xb6037baf	-1.9592514e-06
211	0x38a6e537	7.9581914e-05
212	0xba9bf1c1	-0.001189761
213	0xba4296c8	-0.0007422981
214	0x34188593	1.4204697e-07
215	0x340c082c	1.3041489e-07
216	0xba103f14	-0.00055025634
217	0xba833256	-0.0010009508
218	0x3aa83dda	0.0012835816
219	0x390f1c32	0.00013648046
220	0x37e5db8d	2.7401164e-05
221	0x39117d8b	0.00013875046
222	0x36b22218	5.3087824e-06
223	0x35ab1e37	1.2749286e-06
224	0x381a16d7	3.6737732e-05
225	0x387562ba	5.8504498e-05
226	0x3858ceb9	5.169094e-05
227	0xb96ee73c	-0.0002278359
228	0x3916f2b9	0.00014395536
229	0xb91438fc	-0.00014135608
230	0x38c080c5	9.1792586e-05
231	0x39773f5b	0.00023579357
232	0x3b7eeae7	0.0038897337
233	0x399b8b38	0.0002966763
234	0xb9ef9d85	-0.00045702994
235	0x3a41da98	0.0007394939
236	0xb671975b	-3.59999e-06
237	0x376d1ee0	1.41334895e-05
238	0x3928812c	0.00016069849
239	0xb927ad86	-0.00015991004
240	0x35852fca	9.923181e-07
241	0x366ca549	3.526295e-06
242	0xb99f3ad9	-0.00030370688
243	0xb83efb63	-4.5533652e-05
244	0xb6aabeca	-5.0886056e-06
245	0x374bab49	1.2139623e-05
246	0xb743dff1	-1.1675046e-05
247	0x373b6993	1.11706495e-05
248	0xb48b8494	-2.598723e-07
249	0x34b73e54	3.4131756e-07
250	0x37c48301	2.3426024e-05
251	0x38624da3	5.3954904e-05
252	0x364b88de	3.0329024e-06
253	0x36ef324e	7.1286113e-06
254	0x37af73fc	2.0915635e-05
255	0x37666230	1.3731929e-05

conv2Db.bias f4 [128]
0	0xbd32972e	-0.043601207
1	0xbc530440	-0.012879431
2	0xbc8bc2cc	-0.01706066
3	0xb935854b	-0.0001731116
4	0xbbaf357b	-0.0053469515
5	0xbd978ef4	-0.07400313
6	0x3f5fe44e	0.8745774
7	0xbb104355	-0.002201279
8	0xbbde99e7	-0.006793249
9	0xbab7f97d	-0.0014036145
10	0xbacf47c4	-0.0015814235
11	0xbd52f747	-0.051505353
12	0x3e05dac5	0.13071735
13	0xbb23b24e	-0.0024978104
14	0x3bb114f8	0.005404111
15	0x3e27e0f5	0.16394408
16	0xbabdb74f	-0.0014474186
17	0xba48df54	-0.0007662673
18	0xbcadd486	-0.021219503
19	0xbd1b1782	-0.037864216
20	0x3d02c89b	0.031929594
21	0xbc623807	-0.013807303
22	0xb9982743	-0.00029020951
23	0xbbe23b05	-0.0069040083
24	0xbd107717	-0.035269823
25	0xbd26d3a1	-0.04072917
26	0xbcbe2822	-0.023212496
27	0xbbc3a0b4	-0.005970085
28	0xb9a382ff	-0.00031187382
29	0xbd3d1d2a	-0.04617039
30	0xb9bfdc96	-0.00036594708
31	0xba33037f	-0.0006828829
32	0x3eb3a097	0.35083458
33	0xbb05ee5d	-0.0020436265
34	0xbcca6c93	-0.024709975
35	0xba223460	-0.0006187614
36	0xbe25c7a2	-0.16189435
37	0xbbe44591	-0.006966301
38	0xbab9cc59	-0.001417528
39	0xbccb80a3	-0.024841612
40	0xbd6f4faa	-0.058425583
41	0x3e9406c8	0.28911424
42	0x3f42bb68	0.7606721
43	0xbc17f725	-0.009275232
44	0xbba41c71	-0.0050082733
45	0xbb543c6c	-0.0032384647
46	0xbd00b189	-0.03141931
47	0xbcbe7c49	-0.023252623
48	0xbc98f8b2	-0.018673275
49	0xbbb27417	-0.005445968
50	0xbc4562f9	-0.012047523
51	0xbb0ebbd1	-0.0021779428
52	0xbbc302a1	-0.005951241
53	0xb982e5bc	-0.00024966698
54	0xbbad1220	-0.0052817017
55	0x3ea7105b	0.32629666
56	0xbc0068bd	-0.007837472
57	0xbcf97271	-0.030450078
58	0xbcb6a5f9	-0.022295939
59	0xbc8b1ea4	-0.016982384
60	0xbe127c77	-0.14305292
61	0xbec3bcb1	-0.38229898
62	0xbd29c0a3	-0.04144348
63	0xb9e7d272	-0.00044216547
64	0xbd28384e	-0.04106932
65	0x3e324d67	0.17412339
66	0xbb208c25	-0.0024497595
67	0xbb8d85d5	-0.0043189325
68	0x3d84ad1e	0.06478332
69	0xbbe9ccc9	-0.007135008
70	0xbdb4da6c	-0.08830723
71	0xbbe849bb	-0.0070888675
72	0xbc98648a	-0.018602628
73	0xbb0aaa5f	-0.0021158678
74	0xbbdc74c5	-0.006727787
75	0xbc728491	-0.014802114
76	0xb96934ca	-0.00022240277
77	0xbb900ba1	-0.0043959175
78	0xbbe41745	-0.0069607818
79	0xbc0ca39b	-0.008583928
80	0x3efd1260	0.49428082
81	0xba623396	-0.0008628903
82	0xba6d176a	-0.00090443215
83	0xbc8fa952	-0.017536793
84	0xb9a6752f	-0.00031749296
85	0xba206fee	-0.00061201944
86	0xbaa3cb1f	-0.0012496448
87	0xbd31e562	-0.043431647
88	0xbbc0eb87	-0.005887452
89	0xbb02e593	-0.0019973263
90	0xbaebb9f2	-0.0017984493
91	0xbc5584d1	-0.013032154
92	0xba165e9a	-0.00057361426
93	0xba6b76b8	-0.0008982229
94	0xbc5eeecd	-0.013606739
95	0xbcb10b12	-0.021611724
96	0xbc7636a0	-0.015027672
97	0xba0387aa	-0.0005017469
98	0xba2faf2f	-0.00067018246
99	0x3ea58f95	0.32336107
100	0xb94bc4e2	-0.00019432933
101	0xb98b0260	-0.00026513916
102	0x3f2d7eae	0.6777142
103	0xb9224963	-0.00015476863
104	0xbd053a4a	-0.032526292
105	0xbe23da35	-0.16001208
106	0xbc49503b	-0.012287195
107	0x3e347ebd	0.17626472
108	0xbbf9e554	-0.007626215
109	0xbad4c7b9	-0.0016233838
110	0xbdb400df	-0.08789229
111	0xbb5c35a5	-0.003360131
112	0xbe0ab61c	-0.13546032
113	0xba0583ab	-0.00050931674
114	0xbcefa389	-0.029252784
115	0xbb6e6ae9	-0.0036379641
116	0xbd531ccb	-0.05154113
117	0xb9c9a23a	-0.00038458576
118	0xbc773b76	-0.01508986
119	0xbca0d9fb	-0.019635191
120	0xbad402db	-0.0016175167
121	0xbe1467aa	-0.1449267
122	0xbc1a34dd	-0.009412018
123	0xbd3bba77	-0.045832124
124	0x3f0498cf	0.5179567
125	0xbc984574	-0.018587805
126	0xbc4efa89	-0.012632974
127	0xbd3a51a5	-0.04548802

cbam2.ChannelGate.mlp.1.weight f4 [8, 128]
0	0x80006baf	-3.863e-41
1	0x8000cf8e	-7.4457e-41
2	0x000017a7	8.485e-42
3	0x000102a9	9.279e-41
4	0x00000f21	5.427e-42
5	0x800010e3	-6.058e-42
6	0x0b3a7321	3.590891e-32
7	0x8000082d	-2.933e-42
8	0x8000ebdf	-8.4615e-41
9	0x000031c9	1.786e-41
10	0x80003c38	-2.1602e-41
11	0x800029cf	-1.4998e-41
12	0x00002b73	1.5587e-41
13	0x0000564b	3.0956e-41
14	0x800025bc	-1.3537e-41
15	0xa4adf09d	-7.5434405e-17
16	0x800019d2	-9.263e-42
17	0x80007236	-4.0971e-41
18	0x00002981	1.4889e-41
19	0x8000b54f	-6.5041e-41
20	0x000019eb	9.298e-42
21	0x0000c0e6	6.9199e-41
22	0x0000a000	5.7397e-41
23	0x80010401	-9.3272e-41
24	0x00004bc3	2.7178e-41
25	0x80004a67	-2.669e-41
26	0x00002e9f	1.6724e-41
27	0x00014197	1.15365e-40
28	0x00011a6b	1.01312e-40
29	0x0000052e	1.858e-42
30	0x0000c206	6.9602e-41
31	0x80001ea0	-1.0986e-41
32	0x00000924	3.279e-42
33	0x8000dd77	-7.9447e-41
34	0x8000061b	-2.19e-42
35	0x8000e72a	-8.2926e-41
36	0x8000195b	-9.096e-42
37	0x8000b5b7	-6.5187e-41
38	0x00019d5f	1.4829e-40
39	0x00dec5cb	2.0458435e-38
40	0x0000d71f	7.7171e-41
41	0x00000162	4.96e-43
42	0x844003c5	-2.2571222e-36
43	0x8000212d	-1.1901e-41
44	0x00001dbc	1.0667e-41
45	0x8000c34f	-7.0064e-41
46	0x800031ea	-1.7906e-41
47	0x800084c9	-4.7634e-41
48	0x8000390e	-2.0467e-41
49	0x0000fc1e	9.0443e-41
50	0x0000533a	2.9856e-41
51	0x8000a7be	-6.0175e-41
52	0x80000dd7	-4.965e-42
53	0x80005db4	-3.3614e-41
54	0x00006374	3.5677e-41
55	0x00000b61	4.082e-42
56	0x800000c1	-2.7e-43
57	0x0000ddbe	7.9546e-41
58	0x80002dca	-1.6426e-41
59	0x80011efd	-1.02952e-40
60	0x00002bb9	1.5685e-41
61	0x000066ef	3.6926e-41
62	0x800012c2	-6.729e-42
63	0x8000d3e4	-7.6012e-41
64	0x00003fb0	2.2847e-41
65	0x00000653	2.269e-42
66	0x8000982d	-5.459e-41
67	0x800020b2	-1.1729e-41
68	0x0000f2ee	8.7147e-41
69	0x00005d21	3.3408e-41
70	0x8000c2ad	-6.9837e-41
71	0x80001339	-6.896e-42
72	0x00001d6d	1.0556e-41
73	0x000024c7	1.3193e-41
74	0x000073f8	4.1602e-41
75	0x00009b47	5.5703e-41
76	0x0001941b	1.44966e-40
77	0x0000dd3a	7.9361e-41
78	0x0000a24e	5.8224e-41
79	0x8000f953	-8.944e-41
80	0x00000bf0	4.282e-42
81	0x8001275f	-1.05959e-40
82	0x0000eb1e	8.4344e-41
83	0x80005de6	-3.3684e-41
84	0x00008328	4.705e-41
85	0x00014e93	1.20023e-40
86	0x80016891	-1.29347e-40
87	0x80000ab6	-3.842e-42
88	0x8000216f	-1.1994e-41
89	0x0000990e	5.4906e-41
90	0x0000430a	2.4049e-41
91	0x0000147d	7.35e-42
92	0x00002947	1.4808e-41
93	0x80000066	-1.43e-43
94	0x80002280	-1.2376e-41
95	0x00000eb9	5.281e-42
96	0x00002158	1.1961e-41
97	0x0000155d	7.664e-42
98	0x00004c4e	2.7373e-41
99	0x00123811	1.673152e-39
100	0x8000521c	-2.9455e-41
101	0x00006315	3.5544e-41
102	0x800007c3	-2.784e-42
103	0x800022f1	-1.2535e-41
104	0x00002f44	1.6956e-41
105	0x05d11298	1.9661096e-35
106	0x00000091	2.03e-43
107	0x8018baf8	-2.271124e-39
108	0x80010afb	-9.5775e-41
109	0x800025bd	-1.3538e-41
110	0x0000280a	1.4363e-41
111	0x0000b503	6.4935e-41
112	0x000010b2	5.989e-42
113	0x800023bc	-1.2819e-41
114	0x00004006	2.2967e-41
115	0x80009374	-5.2896e-41
116	0x000024f0	1.325e-41
117	0x800049cc	-2.6473e-41
118	0x80004577	-2.4919e-41
119	0x00007e3f	4.5289e-41
120	0x800132fd	-1.10127e-40
121	0x00007008	4.0189e-41
122	0x000014fe	7.53e-42
123	0x80004077	-2.3126e-41
124	0x80000a6e	-3.741e-42
125	0x80006c5a	-3.8869e-41
126	0x80007568	-4.2117e-41
127	0x80000f1b	-5.419e-42
128	0x181f7ed6	2.0614304e-24
129	0x99429707	-1.0060065e-23
130	0x99994a4d	-1.5849839e-23
131	0x18247416	2.1255112e-24
132	0x19410bc8	9.980245e-24
133	0x19b2ff6d	1.8507934e-23
134	0xb32d4842	-4.034542e-08
135	0x1885f718	3.4629195e-24
136	0x97b186ca	-1.1472382e-24
137	0x190fd44c	7.4358e-24
138	0x1785e219	8.651999e-25
139	0x99043d88	-6.836666e-24
140	0xb783cf0d	-1.5712832e-05
141	0x986ea884	-3.0845858e-24
142	0xbbb2d50b	-0.0054575256
143	0xbb0516a0	-0.0020307675
144	0x18b3d73f	4.648776e-24
145	0x98935c05	-3.8091525e-24
146	0x1926d7d6	8.6255866e-24
147	0x19266052	8.6014506e-24
148	0xbb430f35	-0.0029763703
149	0x98af16e4	-4.5259553e-24
150	0x16474083	1.6095448e-25
151	0x993e03ea	-9.82356e-24
152	0x1990d9f6	1.4977285e-23
153	0x986be58d	-3.0488932e-24
154	0x993dbdcf	-9.8094025e-24
155	0x97f1431f	-1.5591204e-24
156	0x955bf778	-4.4421916e-26
157	0x190ae4e9	7.180661e-24
158	0x96de4f0e	-3.5915925e-25
159	0x19258d22	8.558802e-24
160	0xb6e4239e	-6.799076e-06
161	0x191dab7f	8.151343e-24
162	0x98bebf49	-4.9306998e-24
163	0x16355aaa	1.4649672e-25
164	0xae09379e	-3.119959e-11
165	0x988d188a	-3.6472424e-24
166	0x19288ca9	8.7138025e-24
167	0x985f719e	-2.8879436e-24
168	0x1936967c	9.4395695e-24
169	0x19892337	1.4179691e-23
170	0xbb200b80	-0.0024420917
171	0x18acacd0	4.4635454e-24
172	0x18b2acef	4.618654e-24
173	0x185bf876	2.8430527e-24
174	0x191c330c	8.07532e-24
175	0x995be408	-1.1368085e-23
176	0x99ac1e0e	-1.7796522e-23
177	0x173b20f1	6.0464537e-25
178	0x18c5adb1	5.109869e-24
179	0x98e42147	-5.897022e-24
180	0x187d1da9	3.2714458e-24
181	0x16fb5d5f	4.0610163e-25
182	0x1907a50e	7.012669e-24
183	0xa07cbca3	-2.1407645e-19
184	0x1793a232	9.540596e-25
185	0x18c3f84d	5.065704e-24
186	0x99913a41	-1.5016177e-23
187	0x98ba8868	-4.821761e-24
188	0xb9d117d7	-0.00039881348
189	0xb9b58e4e	-0.00034629036
190	0x189f6688	4.1204067e-24
191	0x9713f8bc	-4.781221e-25
192	0x19381468	9.516698e-24
193	0x99eb657d	-2.4339421e-23
194	0x18d10518	5.4030377e-24
195	0x986ff70f	-3.1014759e-24
196	0x194215a9	1.0033939e-23
197	0x96dde9eb	-3.5852099e-25
198	0x99775f5e	-1.278886e-23
199	0x1958111c	1.11703935e-23
200	0x996bf224	-1.2198115e-23
201	0x98424b33	-2.5111878e-24
202	0x979e60f9	-1.023499e-24
203	0x991b1f4b	-8.019632e-24
204	0x97a0de95	-1.0395945e-24
205	0x16071b79	1.0913882e-25
206	0x975230c5	-6.7916215e-25
207	0x98c96d31	-5.2067537e-24
208	0xb830663a	-4.2056876e-05
209	0x162fa935	1.418978e-25
210	0x15d49612	8.586289e-26
211	0x99542955	-1.096849e-23
212	0x951eb439	-3.2050017e-26
213	0x9786f931	-8.722452e-25
214	0x9506a20f	-2.7188926e-26
215	0x1924d0b1	8.520746e-24
216	0x98580d62	-2.7924102e-24
217	0x1756e660	6.9437903e-25
218	0x18e84182	6.003674e-24
219	0x187165c7	3.1199904e-24
220	0x189e020d	4.0844114e-24
221	0x17ebb366	1.5231806e-24
222	0x14623302	1.1420144e-26
223	0x97b316d8	-1.157337e-24
224	0x97ddf5a0	-1.4343795e-24
225	0x9823b223	-2.1157192e-24
226	0x96d806c7	-3.490096e-25
227	0xbd090d95	-0.03346022
228	0x16635f0b	1.8366904e-25
229	0x980ff628	-1.8606594e-24
230	0xb87428a6	-5.821199e-05
231	0x973977f8	-5.9928146e-25
232	0x9ae16487	-9.322023e-23
233	0xb8648fda	-5.449341e-05
234	0x990b5bd7	-7.2046785e-24
235	0xb888c9a8	-6.522547e-05
236	0x953076f1	-3.5636745e-26
237	0x194c26d7	1.05543965e-23
238	0xba4d4a23	-0.00078311766
239	0x990618f1	-6.9326745e-24
240	0xb4e68ad8	-4.294186e-07
241	0x1751d11b	6.779547e-25
242	0x97d33fad	-1.3651629e-24
243	0x17f74945	1.5980497e-24
244	0xbc1866c7	-0.009301848
245	0x18c41ed1	5.069593e-24
246	0x99377d66	-9.486202e-24
247	0x18957ddd	3.8642687e-24
248	0x94de3e60	-2.2440874e-26
249	0x998a4a21	-1.4298806e-23
250	0x18041856	1.7072887e-24
251	0x19044bb9	6.839532e-24
252	0xb98f7a43	-0.00027366178
253	0x195d037c	1.1426136e-23
254	0x9904d2e4	-6.866829e-24
255	0x9914e9b2	-7.698615e-24

cbam2.ChannelGate.mlp.1.bias f4 [8]
0	0x80000fed	-5.713e-42
1	0xbc1c74cd	-0.009549332
2	0xbca53b99	-0.02017002
3	0xbd4ca6bb	-0.049963694
4	0xbe0c3ca5	-0.13695009
5	0xbc4f8e74	-0.012668241
6	0xbed597b4	-0.41717303
7	0xb17270bc	-3.5279717e-09
